models/resNet_uaspeech_best.pth (torch, 129577 bytes, 37 tensors)

stem.0.weight f4 [16, 1, 3, 3]
00000000: efb6 a23e d67b 8a3e 2ce2 6d3e 1c67 eabd
00000010: cd6d 9f3d 18af 873e 060b 78be 65f5 8cbc
00000020: 2f2b 98be a17b 35be 9243 263e aa39 ab3e
00000030: 9cfa debd a49e 0b3e 8d0d 8fbe 6506 1cbe
00000040: 11c8 99bd a5fd afbe e054 7a3e 1424 bd3d
00000050: c133 09be 9ded 7ebe e1dd 3ebe 19b5 7a3e
00000060: 2a8f eabd b4c2 95be a660 a33e c38f 6dbd
00000070: 7b3e 8b3e 8bab 953e 4ed9 1f3e 996e 67be
00000080: 6f2c 3dbe 6102 a2bd 0dfb 883e 335b b53d
00000090: 20ab a8be 6f00 d73d d83e 9bbe b066 853e
000000a0: 1715 803e 928b 8bbe 8aa8 e33d 745e 42be
000000b0: 7c06 423e 8fc3 8bbe 595b 8d3e a7c8 e4bd
000000c0: 7bd6 4fbe 9f71 87bd 61c2 8ebd f1b2 563e
000000d0: eec3 a4bc 2f17 e93c 7ac8 1ebe 57ba 053e
000000e0: cb51 f53c 6f57 90bd 8f89 8d3d 7130 fd3d
000000f0: eea8 323e 12d2 97be 7d08 95be a018 99be
00000100: fcec 963e a828 4e3d 3ac5 43bd 9ddc 073d
00000110: ab97 bcbe 38ce 2abc 27a5 9ebe 4bc4 9dbd
00000120: 0a75 c63d 4623 ab3e 48f3 e9bc 89a2 863e
00000130: 868e e43d cc01 8d3e 398c dd3d 3db1 a23e
00000140: 2b2f 943e cb48 8b3e 5508 3b3e a58c fabd
00000150: 036b a0be dc7d 93be cf77 0bbd fcbf cbbd
00000160: cf19 d9bd 8564 383e 70a5 c53d 3e72 4d3c
00000170: 04eb a7be 852a 8cbb 591a bd3d 6728 593e
00000180: 3084 3dbe f3c1 7e3c f317 6b3e b51e 49be
00000190: 1264 b1be e42a 403e b8c9 0d3d a04d 503e
000001a0: 79d2 2bbe bbd8 50bd 99b9 84bc 141c f43d
000001b0: e5e6 503e e582 ed3b aadc 7c3e 7282 8dbe
000001c0: c0bf 973e cdb2 9a3e b086 64be 262f 6b3e
000001d0: 6bcc 5cbc 51cd 9fbc 0560 89bd fa2b 14bd
000001e0: 369e 6e3e a8e3 57bc e586 5abe 5660 80bd
000001f0: 2032 4ebe cacd f63d 055c 09be a5d3 873d
00000200: 9edc 2b3e b542 913e bf05 31bc 6ab6 aabd
00000210: 04bb 7ebe bb96 36be b756 9abd 6bdb 98be
00000220: 5e2b eabd a3aa fa3d 8004 3fbe 400b 003e
00000230: 65eb 01be 4600 05be 1094 f3bd 9685 99be
0.31780192 0.27047604 0.23230809 -0.11445448 0.07784615 0.26500773 -0.24222955 -0.017206857
-0.29720446 -0.17722942 0.16236714 0.33442432 -0.10887644 0.13634735 -0.27940026 -0.15236814
-0.07508863 -0.34373203 0.2444644 0.09235397 -0.13398649 -0.2489533 -0.18639328 0.24483146
-0.11453088 -0.2925011 0.31909674 -0.05799843 0.27196106 0.2923244 0.15610239 -0.22600783
-0.18473981 -0.0791061 0.26754037 0.088552855 -0.32943058 0.104981296 -0.30321383 0.26054907
0.2501609 -0.2725492 0.11116131 -0.18981344 0.18947786 -0.27297637 0.27608755 -0.11171084
-0.20296662 -0.066134684 -0.069706686 0.20966698 -0.020112958 0.028453438 -0.15506163 0.13059364
0.029946228 -0.07047927 0.06911003 0.12362755 0.17447254 -0.29652458 -0.2910804 -0.299016
0.2947768 0.05033174 -0.04779551 0.033169378 -0.36834463 -0.010425143 -0.30985376 -0.077034555
0.09690292 0.3342535 -0.028558388 0.2629588 0.11159997 0.27540433 0.10817761 0.31775847
0.28942236 0.27203974 0.18264897 -0.12233857 -0.31331643 -0.2880696 -0.034049805 -0.099487275
-0.10600626 0.18007095 0.09650695 0.0125394445 -0.3279649 -0.0042775297 0.09233541 0.21206819
-0.18507457 0.015549171 0.22958355 -0.1964062 -0.3464666 0.18766361 0.034616202 0.20342112
-0.16779508 -0.05098794 -0.016201781 0.11919418 0.2040058 0.00724827 0.24693552 -0.27638584
0.2963848 0.3021454 -0.22317004 0.22967204 -0.013476471 -0.019507082 -0.067077674 -0.03617475
0.2330254 -0.013176836 -0.2134052 -0.062683746 -0.20136309 0.1205097 -0.13414009 0.06632165
0.16783378 0.28371206 -0.010804593 -0.08335574 -0.24876028 -0.17830937 -0.07536071 -0.29854903
-0.11434053 0.122395776 -0.1865406 0.12504292 -0.12687452 -0.12988386 -0.11893475 -0.2998473

stem.0.bias f4 [16]
00000000: 7b5d 403e 706e ec3d 97e1 893e 3f05 12be
00000010: 1f97 983e 838c 1bbe 5487 8bbd 2e4f 163c
00000020: 696b 1a3e 88be 3e3e 5854 ffbd 0320 d9bd
00000030: 821f 23be 460c a6bd 2a6e 873d c5fb be3d
0.1878566 0.11544502 0.26929924 -0.14259814 0.29802796 -0.1519032 -0.06812921 0.009174151
0.15080036 0.1862737 -0.12467259 -0.10601809 -0.15929988 -0.0810781 0.06612809 0.09325365

stem.1.weight f4 [16]
00000000: 12c8 7d3f 29e8 783f 2ecd 803f fd93 7d3f
00000010: ae0e 763f dfc6 823f b6de 7c3f 786c 783f
00000020: 8e62 823f b2c1 7e3f 5986 7f3f 8b06 783f
00000030: a8da 7e3f 3d71 763f f2f7 7c3f a926 7f3f
0.9913341 0.9722925 1.0062616 0.9905394 0.9611615 1.0216941 0.9877733 0.9704051
1.0186327 0.99514306 0.99814373 0.96884984 0.9955239 0.9626654 0.98815835 0.99668366

stem.1.bias f4 [16]
00000000: 4556 9cbb d474 2cba 9a48 de3c e91d 25b9
00000010: 2435 cabc 954c 1b3d 72d7 02bd 8ef7 b0bc
00000020: 436d ab3c 9cc9 0c3d aa97 953d ff68 a03d
00000030: 4170 0cbb d87a 163d bcf6 e3bc 7f28 253d
-0.0047710263 -0.0006578688 0.027134228 -0.00015746769 -0.024683543 0.03791483 -0.031943746 -0.021602418
0.020926123 0.034371957 0.07304318 0.078325264 -0.0021429213 0.036738247 -0.027827613 0.040321823

stem.1.running_mean f4 [16]
00000000: 2c9a 543e 0fc4 133e 9861 8c3e 1d16 23be
00000010: 69e4 963e 3c43 23be 9bb0 42bd 9f86 073d
00000020: 15b2 d53d 3df7 423e 72be 03be 3cec d9bd
00000030: 7f8a 29be bb79 94bd 5617 b83d 81f1 003e
0.20761937 0.14430259 0.27418208 -0.15926404 0.29471138 -0.15943617 -0.047531705 0.03308737
0.10434357 0.19039626 -0.12865618 -0.10640761 -0.16556738 -0.07249781 0.08988826 0.12592126

stem.1.running_var f4 [16]
00000000: c174 763f b85f de3e d581 573e fdc2 e03e
00000010: 8332 ca3e bc41 313e 24b8 403e 64cb a43e
00000020: 19b1 823f 51a0 173f b8b6 5b3e 3448 483e
00000030: b93c da3e e860 a03d 25ca 7e3e e6d3 ba3e
0.962719 0.43432403 0.2104562 0.43898764 0.39491662 0.17310232 0.18820244 0.32186425
1.0210296 0.59229 0.2145642 0.19558793 0.42624453 0.078309834 0.248818 0.3648979

layer1.c1.weight f4 [16, 16, 3, 3]
00000000: 2afe a0bd 4e01 5cbd 059c 903c 0fb5 ef3d
00000010: 6878 7f3d 1599 603d 51ee 343d abcc 35bd
00000020: eeb9 b23b 60b5 b43c fd7e f6bc d01c 88bd
00000030: 9230 a3bc 95bb b53d d851 55bc 7882 7e3d
00000040: e3b2 513c b95f 34bd 4df9 1dbd 6b94 b03d
00000050: 06c3 b43c b64d 0d3d 735b 45bd 3b71 93bd
00000060: 2a3d 5d3c d269 e13a fbb7 7abd f86c 333d
00000070: e372 82bd 9cbb 163c e555 8b3c 9512 343c
00000080: 53ef 8c3d 45d9 86bd 19e2 57bd 5ee7 813c
00000090: a975 bb3c ecf4 093c 9138 7c3d 8595 223d
000000a0: 923f 823c 2d01 5cbc 0a98 173c 96b6 2a3d
000000b0: 5750 2b3d f872 29ba 0d9a c13b 36ce 22bd
000000c0: 2b6b a23c bfed a6bd 9e43 b8bc 2773 4c3d
000000d0: 1e0d a63d 922a 7b3d 18ac da3c f90d a6bc
000000e0: bac4 983d 6392 373d 0582 81bd 515e aabd
000000f0: 4ff3 5b3d 9e67 d13c 2ffa abbc 1fac 51bd
00000100: 6c43 253d 1174 9f3d 46de 82bc 7b43 893d
00000110: bd0f 913d 7214 64bd 67e3 513d 45fe 253d
00000120: 41f2 fabc ed93 05bd 4e07 b23c 7847 5e3d
00000130: efde abbc 852e c6bc e555 d6bb c500 2ebd
00000140: c4b4 4c3d e996 4e3d c2cd 26bd ec7b 30bd
00000150: cbfc 0b3c e464 093d 3f5f 9f3c be2d ab3d
00000160: 766c 44bd 9e74 3f3d 07d1 953d 3544 a1bb
00000170: 1cf5 853c 81d6 c93d a8da 9f3b 182f 10bd
00000180: 7100 01bd 01b7 b1bb c2d6 303c 3e0b 733d
00000190: 2209 003d a223 a4bc d631 36bd 537f c63c
000001a0: b974 85bd 54ed 0e3d e49b 00bd f0cf 42bd
000001b0: e9cf 2a3d efd8 89bd 2d99 ff3c d4c4 a43d
000001c0: bbdd 803d f306 9f3d 58e1 42bd d2e3 96bd
000001d0: 7918 4a3d 0c5a 88bc d0b9 63ba dae5 26bd
000001e0: c5b8 9abd 9a27 c7bb a071 7a3c 49ed 5cbd
000001f0: ffde 6ebd dab2 8fbd 91ba 843d 76e1 973d
00000200: 572e 953d 103d 51bc be86 3b3c 97e8 5b3d
00000210: 85e7 843d c07d 693d 4749 c53c 3f4f 3dbd
00000220: 163d 473d 786a 543c 1fbb 81bd e299 ed3b
00000230: 5a1b 87bd 6bce 6fbd 1683 85bd e7e1 d2bc
00000240: df51 443d 3ef0 49bd dbdf d83c 1b5a 8cbd
00000250: 51ce f93c f16a a9bd 3921 7abd 53b2 01bd
00000260: 9cda 7c3d f9a9 2a3d 74e0 373d b572 90bc
00000270: 6453 873d 8c25 453d 2fc3 46bd a30f 39bd
00000280: f843 ab3b 5b4e 923d 3213 8bbd b2eb 89bd
00000290: 1b17 043d f159 9cb9 c4c9 bf3c 68e0 70bd
000002a0: 0b67 61bd 8156 70bd bbb3 1cbb aa3c 783d
000002b0: 7b81 5bbc 05ca 533b 85c8 b9bc 6b2e dc3c
000002c0: 28bb 2b3d 9f6f 9abc 7c30 833c 669b 073d
000002d0: 0ef5 4abd a03a bfbd a1f6 cdbc 62b4 633b
000002e0: 67a2 97bd 4c92 c53c 82f5 213c 1a98 1ebd
000002f0: 0529 15bd 58b6 88bc 97b1 673b 360e 88bd
00000300: c959 373d b5c0 6c3d b681 ef3b aaf5 75bc
00000310: 1c44 1c3c da05 643c 77d2 24bd ab40 25bb
00000320: da28 643b cf10 253c e99d f03c 0879 323d
00000330: a133 0e3b 69f0 603d a205 223d 7c4d 1f3d
00000340: 5f2e 4c3c 1e77 3c3c d041 a13c 9f6b 84bc
00000350: 517d 91bd a1e7 e03b 06d7 853d 2589 8f3d
00000360: 9dc8 5c3d 9095 933d aa69 183d 11f6 56bd
00000370: 7cc7 bb3c 1341 85bc 1993 fdbb 19eb a8bc
00000380: 14a3 18bd ef6f 7abd 44be a03d 680f be3b
00000390: 5a20 54bd 58df a13d e172 73bd 80ba 46bc
000003a0: e9b1 d33d 7ecb dabc 7a7a a8bd 2f6c e73c
000003b0: 8919 4abc 44e5 7b3d d93b ea3c 3c60 c53b
000003c0: d304 b23c bb65 cdbb 3614 c4bd 67ea 49bd
000003d0: 9126 6bbd c12f b43c 4bea 03bd 69e3 d33c
000003e0: ba38 92bd afd2 0bbd 8f50 583d 4a21 a63d
000003f0: b80a 6bbd 3e36 633d bf12 793d 5367 8ebd
-0.07860978 -0.05371218 0.01765252 0.11704456 0.062370688 0.05483349 0.04417259 -0.04438464
0.0054542935 0.022059143 -0.03008985 -0.066461205 -0.019920621 0.08873669 -0.013020001 0.062136143
0.012798998 -0.0440366 -0.03856783 0.086220585 0.02206565 0.03449794 -0.048182916 -0.071993314
0.013503352 0.0017197675 -0.061210614 0.043805093 -0.06369569 0.009200003 0.017008731 0.010990758
0.06881585 -0.065844096 -0.052705858 0.015857395 0.022883253 0.00842021 0.061577383 0.039693374
0.015899453 -0.013428015 0.0092525575 0.041678034 0.041824665 -0.000646397 0.005908257 -0.03974744
0.019826492 -0.08150815 -0.02249318 0.049914505 0.08107971 0.061319895 0.026693389 -0.020270335
0.074593976 0.04481734 -0.063236274 -0.08318771 0.053698834 0.025562104 -0.02099332 -0.051189538
0.0403475 0.0778581 -0.015975129 0.06702324 0.0708308 -0.05568356 0.05124226 0.040525693
-0.030633094 -0.032611776 0.021731999 0.054267377 -0.020980326 -0.024192104 -0.006541001 -0.042481203
0.04997708 0.050436888 -0.04072357 -0.04308693 0.008544157 0.033543482 0.019454597 0.08358334
-0.047955 0.046742074 0.073152594 -0.004921461 0.016352229 0.098553665 0.004878361 -0.035201162
-0.03149456 -0.005423427 0.01079339 0.059336893 0.03125871 -0.020036522 -0.04448112 0.024230635
-0.06516404 0.034894302 -0.03139867 -0.047561586 0.041702185 -0.0673083 0.03120097 0.080453545
0.06292292 0.07764997 -0.047578186 -0.07367672 0.049339745 -0.0166445 -0.0008687051 -0.040746547
-0.07554773 -0.006077719 0.015285879 -0.05393723 -0.058318134 -0.07016535 0.06480897 0.0741605
0.07284229 -0.012770906 0.011445699 0.05368861 0.06489471 0.05700469 0.024082793 -0.046218153
0.04864224 0.012964837 -0.06334519 0.0072510103 -0.06597014 -0.058546465 -0.06519143 -0.025742484
0.04792964 -0.04930138 0.02647393 -0.06853124 0.030493887 -0.082723506 -0.06106684 -0.031664204
0.06173192 0.041666005 0.04489179 -0.017632822 0.066077024 0.04813151 -0.048525985 -0.045180928
0.0052266084 0.07143851 -0.067907706 -0.067344084 0.032248598 -0.0002982165 0.023411639 -0.05880776
-0.05502991 -0.058676247 -0.0023910839 0.06060473 -0.01339757 0.0032316458 -0.022678623 0.026877603
0.041926533 -0.018852053 0.01601433 0.033107184 -0.04955011 -0.09337354 -0.025142016 0.0034744968
-0.07404023 0.024117611 0.009885194 -0.038719274 -0.036416072 -0.01668851 0.0035353655 -0.066433355
0.04476336 0.057800967 0.007309164 -0.015012184 0.009537723 0.013917411 -0.040239777 -0.0025215547
0.0034814388 0.010074808 0.029372172 0.043572456 0.0021698254 0.054916773 0.039556153 0.038892254
0.012462228 0.011503009 0.019684702 -0.016164599 -0.0710398 0.00686355 0.06535153 0.0700858
0.053902257 0.07206261 0.037210144 -0.05248076 0.02292227 -0.016266381 -0.0077384827 -0.020619916
-0.0372649 -0.061141904 0.0784879 0.0058001764 -0.051788665 0.079039276 -0.05943573 -0.012129426
0.10336668 -0.02670836 -0.082264856 0.028249828 -0.01233519 0.06149794 0.02859299 0.006023435
0.021730816 -0.0062682307 -0.095741674 -0.04929581 -0.057409827 0.021995427 -0.03220586 0.025865274
-0.07139726 -0.03413647 0.0528112 0.08111818 -0.05738327 0.05547165 0.060808893 -0.06953301

layer1.c1.bias f4 [16]
00000000: 41a9 68bb 224b 9a3c d960 2dbd 08fb 3ebd
00000010: bd8c 253d 43f0 893d 3bed 80bd 67df a93d
00000020: 64ef de3c 1b02 90bd efb8 8a3b 580c 883d
00000030: 8996 e53c e588 4f3d 09b5 663c 5136 2bbd
-0.0035501274 0.018834654 -0.04232869 -0.04662612 0.04041742 0.067352794 -0.06295248 0.08294564
0.02721376 -0.070316516 0.0042334716 0.066429794 0.028025882 0.050667662 0.014081248 -0.041799847

layer1.b1.weight f4 [16]
00000000: 44f0 7c3f c045 783f 1d68 813f 1b13 7e3f
00000010: 5342 7e3f f0a8 803f d192 7e3f 0df7 833f
00000020: ed98 7e3f bbdf 7f3f 20d8 7f3f d56e 7f3f
00000030: d252 823f 312a 843f 4192 813f cfe1 7f3f
0.98804116 0.9698143 1.0109898 0.992479 0.9931995 1.0051556 0.99442774 1.0309769
0.99452096 0.9995076 0.99939156 0.9977849 1.0181525 1.0325376 1.0122758 0.9995393

layer1.b1.bias f4 [16]
00000000: aa55 c4bb a8ac 4abc 7aec 413b 34cb 1d3c
00000010: a0d8 da3c e34c fbbb a174 d5ba f3b4 853b
00000020: e706 823b 3983 2dbc f69e 91bc ee83 8fbc
00000030: 69ef fbbb 0dfc b53c d720 9bbb 27df 663c
-0.0059916573 -0.012370266 0.0029590414 0.009630967 0.026714623 -0.0076690777 -0.0016285368 0.0040804087
0.003968108 -0.010590368 -0.017775994 -0.017518964 -0.007688452 0.022214914 -0.0047341394 0.01409129

layer1.b1.running_mean f4 [16]
00000000: 693e b93e 15ce 813e 2360 13bf cc96 56be
00000010: 235d 22be ae29 6abe d9ca 54be 93d9 b7be
00000020: 54ec 73be 3d3c 5fbe ec12 1f3d 9484 dc3e
00000030: 6898 3dbe 29a2 a3be d1be 28bf 50fd 9b3d
0.36180428 0.2535254 -0.5756857 -0.20955962 -0.15855841 -0.22867462 -0.20780505 -0.35908183
-0.23820621 -0.21800323 0.038836405 0.430699 -0.1851517 -0.31959656 -0.6591616 0.07616675

layer1.b1.running_var f4 [16]
00000000: 169f 883e d709 883e 0b23 e93e f172 4c3e
00000010: b86a c33e 1811 823e 3cd9 713e a51f 8e3e
00000020: 45ec ca3e 1f77 8f3e 8fce 083e 58d0 a03e
00000030: f6c6 113e faea 903e e4a5 a43e 64b2 3b3e
0.26683873 0.26570007 0.45534548 0.19965722 0.38167357 0.25403666 0.23618025 0.27758518
0.39633384 0.2802057 0.13360046 0.31408954 0.14236054 0.28304273 0.32157815 0.1832977

layer1.c2.weight f4 [16, 16, 3, 3]
00000000: fe50 71bd 203a 4bbc 90af 753c 66ab 43bd
00000010: 4b5e a83d 9173 633d c8b2 e2bc 6ab4 3f3d
00000020: cbd2 75bd 0412 b7bc 8f55 873c 4282 c1bd
00000030: f85f 90bc 6927 ec3c 40a0 6d3d 0942 8f3d
00000040: ea84 59bd c33c e6bc 3352 853b ae1e 9c3d
00000050: 40da a9bd c06b 50bd b884 6cbd b6fe abbd
00000060: 76e6 4fbc 6a9f 3bbd 7f5a 6a3d d381 583d
00000070: b120 88bc dd22 033d d5cd 773d c627 80bc
00000080: 5881 d53c de3a b3bc abf8 873d 9102 bebc
00000090: cb7b 80bd 6592 453d 2ac6 3bbc 1253 e43c
000000a0: 6c72 923d 3a68 863c 54ae 603d e6a4 b33d
000000b0: 48bb 79bd c7ca 25bd ba47 90bd b106 58bd
000000c0: e0ce 1ebd 3b03 12bd 83e8 c73c 8c98 413d
000000d0: e809 973d 7b5c 6e3d 3517 e2bb 21ad 2fbb
000000e0: 6129 d33c bf2e d5bc a0d0 21bc 0561 59bd
000000f0: 787e a6bc b7ae 883d ea4b 283d a88c bebd
00000100: dca8 bfbd 5f18 86bd fd6e aebd cb84 73bc
00000110: 1936 3cbd 087e 6bbd 8091 07bd 77e5 b2bd
00000120: ee09 51bd 6195 e4bc eb9c 29bc bfc1 45bd
00000130: 7829 a6bd 2229 343d 48ff 03bd 8c1d bdbc
00000140: dc5e 97bd 468d de3c 4398 693b 8cf6 0b3d
00000150: 14b1 c63c 0124 a2bc 5744 023d ead1 c7ba
00000160: e4e0 8cbd 7446 92bd 1c63 13bc 4ba4 b6bc
00000170: eb85 293d 00e2 99bd 14f7 8fbd 01f5 23bd
00000180: a61a 7bbc 4fd9 40bd 543c 8abb 9a4e b8bd
00000190: 8de9 e2bc c37d 4d3b e743 afbd d3bd b4bd
000001a0: e938 e53c 9306 50bc b2ff 3cbd 939d c0bd
000001b0: be2a ebba 5337 1d3d a85e 26bd 0524 e9bc
000001c0: a3cd 5f3c f2e9 0abe a2b0 70bd e08c 44bd
000001d0: 13d8 b73c 7024 64bc bc9c 85bc 4cf4 493d
000001e0: af1a 8e3d b6a6 563d e35a acbd 0ebe 943b
000001f0: e8cd 4abd a672 e03b c55a 87bd fe6e aa39
00000200: 7fa0 c03c d2c9 0c3d c123 c3bb f94d 03ba
00000210: ad73 79bd db60 7bbd 02a7 4bbd da0d 66bd
00000220: c4f0 993d cd62 5abd bf80 81bd fce9 063d
00000230: 6aa4 2b3d b541 883d 54e1 323d 6b76 34bd
00000240: ed76 813c 55f1 34bd ce6c c9bc 5f1c 5d3c
00000250: b1ac fe3c b258 813c 9f03 e63b dd3d d03c
00000260: e084 97bd f562 38bd b3e8 08bd 4750 2a3d
00000270: 6221 00bd 4531 853c 1c2e 0e3c fd72 65bb
00000280: e4e3 fe3b 6ca9 c53c a567 1dbd 71fa 003d
00000290: c5ba 02bd 43fc 843d 8600 f63c 0ed5 ec3c
000002a0: 2da3 873c d1a0 a33d 567d afbc c172 babd
000002b0: 3e91 5bbd 05c8 0c3d 70f5 8cbd a7cc 263c
000002c0: 082f 2dbd 6e11 1d3b 657a 793d 6354 913d
000002d0: 58fe 4e3d 6cb3 883d 3052 df3c 6294 14bd
000002e0: dc50 433c a880 4e3d f839 953d 7549 63bd
000002f0: be66 1a3d 8aaa 5bbc b922 bcbc 5499 b93a
00000300: 2e59 f73b 78a7 873c fad9 8e3d a029 37bd
00000310: 7e15 0fbd 33f9 95bd a341 4b3c d13b 0ebd
00000320: 54c1 73bd 7b88 a8bd ab12 8b3d acf3 e8bb
00000330: c9d1 913a 8bdf d4bc 538a 66b9 bf89 b43d
00000340: 58f1 833d 3217 8c3d b258 88bc 06c0 c83a
00000350: eb27 853d 81bf a93d 05e6 473d f5db 81bd
00000360: 4c8f cdbc 05de 06bc 8896 bebc 73c9 b7bc
00000370: be9b 48bd 85f9 4c3c fccc 523c 7693 1cbd
00000380: 7945 a3bc dba0 2bbd b3ef a9bd 1829 6dbd
00000390: c322 7dbd d327 75bd 2369 003d 52c6 293d
000003a0: 3bfd 06bd 6083 86bd e542 8a3d 429e b23c
000003b0: de46 743d 12ef 703b f40d a63d af2c 0d3d
000003c0: 369d 1abd 4333 fbbc 4e52 59bd f641 7bbd
000003d0: a8bb df3c e519 28bd b77e 99bd 692d 243d
000003e0: 5f36 febc cb00 e53c 7e1a 64bd e516 583d
000003f0: 8060 d6bc e7ec 72bd 2882 09bd 43d7 7fbd
-0.05891513 -0.012403995 0.014995471 -0.04777088 0.0822111 0.055530135 -0.02767314 0.046802916
-0.06001548 -0.022347458 0.01652029 -0.09448673 -0.017623886 0.028827386 0.058014154 0.06995017
-0.053105272 -0.028105145 0.004068637 0.07623039 -0.08293581 -0.05088401 -0.057743758 -0.08398192
-0.0126892235 -0.045806326 0.05721521 0.052858185 -0.016617151 0.03201567 0.06049903 -0.015643965
0.026062652 -0.021878656 0.066392265 -0.023194583 -0.06273612 0.048235316 -0.01146082 0.027871642
0.071507305 0.016407121 0.054853752 0.08771686 -0.06096962 -0.040476587 -0.07044931 -0.052740756
-0.03877151 -0.035647612 0.024402862 0.04726462 0.07374936 0.058193665 -0.006899739 -0.0026806074
0.025776567 -0.026023267 -0.0098764 -0.05307104 -0.020323977 0.06673949 0.041088022 -0.09304172
-0.09358379 -0.06547617 -0.08517263 -0.014863203 -0.04595003 -0.05749324 -0.033097744 -0.08735173
-0.05103486 -0.02790326 -0.010352354 -0.048280474 -0.08113378 0.04398454 -0.032225877 -0.023085378
-0.0739114 0.027166974 0.0035643734 0.034170672 0.02425436 -0.019792559 0.031803455 -0.0015245054
-0.06878832 -0.07142344 -0.0089957975 -0.022295138 0.04138748 -0.07513809 -0.07029548 -0.040028576
-0.015326178 -0.04708224 -0.0042186175 -0.08999367 -0.027699256 0.0031355477 -0.08557873 -0.088252686
0.027981238 -0.01269688 -0.046142288 -0.09405055 -0.0017941815 0.03838284 -0.040617615 -0.028459558
0.013659867 -0.13565806 -0.0587622 -0.04798591 0.0224419 -0.013924703 -0.016310088 0.049305245
0.06938683 0.05240508 -0.08415773 0.004539258 -0.049512774 0.0068496047 -0.0660911 0.00032507622
0.02351403 0.03437216 -0.00595519 -0.0005008872 -0.060901333 -0.061371665 -0.049719818 -0.056165554
0.075166255 -0.05331688 -0.063233845 0.03293799 0.041904844 0.066531576 0.04367192 -0.044058245
0.015803779 -0.044175465 -0.024588015 0.013495534 0.031088205 0.015789364 0.0070194746 0.025420124
-0.07398391 -0.045016248 -0.033425044 0.041580465 -0.031281836 0.016258845 0.0086779855 -0.0035011165
0.0077786315 0.024128638 -0.03842892 0.03148884 -0.0319164 0.064934276 0.030029546 0.028910186
0.0165573 0.07989658 -0.02142207 -0.09103919 -0.05360531 0.03437044 -0.06882751 0.010180629
-0.04228118 0.0023966688 0.06090774 0.070961736 0.05053553 0.06674847 0.02726087 -0.03627432
0.011921134 0.050415665 0.07286447 -0.055489976 0.03769564 -0.013407359 -0.022965776 0.0014160075
0.007548473 0.016559348 0.069751695 -0.04471743 -0.034932606 -0.073229216 0.012405786 -0.034725014
-0.059510544 -0.082291566 0.0679067 -0.007109126 0.0011125143 -0.0259855 -0.00021986039 0.088153355
0.06442517 0.06840362 -0.016643856 0.0015316017 0.065017544 0.082884796 0.048803348 -0.063407816
-0.025092743 -0.0082316445 -0.023265138 -0.022434926 -0.048976652 0.012510662 0.012866255 -0.038226567
-0.019930588 -0.04190145 -0.08297672 -0.05790052 -0.06180073 -0.059852432 0.031350266 0.0414489
-0.032956343 -0.065680265 0.0675104 0.021803979 0.059637897 0.003676359 0.0810813 0.03446644
-0.037747584 -0.030664092 -0.053057007 -0.061342202 0.027311161 -0.04104032 -0.07494872 0.04008237
-0.031031786 0.02795448 -0.055689327 0.05275621 -0.026169062 -0.05930796 -0.033571392 -0.06246115

layer1.c2.bias f4 [16]
00000000: 422d 1abd 64c6 19bd 1858 823d 568a ed3c
00000010: a532 04bd 5dc4 bfbc 8a4d 88bc 615f 8f3d
00000020: 825c 2f3d bafc 08bd bc94 00bd 0461 dd3c
00000030: 1b53 83bd 450b 793d 4005 953c eb3e 963c
-0.037640817 -0.037542716 0.06364459 0.028996628 -0.03227486 -0.023409063 -0.016638536 0.07000614
0.04281283 -0.033444144 -0.031391844 0.0270238 -0.064123355 0.060801763 0.01819098 0.018340549

layer1.b2.weight f4 [16]
00000000: 815a 853f dd50 843f cfc6 833f 771a 803f
00000010: 4289 7a3f 64bf 823f 762d 803f 78fd 813f
00000020: 2e7c 843f 140b 7f3f f0f9 823f f767 863f
00000030: bb29 803f 552a 843f 72fc 843f 7def 873f
1.0418245 1.0337178 1.0295047 1.0008076 0.9786569 1.0214658 1.0013874 1.0155478
1.0350397 0.9962628 1.0232525 1.0500478 1.0012735 1.0325419 1.038954 1.0619961

layer1.b2.bias f4 [16]
00000000: c78c c5bb e3e3 3cbc 9356 8a3a bc29 8d3c
00000010: fc0b 43bd 1c7b 813c f4bb ba3c da1a 5bbd
00000020: 8b01 b83c 16aa 9c3a 9898 cfbc e69b 363d
00000030: 115a a7bc a7fc 8b3a 29f5 3e3d 6198 acbc
-0.006028745 -0.011528942 0.0010554366 0.017231815 -0.04761885 0.015805773 0.022794701 -0.053492405
0.022461673 0.0011952545 -0.025341317 0.04458227 -0.02042869 0.0010680155 0.04662052 -0.021068754

layer1.b2.running_mean f4 [16]
00000000: dc5a 2bbf e542 10be e467 0dbe 7516 fa3d
00000010: 7a20 313e 08cd 013e 6948 7dbe 1aa8 c73c
00000020: 91b2 a1be 19f7 6bbe 3bb0 83be 5a49 bebe
00000030: da9f d0bd d334 31bd efc4 ccbe bb4d 1bbd
-0.66935515 -0.14088018 -0.13809162 0.122113146 0.17297545 0.1267587 -0.24734654 0.02437215
-0.31581548 -0.23043479 -0.2572039 -0.37165338 -0.10186739 -0.043263268 -0.39993998 -0.037915926

layer1.b2.running_var f4 [16]
00000000: cc91 fc3d d9fc 263e b1e9 d63d 3670 b03d
00000010: 56ed 263e 866a 203e f1b6 6f3e 62ff c03d
00000020: bead d33d 3782 0e3e fce9 173e 17bd 273e
00000030: 50af 0d3e b6ba 0d3e a0a4 153e d4fc 993d
0.12332496 0.16307391 0.10493792 0.086151525 0.16301474 0.15665635 0.2340963 0.094237104
0.10335873 0.1391686 0.14835352 0.16380726 0.13836408 0.13840756 0.1461358 0.07518926

layer2.0.weight f4 [32, 16, 3, 3]
00000000: f34a 39bd ccaf 433d 4f8f 783d b045 d33c
00000010: 0636 41bb ed2d 09bd fe12 da3c a698 94bc
00000020: 24db 4c3d b502 bdbd a308 74bd d506 a2bd
00000030: 8598 0e3d 3326 e2bc 6188 18bc 59ae 3abd
00000040: 5641 33bc 3329 2fbd 88b7 3cbd a4c4 07bd
00000050: dc8f e7bd c4cc 643d 83c2 193c eb18 22bd
00000060: 12ec aabd 107b 35bd 424f 983a 5328 a4bd
00000070: 5571 7fbd cbd2 b2bd d979 0cbd c418 213d
00000080: 9691 833c ebe9 b0bd 8d90 97bc 703a 86bd
00000090: fdc7 3c3d a2dc 7ebd d259 193d 6042 a5bc
000000a0: 2afb 823d 9547 5f3d 790e 373d 1c33 0ebd
000000b0: cec4 89bd 107b b2bd 800e 0b3d c6df 2abb
000000c0: 6854 a13c 7524 8e3c 4b42 353d b4cd 24bd
000000d0: ff25 2b3c 961b c53b 6eea b2bd 652f 233d
000000e0: af29 a1bd 4a49 973c 51de b0bd c003 33bd
000000f0: a534 01bb 1ffb 953d 4d32 81bb fb36 343d
00000100: 73da 063b af5b 233d 150a 3ebc 418d 9ebd
00000110: 944c 9bbd c249 843b 99ca 3c3d 32b1 333d
00000120: 7ef3 73bc 65a9 4c3d 364c 4e3d 07a5 353d
00000130: 438f b03d ad02 203d e368 9c3d 07fa 5dbc
00000140: f5a0 333c b8b8 463d 3e66 6fbd a603 b53d
00000150: aed4 603d 081a c33c 11c1 a63d 8ae3 40bc
00000160: 6c91 db3d 51c4 913d 2f5a 77bd a4b8 d53c
00000170: 163d 7cbd 8a34 7ebd 4ea8 b83c c9ee 95bd
00000180: dfc4 8abc c408 5e3c ec47 b53c 202f 2e3d
00000190: c593 dbbc 2213 293d 6772 03bd bb82 efbb
000001a0: 30c1 133d b087 a1bb ec73 7a3c 27c1 113d
000001b0: c4bf debd 235e 8ebd d8ac 6cbd 7f1c 4f3d
000001c0: 6853 a1bd 6c54 f53c 2355 e8bc 675f 943c
000001d0: eab1 0dba de46 afbd a14f 323d 1962 fcbb
000001e0: 6962 f1bb 2a5d eb3b 9b09 3bbd 53be 0b3a
000001f0: 825b 1bbd 89dc 59bd 72ee 68bd 6fdf 56bc
00000200: b6a1 813b c152 293d 24de 18bd 3b6e 81bd
00000210: b6d0 4abd d31a a43d 04b8 cebc cdc3 e3bc
00000220: 03e3 c6bd b324 353d 392e 2a3c 17c3 253d
00000230: 6b49 f63b 20c5 8f3d b807 533d 539e 913d
00000240: 68c5 86bb 9774 11bd f82e ba3d c01e 5fbd
00000250: 2da5 323d 9f4f f53c 80e4 09bd 3af7 353d
00000260: f147 1ebd a4b9 f2bc 589b 0e3c 2802 4a3d
00000270: e73b 3b3d 68ae 94bb a496 3bbc f300 13bd
00000280: 65b5 54bd 1239 3dbd f2dc 9abd 7746 83bd
00000290: 3244 a43c edad c43b a8b2 3cba 6f11 9c3d
000002a0: f1f2 b23b 4f89 a3bc bef1 003d cbe7 d4bd
000002b0: 24bd 8fbc e219 ac3c 7f43 b1bd 668b 44bd
000002c0: dfcf 2fbd c405 82bd 76f4 3b39 47ac dabc
000002d0: 84a5 2e3d f3de 81bd 5391 ecbc 5cad 9ebd
000002e0: fa7b 903d 0e4e 0abd ddd0 d13c 2f42 d1bd
000002f0: 3518 2d3d 7ee2 aabc f61e aabb e2b5 bf3d
00000300: 23dd 79ba 10ca afbc 2190 a53d 2f99 dbbd
00000310: 782c 3dbd 9e8c 163d e6b3 5bbd d917 fdbb
00000320: ea81 b93d a4c9 c03c 2ab8 2e3c 6f7a c13d
00000330: efbf e23c 1aaa 1ebc 8c52 2d3d 1671 e3bc
00000340: b8f7 abbc 8ecd 343b 0912 2c3d 684f 0e3d
00000350: eb12 3cbd 0a0a 8dbd b871 2ebd 5368 393d
00000360: dc64 1bbb 4427 863c 7853 a5bc 22d9 84bd
00000370: 1a51 8c3d aeda 903d 2eb8 4a3c f53e 5cbd
00000380: 873e a3bd 2406 0c3d 810c 5cbd 1498 763d
00000390: 99b9 873d 98d2 003a 5dcc 78bd 0ded 65bd
000003a0: ed5b 453b 0257 a6bc 8f9b c13c 5bb5 d7bd
000003b0: 0bb9 543d afb7 b1bd 1ac8 ffbb 9bd7 8bbc
000003c0: 4d6d 66bd 51b9 e9bd 424d 4f3d 3785 59bc
000003d0: ff4f b53c 2427 99bd 586a 9bbd 457a 96bd
000003e0: 75e6 583d d6dd 6dbd d2f2 b23c ec25 d03c
000003f0: 61c5 743c 3643 94bc 5c8b e4bc 2503 723d
-0.045237493 0.047775075 0.060683545 0.025790066 -0.0029481663 -0.033491064 0.026620384 -0.018139195
0.050013676 -0.09229032 -0.05957855 -0.07911459 0.034813423 -0.027606105 -0.009309859 -0.045576427
-0.01094087 -0.0427639 -0.046073467 -0.033146515 -0.11306736 0.055859342 0.009384754 -0.039574545
-0.08345808 -0.044306815 0.00116203 -0.08015504 -0.06236394 -0.08731612 -0.03429589 0.03933026
0.016060632 -0.08638366 -0.018501544 -0.06554115 0.04608916 -0.06222213 0.037439175 -0.020173252
0.06395562 0.054511625 0.044691537 -0.03471671 -0.06726991 -0.087148786 0.033949375 -0.002607332
0.019693568 0.017351368 0.044252675 -0.040235236 0.010446071 0.0060152514 -0.0873612 0.03984012
-0.07869279 0.018467564 -0.086361535 -0.04370475 -0.0019715216 0.07323288 -0.003942764 0.043997746
0.0020576983 0.03988236 -0.011599083 -0.07741786 -0.075829655 0.004037113 0.04609165 0.04387016
-0.014889596 0.049966235 0.05036565 0.044346835 0.08621075 0.03906505 0.07637193 -0.013548381
0.010963668 0.048516005 -0.058447115 0.088385865 0.054890327 0.023816124 0.08142293 -0.011773
0.107210964 0.071175225 -0.06038874 0.02608902 -0.061581694 -0.062061824 0.022541191 -0.07320935
-0.016939579 0.013551895 0.022129022 0.04252541 -0.02680386 0.041278012 -0.032091524 -0.0073092855
0.03607291 -0.0049295053 0.015286427 0.035584595 -0.1087642 -0.06951549 -0.057782024 0.050564285
-0.078772366 0.029947482 -0.028360909 0.018111898 -0.00054052344 -0.08558439 0.04353297 -0.007702124
-0.0073664677 0.007182737 -0.045663457 0.000533079 -0.037929066 -0.053188834 -0.056868024 -0.013114794
0.003956045 0.041338686 -0.037321225 -0.06319853 -0.04951545 0.08012929 -0.02523423 -0.027803326
-0.09711268 0.044224452 0.010386997 0.040469255 0.0075160763 0.070200205 0.051521033 0.07110276
-0.004112888 -0.03551158 0.0909099 -0.054472685 0.043614555 0.029945193 -0.03366518 0.044425227
-0.038642827 -0.029629536 0.008704029 0.049318463 0.045711424 -0.0045373924 -0.01144949 -0.035889577
-0.051930804 -0.046197005 -0.07561673 -0.064099245 0.02005205 0.006002179 -0.0007198253 0.07620513
0.00546109 -0.019962935 0.031480543 -0.103957735 -0.017546244 0.021008436 -0.08655452 -0.047984503
-0.04292285 -0.06348756 0.00017924779 -0.026693476 0.042638317 -0.06341352 -0.02887789 -0.077479094
0.07054897 -0.033765845 0.02561229 -0.10217702 0.042259414 -0.020859953 -0.005191679 0.09360863
-0.0009531548 -0.021458656 0.08084131 -0.10722577 -0.046184987 0.036755197 -0.05363836 -0.00772379
0.09057982 0.02353365 0.010664025 0.094471805 0.027679412 -0.00968411 0.04231505 -0.027763885
-0.020992145 0.002758834 0.042009387 0.034743696 -0.04591648 -0.068866804 -0.04258892 0.045265507
-0.002371124 0.016376145 -0.020181403 -0.06486727 0.068514064 0.0707296 0.012373013 -0.053770978
-0.079709105 0.034185544 -0.053722862 0.060203627 0.06627197 0.00049141934 -0.06074177 -0.056134272
0.0030114606 -0.02030516 0.023633746 -0.10532638 0.051934283 -0.08677613 -0.0078058364 -0.017070582
-0.05625658 -0.114122994 0.05061079 -0.01327639 0.022132872 -0.074781686 -0.07588643 -0.0734754
0.052954156 -0.058072887 0.021844301 0.025408708 0.014939637 -0.018098455 -0.027898483 0.05908503

layer2.0.bias f4 [32]
00000000: afcf a13d afcb 8cbd 1404 8fbd c223 75bc
00000010: 7e46 56bd 834f 01bc f7f3 cbbc ac75 43bd
00000020: a642 d9bc 312d 35bd 219f 4c3d 7428 653d
00000030: a57b 98bd 4714 1dbd b5a5 9ebd 02f0 87bc
00000040: 3b85 8e3c 5e46 f4bb ceed 67bd af58 1b3d
00000050: cc91 743d 44ab 07bd eb0d 8abc e136 203d
00000060: 080a a9ba c419 5d3d a2d2 05bd ff46 a1bd
00000070: 4e0f 093d 7695 bd3b 327c 8a3c 7d80 a53d
0.079009406 -0.06874787 -0.069832 -0.014962139 -0.05231332 -0.007892492 -0.024896605 -0.047719643
-0.026521038 -0.04423255 0.049956445 0.055946782 -0.07445458 -0.038349416 -0.0774645 -0.016593937
0.017397514 -0.0074546775 -0.056623273 0.037926372 0.059709355 -0.033122316 -0.01685234 0.039114837
-0.0012896666 0.05397965 -0.03267158 -0.078748696 0.03346186 0.0057856394 0.016904924 0.08081148

layer2.1.weight f4 [32]
00000000: 0aa2 823f 0284 7e3f 281d 7f3f c196 813f
00000010: a528 843f 73ad 873f 64fd 843f bd09 8c3f
00000020: a68a 853f a74c 843f a906 8b3f c41e 893f
00000030: 6062 883f 2594 8b3f 3ea2 893f ff34 803f
00000040: 3e39 813f be6b 8a3f ce97 823f c9ca 7d3f
00000050: 79a5 7b3f 8e5d 813f fb0a 813f 6ac1 833f
00000060: 7ba4 843f fab5 753f bdc6 813f 0f92 823f
00000070: 52d4 843f 0f74 8b3f 13aa 823f 878a 7f3f
1.02057 0.9942018 0.99653864 1.0124131 1.0324904 1.0599808 1.0389829 1.0940472
1.0432937 1.0335892 1.0861408 1.0712514 1.0655022 1.0904585 1.0752637 1.0016173
1.0095594 1.081413 1.0202577 0.9913755 0.98299366 1.0106676 1.0081476 1.02934
1.0362695 0.959808 1.0138775 1.0200824 1.0377295 1.0894793 1.0208153 0.9982075

layer2.1.bias f4 [32]
00000000: c9e0 613c 5913 303c 09c5 d5bc 01c7 363d
00000010: 59fe 263c 77b8 903d adaa f53d ed7e b73d
00000020: f980 783d b32a aa3d 8955 e43d a347 d23d
00000030: 29cc d23d 89ff 8a3d 38ea ff3d f62f 90bb
00000040: aed4 ce3b 525c c33d ab4c 3e3d 9f8d a73b
00000050: 783d 793c 3e32 ff3c 5609 b1bb 3a8a cb3c
00000060: a477 c93c 6ccd b1bc b852 30bc cbdf 403d
00000070: ffac e03c 84dd 1c3e 79dc 1b3d fbd7 073c
0.013786503 0.0107468 -0.02609493 0.04462338 0.010192477 0.07066434 0.119954444 0.08959756
0.060669873 0.083089255 0.11149127 0.1026757 0.10292847 0.06787021 0.124958456 -0.0044002486
0.0063119745 0.09539093 0.046459835 0.005113318 0.015212409 0.031151887 -0.0054027243 0.024846185
0.024593182 -0.021704398 -0.010761909 0.047088426 0.027426241 0.15318877 0.038052056 0.00829124

layer2.1.running_mean f4 [32]
00000000: 7ead afbe 4d4e 26bf 1daa fb3e d57b c73b
00000010: 5476 13bd 6c9b a73d af3d 213e 4779 73bf
00000020: ec20 a5bf 6b01 5cbf db76 dc3e bb20 9c3e
00000030: b65d 9e3d 67ef 2cbe f774 743f 844f 393f
00000040: 0f38 4b3e 8bef 5fbf 4bd4 0dbe fe62 853f
00000050: e199 a0be 55ce bd3b f728 12bf 06be 4ebe
00000060: a33d 8dbe 1690 003f 3922 4d3f 30d4 393d
00000070: dbb4 27bd 8551 83be e01f a33d 2a3f 57bf
-0.34312052 -0.6496323 0.49153224 0.00608776 -0.03600152 0.08183941 0.15746187 -0.9510693
-1.2900672 -0.85939664 0.4305943 0.3049372 0.07732718 -0.168882 0.95490974 0.72386956
0.19845603 -0.8747489 -0.13850515 1.0420835 -0.313674 0.005792419 -0.5709376 -0.20189676
-0.27586088 0.5021986 0.80130345 0.045368373 -0.04094396 -0.25648132 0.07965064 -0.84080756

layer2.1.running_var f4 [32]
00000000: fe29 b23e 6305 a93e 4660 033f af87 933e
00000010: 1520 753e 5bc0 ae3e a447 963e d6db 9f3e
00000020: 8bc9 ae3e 15f0 fb3e 1cb1 8c3e f0ff 8d3e
00000030: d5f9 8f3e 89b9 9a3e 5e47 8b3e 49e1 d43e
00000040: dc0c 8b3e 358d b43e a2b5 d13e 1a0c 8e3e
00000050: 956c d33e 739c a43e 306a 9e3e 74b7 b23e
00000060: 0252 8d3e 6499 de3e b882 c03e f5b7 8c3e
00000070: 0c0f 7f3e 0b5b ad3e cb47 9c3e b051 0d3f
0.34797662 0.33011922 0.51318777 0.28814456 0.2393802 0.3413113 0.29351532 0.3122241
0.3413814 0.49206606 0.27478874 0.27734327 0.28120294 0.30219677 0.27202886 0.4157813
0.27158248 0.35263982 0.40958887 0.27743608 0.4129378 0.3215061 0.3094039 0.3490559
0.2760163 0.43476403 0.3759973 0.27484098 0.24908084 0.33858523 0.30523524 0.5520277

layer2.3.c1.weight f4 [32, 32, 3, 3]
00000000: 50d8 afbd 148a a2bd 641a 85bd 765e 253c
00000010: 7ecf 3b3d a3ab 403d e142 0a3d ca26 1abd
00000020: 2c74 97bc 3446 073c 0e5b 2e3d 1359 8c3d
00000030: 52cf 423d 6357 283d bbec 903d 5e10 8e3c
00000040: 4f50 07bd fbff 9a3d e67f a2bc 9307 26bb
00000050: c3f9 7fbc 41a0 0bbd c9e6 b5bc e4d2 dd3c
00000060: 62d2 b7bd 6c60 c43c dd8e 5e3a f02f 49bc
00000070: e00d 30bd ce2b 5ebb 7d96 fd3c 1c75 4a3d
00000080: 7e31 543d 2cf0 e5bc d294 ba3c 0125 6f3a
00000090: 7eea 87bd dfec bcbc dda4 eebc 5946 49bd
000000a0: 5ab0 4bbb e192 be3c d086 a8bd f42a 0ebd
000000b0: 08fd 443c 21a5 e0bc 7f9e 923d 49ac 823c
000000c0: a2da 9cba 6d05 413d dccc 763d dedf 033d
000000d0: 7890 773d a3a2 9c3d 87c5 0a3d b0ce 243d
000000e0: 517d 25bd 7ffc 0bbd 9909 173d cc6a fa3c
000000f0: e684 483d 17cc 8b3c b632 06bd cba5 df3c
00000100: 99fb c13c 864f 273d 9553 b8ba 5b45 45bd
00000110: 0e80 0f3d 70ea af3c 656a a23c 293a 8e3d
00000120: 7fe0 a6bc 51e8 f13c e1e6 da3d da6b cd3c
00000130: b1f8 53bb 88b7 033d 6d25 8cbc cb1c 90bc
00000140: b7e9 cf3c 323d ad3c 426d fabb 760c 0d3d
00000150: eebb 03ba 214d 4bbd 5e69 98bc 1dde 1fbc
00000160: f3e4 16bd b1f0 53bd 7f6a 5e3c 99e0 dfbc
00000170: e33b f03c 53c9 76bc 167a 553d 3200 0d3c
00000180: 8c13 043d a676 40bd 9d21 9dbc 551f c2bc
00000190: 466a db3c 8c83 bc3c db5e 813c f754 15bd
000001a0: bef8 e9bc ac33 1dbd b07e 95bc a85f ccbb
000001b0: 3dd3 a7bc 1784 353c aae9 1f3d 3aaa a43c
000001c0: eee2 543d 147d 293d bc61 66bc 368e 9f3a
000001d0: 5dac 603d 73dd 863d 52ca 5a3d a886 2cbd
000001e0: d3e4 9f3d 579b 80bc 87ff a5bc f08f cabc
000001f0: 7f2b 0ebd 9fdd 063b 4bd1 0fbd 6421 403c
00000200: 89eb 6bbd 08e1 28bc 68cf 0fbc 4e3d 203d
00000210: 9b83 76bc a496 2a3d c1ad d73c 8567 7abd
00000220: b0cd 43bd 7aca 043d 7e75 24bd d254 53bd
00000230: 288e 44ba c445 003d b192 e5bc cf6b ef3c
00000240: a68e 86bc 8f64 4dbc 44c2 3bbd 6362 33bc
00000250: 66dd c53c 834e 2ebc 10d1 973b 5c19 edbc
00000260: ab45 cdbc e9ed 19bd 36ae 18bd 510a f3bb
00000270: 2f1a 09bd ae49 8fbb 595c 0c3c aadd cf3c
00000280: 8caf 243d 2214 8f3d 7af1 c7bc bc99 17bd
00000290: ae3e 3f3d a874 73bc dc91 d2bb c5fe a13c
000002a0: 020f 55bd 7285 bdbc 0a18 00bd 2655 32bc
000002b0: e927 01bd bbb8 debc 9d90 d6bc 752b e6bb
000002c0: 1f36 06bc 9942 903c 3279 42bb 1526 093d
000002d0: 6c39 d5bc 1cd2 113d a8ca 6f3c c068 673d
000002e0: 41b3 0d3d b965 003d e661 9d3c 18a0 973c
000002f0: 2116 283d ff11 5eba 7aad 46bd 973b a23b
00000300: 9804 843d 114f 6cbd fb44 17bd ad88 dabc
00000310: 6ed2 2bbd 8c3a 433c 48b6 adbd dc78 d6bc
00000320: 331f aebc 7080 1dbd c4bc 78bb 84a7 4cbd
00000330: a36f 4cbd b66e f03c 2705 2fbc 1535 8c3c
00000340: 140c 223d 05f7 583d 52cc f5bc 5cb9 b0bc
00000350: e21d 4bbd 1c5a 72bd 247d 463a 2717 59bc
00000360: 486f e23b 2114 5a3c ab8e 5a3c 0248 223d
00000370: 0050 773d d3bc 60bd 1c56 853d d1a3 08bd
00000380: 14e2 49bc 59c7 90bd 6734 48bd 0963 a03c
00000390: 6afd be3c 9a9f 853c 441b 03bd 59c7 0abd
000003a0: fd5b ad3c 4a73 83bc d4fa e6bd 136a 11bd
000003b0: a87e f53c f4f9 07bd afa9 bd3c d3fe f73c
000003c0: 7f8c 8abd 9db5 e2bc 6fda bd3c d0a1 18bd
000003d0: e4c6 15bd e31f 6e3c 1b87 203d e234 2ebd
000003e0: 768c d2bc 5d85 68bd d67d 11ba c26e 5abb
000003f0: 6512 b9bc 3e28 66bc a57d 80bc d6c4 02bd
-0.0858618 -0.079364926 -0.06499174 0.010093322 0.045852177 0.047038686 0.033755187 -0.03763465
-0.018488012 0.008256484 0.042567305 0.06852927 0.047560997 0.041098963 0.07076403 0.017341789
-0.033035573 0.07568356 -0.019836377 -0.0025334104 -0.015623513 -0.034088377 -0.022204774 0.0270781
-0.08975674 0.023971759 0.0008489916 -0.012279496 -0.042981982 -0.0033900621 0.030955547 0.04942809
0.051805012 -0.028068624 0.022776041 0.00091226405 -0.06636523 -0.023062168 -0.029131347 -0.049139354
-0.0031080456 0.023263397 -0.082288384 -0.034708932 0.012023218 -0.02742249 0.07159137 0.015951293
-0.0011967013 0.047124315 0.060253963 0.03219592 0.06044051 0.07648208 0.033879783 0.040236175
-0.040402714 -0.034176346 0.036874387 0.030568503 0.048954867 0.017065091 -0.032763205 0.027300736
0.023679541 0.040847324 -0.0014062995 -0.048161846 0.03503423 0.021474093 0.019826123 0.06944687
-0.02037072 0.029529722 0.10688568 0.025075842 -0.0032344277 0.03215745 -0.01710769 -0.017591855
0.025379999 0.021147344 -0.007642419 0.03443571 -0.0005025257 -0.049634103 -0.01860493 -0.009757546
-0.036839437 -0.051743213 0.013575195 -0.027328776 0.029325431 -0.015062648 0.052118383 0.008606004
0.032245204 -0.046988152 -0.019181067 -0.02369658 0.026784074 0.023011945 0.0157923 -0.036457982
-0.028560992 -0.038379356 -0.018248886 -0.006236989 -0.020486468 0.011078856 0.0390412 0.020100702
0.05197423 0.04137905 -0.014061388 0.001217312 0.05485188 0.06585207 0.053415604 -0.042120606
0.07807317 -0.015699072 -0.020263446 -0.024726838 -0.03470945 0.0020578874 -0.035111707 0.011726711
-0.05759767 -0.010307558 -0.008777477 0.039120965 -0.015046026 0.04164757 0.02632797 -0.06113388
-0.04780358 0.03241966 -0.04015111 -0.051594563 -0.00074979896 0.031316534 -0.02802405 0.029226212
-0.016425442 -0.012536182 -0.045839563 -0.01094875 0.024153423 -0.010638836 0.0046330765 -0.028942756
-0.025057634 -0.037580404 -0.037275515 -0.0074170013 -0.033472236 -0.004372797 0.008566939 0.025374252
0.040206477 0.06986262 -0.024407137 -0.037011847 0.046690635 -0.014859356 -0.006426079 0.019774804
-0.052016266 -0.02313492 -0.031272925 -0.010884559 -0.031532202 -0.027187696 -0.026192004 -0.0070242235
-0.008191614 0.017609881 -0.0029674289 0.033483583 -0.026028357 0.035600767 0.014635719 0.05649638
0.034594778 0.03134701 0.01921172 0.018508956 0.04103673 -0.00084713096 -0.048505284 0.0049509513
0.06446189 -0.05769259 -0.03693102 -0.0266765 -0.04194873 0.011915814 -0.08482033 -0.026180677
-0.021255111 -0.038452566 -0.003795431 -0.049964443 -0.049911153 0.029349666 -0.010682381 0.017115155
0.0395623 0.05296995 -0.030004654 -0.021572761 -0.049589045 -0.059167966 0.0007571748 -0.013250149
0.0069102384 0.013310463 0.013339679 0.039619453 0.06037903 -0.054867577 0.06510565 -0.033359352
-0.012321968 -0.070692725 -0.0488781 0.019578474 0.023314197 0.016311456 -0.032008424 -0.03388152
0.021162027 -0.016046185 -0.112783104 -0.03550155 0.029967621 -0.03319736 0.0231522 0.030272877
-0.06765079 -0.02767449 0.023175446 -0.03726369 -0.03656663 0.01453397 0.039191347 -0.0425309
-0.025701743 -0.05676781 -0.0005550062 -0.0033330177 -0.022591779 -0.01404768 -0.015684912 -0.031926

layer2.3.c1.bias f4 [32]
00000000: cb19 28bd 1592 6dbd 71c8 b03c bc07 6cbd
00000010: 0151 26bc 9033 113d a714 1c3d e30f 16bc
00000020: efe8 1ebd afc4 7e3c 234d 0c3c 9cbe 5f3d
00000030: 00e0 af37 c0d9 03bc 640f 61bd fd90 0cbc
00000040: 7dbb 95bc 62c6 923c 6c74 77bd dfb1 41bd
00000050: 65d0 41bd 6203 4d3b 47c7 573d 9cfc 60bb
00000060: d932 d1bb e5b5 5abd a6c5 dc3c 23e8 a03c
00000070: a60d 8f3a 32c0 e63b 01e9 f03c 8a84 b73b
-0.041040223 -0.058000643 0.021579953 -0.057624564 -0.010151149 0.035449564 0.038105633 -0.009159061
-0.03879636 0.015549823 0.008563313 0.05462514 2.0965934e-05 -0.008047521 -0.05494632 -0.00857949
-0.018277878 0.017916862 -0.060413763 -0.04728877 -0.04731788 0.0031282534 0.05268028 -0.0034330254
-0.0063842353 -0.053396124 0.026949715 0.019641941 0.0010914102 0.0070419544 0.02940798 0.0056005167

layer2.3.b1.weight f4 [32]
00000000: 864f 803f 637f 7e3f 8db6 803f a495 813f
00000010: 27eb 873f 87fd 6d3f 76d4 853f e0fd 713f
00000020: 5ece 7b3f 7570 783f 0ac8 7b3f cad7 813f
00000030: 0e0e 763f cf09 773f 5946 823f c2ad 853f
00000040: a5c8 7d3f 3666 803f cdd3 813f f31a 733f
00000050: 41d2 773f 9f93 703f b9bb 6f3f b064 7a3f
00000060: 901b 7c3f 8ef5 7e3f c74b 803f 7692 833f
00000070: e461 843f 7dd6 7d3f 30e3 803f 3337 7c3f
1.0024269 0.99413127 1.005571 1.0123792 1.0618638 0.9296498 1.0455463 0.9452801
0.98361766 0.97046596 0.9835211 1.0143979 0.96115196 0.9649934 1.0177718 1.0443652
0.99134284 1.0031192 1.0142761 0.94962996 0.96805197 0.9397525 0.9364582 0.97809887
0.9847956 0.99593437 1.0023125 1.0279071 1.0342374 0.9915541 1.0069332 0.9852173

layer2.3.b1.bias f4 [32]
00000000: 55d6 65bb 3930 84bd 8d8f 9cbc f398 e0bc
00000010: e4de 54bd 89ac 90bc 355c 32bd 882d 04bd
00000020: cdd0 7bbd bef9 c8bc 3211 f6bc 716c dfbc
00000030: 3942 f5bc 0766 f1bc c34e 18bd 13c7 ffb9
00000040: 94e5 25bd 745e a6bc 60c2 13bd cbe0 c9bd
00000050: 7603 d0bd 6915 1cbd 3bf9 a3bd 88e1 d2bd
00000060: 26d9 bcbc 13ad 903c 9176 b1bc 0781 04bc
00000070: 08d7 b8bd cadb 5a3c 08fa 533b f1ed 77bd
-0.0035070379 -0.0645451 -0.01911142 -0.027416682 -0.051970378 -0.017660396 -0.043544967 -0.032269984
-0.061478425 -0.024533149 -0.030037496 -0.027273389 -0.029938804 -0.029467596 -0.037184488 -0.00048785712
-0.040502146 -0.02030871 -0.036074042 -0.09857329 -0.1015691 -0.038106356 -0.08006521 -0.10296923
-0.023052763 0.017660653 -0.021662982 -0.008087403 -0.09025389 0.013358066 0.0032345075 -0.060529653

layer2.3.b1.running_mean f4 [32]
00000000: 4847 f1bd 6f88 dd3e ed30 adbe 593d 50bf
00000010: e26b 03bf 8436 8dbe d848 cfbe a394 c83e
00000020: 0860 0b3f 28e0 45bd 280b e5be b9d9 ccbd
00000030: cce2 01bf a4d3 21bf a6a7 febe f901 0dbf
00000040: 050c 283d baed 1fbe 1235 013c 0feb f33d
00000050: ad5d 3fbe c6d8 9b3e 631f 46be 0e97 d6bd
00000060: 3918 e2bd 0976 aa3e e745 b9be 3d0c e3be
00000070: f0b9 693e 8851 86be fd22 98be 39cc 6ebe
-0.11781174 0.43268153 -0.3382639 -0.8134361 -0.5133649 -0.27580655 -0.40485263 0.391759
0.5444341 -0.048309475 -0.44735074 -0.10002465 -0.5073669 -0.6321356 -0.4973728 -0.55081135
0.041027088 -0.15618029 0.007886188 0.11910068 -0.18688078 0.30438823 -0.1934791 -0.1047803
-0.11039776 0.3329318 -0.36186144 -0.44345275 0.22824836 -0.26234078 -0.29714194 -0.23320092

layer2.3.b1.running_var f4 [32]
00000000: 98f6 7c3e dc6f 8a3e bc51 123e e78f 433e
00000010: 9088 4f3e b970 9b3e d680 333e 9ec6 763e
00000020: 66b6 6d3e 35b8 7b3e 2f69 7b3e cec8 0c3e
00000030: ec7e 9f3e dc87 613e 50bf 683e a5d0 573e
00000040: 1126 3d3e ce38 2f3e 3d1c 0b3e 8864 3a3e
00000050: c5e0 233e 0d0d 3c3e 061b 383e 01f6 5b3e
00000060: ca60 323e f114 213e 68f0 603e 7b9f 3c3e
00000070: 5bf0 503e 8d66 143e 7804 3b3e bb06 133e
0.24703443 0.27038467 0.14288992 0.19097863 0.20266938 0.30359438 0.17529616 0.24099204
0.2321411 0.24581988 0.24551843 0.13748476 0.3115152 0.22024482 0.2272923 0.21075685
0.18471552 0.17111513 0.13584991 0.18202412 0.16003712 0.18364353 0.17979059 0.21480562
0.17419735 0.15730645 0.21966708 0.18420212 0.20404188 0.14492245 0.18263423 0.14358036

layer2.3.c2.weight f4 [32, 32, 3, 3]
00000000: b5ca a3bb 237f 8fbc 6f90 e5bc 3b4c 0e3c
00000010: 6df0 53bc 9c1d 083c b2d1 0d3d 2c57 113d
00000020: 39af 1ebb bd1e c33b 1704 033c 0eb6 c83b
00000030: 3368 373d 65ba 46bd 9eea 0e3d 840a 0e3d
00000040: 5b22 573d be27 4f3d f721 abbc 76b6 e7bc
00000050: fd4e d1bc 4d72 65bc 258c 153d 916f 293c
00000060: 3c64 1dbd e90d 923c 34a8 95bc 131f 793d
00000070: 9729 2e3d 6094 8a3d 29b5 3e3c 67ca fd39
00000080: 78e7 233d 2107 443c ed3d 563d 550a 053d
00000090: 1f50 f3bc 856b 74bd 8cbc 55bd 2e19 cebc
000000a0: 6a05 24bd 93dc afbd 3e5c b1bd e1d6 1fbd
000000b0: b356 e9bd f51c 2a3d fd1b 163d 9b8a 513b
000000c0: 9de4 9e3c b223 3bbd 1ff2 f4bb 5dd7 3abd
000000d0: c02b b9bb c608 40bd d351 f5bc 2f73 b3bb
000000e0: c6c7 28bd 6207 7abd 0d14 21bd 9a78 55bd
000000f0: 716d dabc 842d 97bb f6aa 11bd 53c5 f83c
00000100: 10c6 3c3d 5ed1 513b 09a3 db3c 4aa5 f13b
00000110: 4d38 21bd 1a09 943c 8ec8 b33c 3ad5 85bc
00000120: e88e 3a3d ef42 e43c f195 693d 7e9f 1abd
00000130: 58e4 c2bc 87c3 103d 89f7 d3bc 8875 14bc
00000140: 71a2 e93c 27b0 80bb e472 cabc c4cb 72bd
00000150: a02a d7bc 501e 74bd 674d 26bd bfb0 efbc
00000160: 9d18 73bd 22d2 85bd 51a4 afbb 3454 c33c
00000170: e2e6 343d 3a0e 543a 3286 eebc 135a 543d
00000180: abee ec3c 9ee8 be39 1912 673d 7032 8b3c
00000190: 517b 0f3c af33 493d 7e2f 06bc 2be6 a93c
000001a0: 3020 723d 9b12 833c 39e8 abbb 6c3d 4a3d
000001b0: 759a 303d ca19 af3c ac71 5f3c e869 3a3d
000001c0: 87df df3c 043b 14bb d649 4a3d 4568 3d3d
000001d0: 397a 943d 020b 22bd 28c5 27bd 52aa 88ba
000001e0: 06c2 fb3c 6d65 dd3c 736f 06bb 114c dfbb
000001f0: 984e 863c a487 2dbc f977 47bd 99df 96bb
00000200: a594 adbc da5e 20bd 92be 76bc 70ff ff3c
00000210: de0d 32bd a5f5 cebc c5bf 21bd 00c7 62bd
00000220: 7529 2abd 408e 89bd 075a 7bbd a205 b5bc
00000230: 5eff ebbc d4b3 1bbd 2efe 7ebc be1b 80bc
00000240: bed6 14bd 8209 44bd 857c 38bd 3a44 94bc
00000250: 289b cdbb 5f45 8abd b344 7abc f299 93bc
00000260: 6b96 e0bc d869 8c3d de57 b73b aebb 3b3c
00000270: f9d2 7e3d f30a 2a3c 5132 0c3d 47bc fb3a
00000280: 1284 5dbc cc9e ba3c 5e90 8b3c f37d 683d
00000290: 57fa 193d 7198 b43c 8092 49bc 0692 023d
000002a0: 512e ec3c 92a7 a5bc 6d5b fe3c 04f9 7e3c
000002b0: 2f37 363d 845e 5e3d 9939 9c3b 1f85 60bc
000002c0: cb0e 0c3d 010c 8e3d 84f5 553c 4c26 a03c
000002d0: 217f 573b c815 c93c 7974 1c3d aa3c c7bc
000002e0: d597 043d e92a b2b9 c706 073d 2a0a 653c
000002f0: 62a4 8f3d e804 af3c 89c0 f8bb 4317 953c
00000300: 68f6 143d 9539 9dbc ff54 443c 2f12 f93c
00000310: 08da 533c 7122 8a3b 55f8 14bd 686c f5bb
00000320: 1dec 803c 1536 673c 8978 d63c e1bd 633c
00000330: e97d 293d 9cfc 2c3d 003b 8b3c a3ce 793d
00000340: e0d3 c73a 02bb c1bb e99a 683d 6b35 e83c
00000350: 991d f33c a2c2 423d 7c0d 933a 9407 8c3c
00000360: 0f18 433d 94a6 b83c 6545 ea3a 3fb8 e03c
00000370: 7f9d e93c b891 14bd 6a44 303d 1d64 303d
00000380: 718f 953b ef5a f13c a125 423b be33 2bbd
00000390: 39db 5f3b 5ca5 343c e86b 00bd b055 4c3d
000003a0: 324b 993c 342a 43bc 7a6b 45bd 85db 63bc
000003b0: b275 be3b 58d6 86bd b29c afbc 3f0e 12bd
000003c0: f303 7ebd e940 5dbd 65ee febc 5d89 d13c
000003d0: 65c6 293d 2ed4 0a3d 9006 9f3c 0c7d 473d
000003e0: 0a01 bd3c 0d61 683d 959e a13d 7fdb 263d
000003f0: 2cb6 a83d 164d b23c 9453 eb3d f85f 483d
-0.00499853 -0.017516678 -0.028022973 0.008685167 -0.01293574 0.008307841 0.03462381 0.035483524
-0.0024213328 0.005954592 0.007996581 0.0061252182 0.044777106 -0.048517603 0.034891717 0.034677997
0.052523 0.05057501 -0.02089022 -0.028285246 -0.02555036 -0.014004302 0.036510605 0.010341541
-0.03842567 0.017828899 -0.018268682 0.06082065 0.042520132 0.067665815 0.011639872 0.00048406722
0.040015668 0.01196459 0.05230515 0.032480557 -0.02970129 -0.05967285 -0.052181765 -0.025158491
-0.040044226 -0.08586993 -0.08660172 -0.039023284 -0.1139349 0.04153152 0.036647785 0.0031973484
0.01939612 -0.04568834 -0.007475152 -0.045615543 -0.0056509674 -0.046883367 -0.029946243 -0.0054763774
-0.041206144 -0.061042197 -0.039325763 -0.052116968 -0.026663514 -0.00461358 -0.03556343 0.030367529
0.046087325 0.0032015662 0.02681114 0.0073744403 -0.039360333 0.018070746 0.021946218 -0.016337026
0.045546442 0.027863948 0.05702776 -0.03774976 -0.023790523 0.03534272 -0.02587487 -0.009061225
0.02851984 -0.003927249 -0.024712987 -0.059276357 -0.026265442 -0.05959922 -0.04060116 -0.029259084
-0.059349645 -0.0653422 -0.005360164 0.023843862 0.0441655 0.0008089278 -0.029116724 0.051843714
0.0289224 0.00036412937 0.056413744 0.016991824 0.008757428 0.049121555 -0.008190034 0.020739635
0.059112728 0.016000083 -0.005246189 0.049374983 0.04311605 0.021374602 0.013637941 0.045511156
0.027328266 -0.0022618184 0.04938682 0.046242017 0.072498746 -0.03956128 -0.040959507 -0.0010426736
0.030732166 0.027025903 -0.0020513206 -0.0068144877 0.016394898 -0.010591421 -0.0486984 -0.0046042916
-0.021189043 -0.039152957 -0.015060084 0.031249732 -0.043470256 -0.025263617 -0.039489526 -0.055365562
-0.041543443 -0.06716585 -0.061365154 -0.022097412 -0.028808292 -0.038013294 -0.015563531 -0.015638229
-0.036337607 -0.04786063 -0.045040626 -0.01809894 -0.0062745996 -0.06751513 -0.015275168 -0.018017743
-0.027415475 0.068561256 0.0055951914 0.011458321 0.062212918 0.010378587 0.034227673 0.0019205891
-0.013520258 0.022780798 0.017036613 0.05676074 0.03759226 0.022045346 -0.012302995 0.03187754
0.02883068 -0.020221505 0.031049455 0.0155623 0.04448622 0.054289356 0.0047676084 -0.013703614
0.034193795 0.06935883 0.013059024 0.019549511 0.0032882171 0.024546519 0.038197014 -0.024320919
0.03237136 -0.00033982776 0.032965448 0.013979474 0.070137754 0.021364644 -0.0075913114 0.018199569
0.036367804 -0.019192496 0.011983155 0.030404178 0.012930401 0.0042155315 -0.03636964 -0.0074897297
0.015737588 0.014112015 0.026180523 0.013900251 0.041379843 0.042233095 0.016995907 0.06098808
0.0015245639 -0.0059121856 0.05678836 0.028345784 0.0296772 0.047548898 0.0011219229 0.017093457
0.047630366 0.022540368 0.0017873464 0.027431605 0.028517483 -0.03627178 0.043033995 0.043064225
0.0045642187 0.029462306 0.002962448 -0.041797392 0.0034157766 0.011025753 -0.031352907 0.049886405
0.018712614 -0.0119119175 -0.0481982 -0.013907318 0.00581237 -0.065838516 -0.021437023 -0.035658117
-0.062015485 -0.05401698 -0.031119535 0.025578195 0.04144897 0.033893757 0.019412309 0.04870324
0.023071785 0.05673318 0.07891575 0.04073667 0.082378715 0.021765273 0.11490551 0.048919648

layer2.3.c2.bias f4 [32]
00000000: 6694 62bd 66f6 8c3c e8dd 38bd d3aa 823a
00000010: 3796 073d 7e1a a4bc 87f8 363d 636a b5bc
00000020: 6e69 b4bc 779e 663d 95da 70bc 189d fc3b
00000030: ae73 8ebc f415 703c 2c8d fd3c 6ecc 6c3d
00000040: 3141 45bd fdf5 263d 8185 33bd 410f 0fbd
00000050: 091b 5abd b920 19bd 80a7 483d 3c97 0b3d
00000060: 78af 233c 60a5 0b3d e711 393d 0fa8 393d
00000070: d65d 313b 2887 873c 29fc 53bd 6667 033d
-0.055317305 0.017207336 -0.0451335 0.0009969122 0.03310224 -0.020032164 0.044670608 -0.022145456
-0.022022929 0.056303468 -0.0147005515 0.0077091567 -0.017389145 0.0146536715 0.030951105 0.057812147
-0.048157874 0.040761936 -0.04382849 -0.034926657 -0.05324844 -0.037384722 0.048987865 0.034079775
0.0099905655 0.03409326 0.04518309 0.04532629 0.0027063987 0.01654394 -0.05175415 0.03208103

layer2.3.b2.weight f4 [32]
00000000: a72a aa3f 8a26 a03f ed4e aa3f 2e66 b13f
00000010: 4032 b03f 7d70 a93f 2fa1 b13f cb53 ae3f
00000020: e7c0 a93f 68fd b13f 28f7 a23f ee6e a33f
00000030: 49f0 a53f 1f8a a33f 06d0 a53f e689 9f3f
00000040: e190 9f3f dba2 a33f dc58 9f3f b4df 9f3f
00000050: 0ae4 a93f a389 9f3f 8ba7 ac3f ecbb a13f
00000060: 5956 a03f 17b1 a73f 7752 a23f e1d5 a13f
00000070: 7404 a03f 3f12 a73f 999a 9e3f 6b8e 9e3f
1.3294266 1.2511761 1.3305336 1.3859308 1.3765335 1.3237454 1.3877314 1.3619322
1.3261994 1.3905458 1.2731676 1.2768228 1.2963954 1.2776526 1.2954109 1.2463958
1.2466089 1.2784075 1.2448993 1.2490144 1.3272717 1.2463878 1.348863 1.2635474
1.2526351 1.3100919 1.2681416 1.2643396 1.2501359 1.3052443 1.239093 1.2387213
