models/resNet_3_best.pth (torch, 129163 bytes, 37 tensors)

stem.0.weight f4 [16, 1, 3, 3]
00000000: 085c b23c 12ac 84be ce2c 483e 03fd ec3d
00000010: b3a9 91be 734f a8be 75c1 2cbe 21ab 2eb8
00000020: 6b98 903d a385 86be d404 383e b88e a6be
00000030: 78be 52be 6b94 913c 74d4 37be a973 993e
00000040: 34d7 cfbd dbdf c43d 0ef4 8a3e 1b22 71be
00000050: ba1b 9abe fef5 5cbd d40d 09be b37a e53d
00000060: b64d be3d 05ce 45be 082f 8ebe ae03 99bd
00000070: a5ff 87be 58f6 e3bd 3138 723e 0460 003e
00000080: 3186 a93e fa54 533e 95d2 a63e bbcc 9b3e
00000090: 29ac 713c 2f40 28bd d9db 023d 2817 3c3e
000000a0: 645e fd3d 445f a53e 95c3 9fbe c637 ab3e
000000b0: ded8 8abe a760 9fbd 7357 a03e a586 c93d
000000c0: 7c5b 8dbd c039 8c3e 7ff1 5dbe 1668 3ebe
000000d0: d39e 00be 9588 023e 7513 a3be af4d 22be
000000e0: a95a 59be 84b6 cf3d 2870 1abc 71c4 1d3e
000000f0: f6d0 67be 2253 37be 9aea d4bd 32f6 6ebe
00000100: 07e0 08be 6823 8a3c e91c 94be fb1a 873e
00000110: 59d6 483e c9ab 75be 4915 443e ed44 3c3d
00000120: 9961 55be 2dbc 47be 2897 9fbe 2b4e 953e
00000130: e9d8 76bd aea5 e83d 8125 833d 79ab febd
00000140: 75dd 46be 4b7e aabd b160 0cbe 77d7 ce3d
00000150: 6f14 173e 41c1 cf3d ba09 8b3e 1816 1a3e
00000160: 11c9 e4bd 0800 73be d347 43be 190d 98be
00000170: a716 97be 5986 4e3d 4e61 7e3e db15 373e
00000180: 5ed2 66be 137c 8cbe 512e 1ebe a8cf a9bd
00000190: b976 113e 6d86 1dbe a087 4a3e 90f3 8b3e
000001a0: 891a 1bbe fbb8 74bd f09c 913e ed29 8a3e
000001b0: 1f87 53bd e2dd 3e3e 796a 9bbd 13a8 80bd
000001c0: 4301 443d 9f43 1dbd 3665 6bbe ddb6 31be
000001d0: 5482 703c 0e72 933e 95bf d53d f82b 2b3e
000001e0: 057d ea3c e579 9ebe 4b12 1a3e 25ac 103e
000001f0: 71b6 2abe 3387 97bd 148c 963e 068f 203e
00000200: 29cc 80be 34d1 d5bc a14b 113e b8f0 0e3d
00000210: 37f5 e1bd be76 2b3e 44d8 13be cc13 87bc
00000220: aaeb 8dbe 5e93 e0bd 22cd 203e 663c 1bbe
00000230: cd96 1ebe 6ad8 163d 250b 46be 1cef 8f3d
0.0217724 -0.2591253 0.19548342 0.11571696 -0.28449783 -0.32873115 -0.16870673 -4.164421e-05
0.070603214 -0.26273832 0.17970592 -0.3253076 -0.2058047 0.017770967 -0.17952138 0.29971054
-0.101484686 0.096130095 0.27139324 -0.23548166 -0.3009928 -0.053945534 -0.13384181 0.11205044
0.09292166 -0.19316871 -0.27770257 -0.07471405 -0.2656223 -0.11130971 0.23654248 0.12536627
0.33110192 0.20637885 0.32582536 0.30429634 0.014750519 -0.041076835 0.031947944 0.18368208
0.12371519 0.32299244 -0.31203905 0.3344099 -0.27118582 -0.07782107 0.31316718 0.098401345
-0.06902215 0.2738781 -0.21674155 -0.18594393 -0.12560587 0.12747414 -0.31850782 -0.15849946
-0.2122599 0.10142234 -0.009426154 0.15406968 -0.22638306 -0.17902806 -0.10396309 -0.23336104
-0.1336671 0.016862586 -0.28928307 0.26387772 0.19613017 -0.23991312 0.19148745 0.04596417
-0.20838012 -0.19505377 -0.3117001 0.291612 -0.060265455 0.11359726 0.06403638 -0.124350496
-0.19420417 -0.0832487 -0.1370876 0.100996904 0.14753889 0.10144282 0.27155858 0.1504749
-0.11171163 -0.2373048 -0.19070368 -0.29697493 -0.2950947 0.050421093 0.24841806 0.17879431
-0.22541186 -0.2743841 -0.15447356 -0.082915604 0.14205445 -0.1538331 0.197783 0.2733426
-0.15146841 -0.059746724 0.28440046 0.26985112 -0.051642533 0.18639329 -0.075886674 -0.062820576
0.047852766 -0.038394567 -0.22987828 -0.17354913 0.01467951 0.28797954 0.10436932 0.16715991
0.028624067 -0.30952373 0.1504604 0.14128168 -0.16671158 -0.07398834 0.29403746 0.15679559
-0.25155762 -0.026100732 0.14189006 0.034897536 -0.11033099 0.16744515 -0.14437968 -0.016488932
-0.2771886 -0.10965608 0.15703252 -0.15159759 -0.15487213 0.036827482 -0.19340189 0.07028028

stem.0.bias f4 [16]
00000000: b225 663e 91f8 12be d0f2 a33e f605 643d
00000010: e18e 8cbd d444 89bd 2f00 a43e 2e53 7e3e
00000020: f720 063e 6907 82be e0bb 6e3e fa74 8ebc
00000030: 94b8 8e3d 3e80 503e 4814 9ebe 5364 a1be
0.22475317 -0.14352633 0.3202119 0.055669747 -0.068631895 -0.06702581 0.3203139 0.24836418
0.13098513 -0.25396279 0.23313856 -0.017389763 0.06968799 0.2036142 -0.30874848 -0.31521854

stem.1.weight f4 [16]
00000000: 2431 7f3f 2a49 813f 7078 803f fbd6 803f
00000010: 1cd5 7d3f 9aeb 7e3f 20cd 7f3f 0217 803f
00000020: 9d3b 7e3f 56a3 7e3f e71e 813f 0ee3 7f3f
00000030: 20e7 7d3f 5294 7f3f 40e3 7d3f 9e01 803f
0.9968436 1.0100453 1.0036755 1.0065607 0.99153304 0.9957825 0.9992237 1.0007021
0.9930971 0.9946798 1.0087556 0.9995583 0.99180794 0.99835694 0.9917488 1.0000494

stem.1.bias f4 [16]
00000000: 46fe 16bb b844 613b c11c 6f39 2f99 ccba
00000010: 7071 18bc 2663 39bb cc82 a33b bf68 c53a
00000020: 2d46 5a3b f323 5cbb 378d 3b3c 7990 9fba
00000030: b0e9 a3ba 5947 c6bb 454a 26bb d761 e0ba
-0.0023039742 0.0034373235 0.00022803528 -0.0015609617 -0.009304389 -0.0028287857 0.0049899574 0.0015061124
0.0033305988 -0.0033590763 0.011447242 -0.0012173794 -0.0012505557 -0.006050986 -0.0025373858 -0.0017119002

stem.1.running_mean f4 [16]
00000000: 57e1 5a3e 4aae 1fbe 3f72 9f3e 34e9 843d
00000010: 99b3 6ebd a736 7ebd 2a0b 9e3e 67b5 7a3e
00000020: 58ee fa3d 7c96 7dbe b86b 643e b6e8 26bc
00000030: 5b5a 8a3d d7db 573e 91e1 9abe 23d1 a6be
0.21375023 -0.1559383 0.3114185 0.064897925 -0.058276746 -0.06206384 0.30867893 0.24483262
0.12252492 -0.24764436 0.22306716 -0.010187319 0.06755515 0.21079956 -0.3025022 -0.32581434

stem.1.running_var f4 [16]
00000000: e096 763e 7a0c 803e 36b0 5e3e 6ff7 783f
00000010: 9c92 873e 0f26 133e 1ed3 ca3e 1c7e 3d3e
00000020: 9d8d bc3e fa84 4e3e fb9e 1b3f 931b a23e
00000030: be86 f73d df21 6a3e e6a0 de3d c688 353e
0.24080992 0.2500952 0.21746907 0.97252554 0.26479042 0.14369987 0.39614195 0.18505138
0.36826792 0.20167914 0.6078946 0.31661662 0.12086247 0.22864483 0.10870533 0.17727956

layer1.c1.weight f4 [16, 16, 3, 3]
00000000: 816d 8e3b 392e 543d 9938 91bd 31a1 a7bd
00000010: d253 9f3d c3f8 a23b c28b 26bd c66c 86bc
00000020: 0822 3f3d 5d2e f23c 8d75 dcbc 9929 853d
00000030: 6fbb ac3c d13b 3d3d 4fce 97bd c3a4 a63d
00000040: 1d52 123d a967 c5bc 5c7a a33d f25c 8ebd
00000050: 4d6e 65bd c90c a53d 5873 85bd 35e5 5cbd
00000060: 4b07 0f3c 3df8 5b3c 5c6b 713d aba2 49bd
00000070: 2950 0dbd 48f8 70bd d9a7 eabc a760 683d
00000080: 1abd 973d 8ab7 a0bd d0c2 34bc 0288 93bd
00000090: 48c3 66bc f95f 39bd e0f9 9f3c 1470 04bd
000000a0: e13c 9f3d 505a 4b3d e861 293c 7a44 243d
000000b0: ae8e 4c3d 7786 283d 26ce 203c a3e8 71bd
000000c0: d20e f8bb fc76 5a3d 9c2e 3ebd b250 ba3c
000000d0: 964a 71bd 3b6b acbd 5d0f 953d 645e a83d
000000e0: 2950 3abd 542f 56bd f9da 333d e509 acbd
000000f0: 4b39 eebc 3346 66bd 58bd a23c c58e 763d
00000100: 42e3 663d c462 c23c 2abb fd3c c97f 7bbd
00000110: 812a 64bd b48c 81bd cf94 183c cc48 0b3d
00000120: cc61 793d 75a6 91bd 722d 8abd 18b2 3a3d
00000130: 60ad 903a d9b1 103d 2d49 fbbb 24d6 543d
00000140: 8338 9f3b 6295 6abd e7b5 2ebd 22c0 a9bd
00000150: 9a07 6dbd cd94 e63b eb76 883d 1e4a d0bb
00000160: 807e 933d 0f1c 8dbd 5e97 0bbd 8698 9bbd
00000170: 8c0a 68bd 8299 2e3d e3cf 9ebd 7a41 a0bc
00000180: 695f 443d c11c 4ebd b6d6 81bb f462 903d
00000190: aea1 953d ab61 01bd 19b0 213d 6a83 0b3d
000001a0: d538 4bbd 8f45 813d b438 413c 6120 fd3c
000001b0: 43ed d93b 042a 42bc a16d 9a3d 840d dd3c
000001c0: e0b5 5fbc 6148 76bd b607 fabc e61a 403c
000001d0: 3b99 03bb d798 0c3d 281e 8dbc c601 2c3c
000001e0: b7cd 59bc ad9e 523c e24b 623d 2d38 173d
000001f0: aff3 a63b ef17 4dbd 61f8 8abd 6b16 17bc
00000200: b41f d33b a566 1fbd 4e94 9fbd 8531 923d
00000210: 7775 9e3d 635a 6c3b 93db 1b3c 5697 853d
00000220: 7293 29bd 965c 58bd 563a 56bd 8236 923d
00000230: 1f2d e43c 499a 983d 87d6 b7bc 2174 04bd
00000240: 6d5f 923d b3ad 4c3d 3aac 19bd 8e2c b43a
00000250: 3113 8b3d 6a78 87bd 9164 1d3d f56c 6e3d
00000260: d27f 033d e297 11bd 312e 1f3d 0ecf af3c
00000270: 7cc8 05bd 2f64 253b faa5 15bd 8c55 8cbc
00000280: 5805 e3bb 02ee 0d3d 71a2 323d 7e21 7dbd
00000290: b1f9 f6bc c645 97bd f028 a33c 401b 50bd
000002a0: 7b9c 9d3d 0d19 873d 427e 99bd 4f66 2f3d
000002b0: 02c1 8ebd 5533 353c 146c 8dbd 50a8 5dbd
000002c0: ee4a a43d f03f 193d 3b6f 5f3d 09c3 1d3d
000002d0: 6497 873c 49c2 893a b3cb 93bd 25b3 51bd
000002e0: 0903 a43d d769 2d3d c06c 043c 731f 40bd
000002f0: e48e 9fbd ce92 e6bc 608f 793d b4bd 833d
00000300: 1aea 04bd d02c ae3c c397 69ba 1a9a 97bc
00000310: d2f2 67bd 0ede acbd 5519 99bd 73fd 113d
00000320: 86fc a6bd 6ad3 6abc 4e00 64bc e80b 91bd
00000330: ca70 67bd 6d5f 3bbd 577b b9bc d83a aa3d
00000340: 83ec 0c3c 82b5 b13d e489 49bd 8de2 3f3d
00000350: fab0 abbd 014e 233c 4986 503d 8549 c839
00000360: f9b4 81bd b7ba 813c 7341 a3bd d4a7 a43d
00000370: b08c 1b3d 866a 20bd 7527 833d e213 83bd
00000380: 4fdf 33bd bc3f 913d 8d2b c5bc c29a 96bd
00000390: 4670 c93c 5b74 eb3b 2be5 93bd 53c6 5a3c
000003a0: bda1 0fbd 4bbd 12bd 357b 873d 5f55 833a
000003b0: f02f 9bbd ff84 19bd bd30 803d 4128 5b3c
000003c0: a2e4 923c 4881 9cbd a8c1 633d e4f9 65ba
000003d0: 1774 e1bc 8450 a4bc 9b9b 3b3d 3826 94bd
000003e0: 42bd 69bc eb8e 623d 75a9 b2bc be36 99bd
000003f0: 8af9 6dbd 09d5 96bc c57b 5fbd 25a9 613d
0.00434655 0.051801894 -0.07090873 -0.08185042 0.07779659 0.0049735024 -0.040660627 -0.01640929
0.046663314 0.029563123 -0.026911521 0.06502075 0.021085469 0.046199623 -0.07412397 0.081368946
0.03572284 -0.02409728 0.079823226 -0.06951322 -0.056013394 0.08059079 -0.06516141 -0.053929526
0.008729766 0.013425884 0.058940277 -0.049227398 -0.034500275 -0.05883053 -0.02864449 0.0567328
0.07409115 -0.07847507 -0.011032775 -0.07203676 -0.014084645 -0.045257542 0.01952833 -0.03233345
0.077752836 0.049646676 0.010338284 0.040104367 0.049940757 0.04114386 0.009814775 -0.05905975
-0.007570126 0.05333613 -0.04643117 0.022743557 -0.05890902 -0.0841889 0.07278321 0.082211286
-0.045486603 -0.05229123 0.04391 -0.08400325 -0.029080054 -0.05621929 0.019865677 0.06019475
0.056369074 0.023728736 0.030973036 -0.061401162 -0.055704597 -0.06325665 0.0093128225 0.03400497
0.060884282 -0.07111827 -0.06746949 0.04558 0.0011037998 0.03532586 -0.0076686353 0.051962033
0.0048590316 -0.05727137 -0.042653944 -0.082885996 -0.057868578 0.0070367814 0.06663307 -0.0063564917
0.07201862 -0.068901174 -0.034079902 -0.07597451 -0.056650683 0.042626865 -0.07754495 -0.019562472
0.047942553 -0.05032039 -0.003962363 0.07050124 0.073062286 -0.031587284 0.03947458 0.034060873
-0.049614746 0.063120954 0.011793304 0.030899229 0.0066505983 -0.011850838 0.07540441 0.026983984
-0.013654202 -0.06012762 -0.030521255 0.011725163 -0.0020080346 0.034325447 -0.017226294 0.01049847
-0.013293675 0.012855214 0.05524815 0.036918808 0.0050949673 -0.050071653 -0.06785656 -0.009221653
0.0064429883 -0.03891625 -0.07791959 0.07138351 0.077372484 0.0036064617 0.0095128 0.06523006
-0.04140038 -0.05282267 -0.052301727 0.07139303 0.027853547 0.074513026 -0.022441162 -0.03233731
0.07147107 0.04997034 -0.037517764 0.0013746188 0.0679077 -0.06614764 0.038425986 0.05820938
0.03210432 -0.035545237 0.03886241 0.021461036 -0.0326619 0.0025236716 -0.03653524 -0.017130636
-0.0069281273 0.03465081 0.043611947 -0.06179952 -0.030148359 -0.07386355 0.019916981 -0.050807238
0.07695862 0.06596575 -0.07494785 0.04282218 -0.06970407 0.011059602 -0.0690538 -0.054115593
0.08022104 0.03741449 0.054549437 0.03851608 0.01655168 0.0010510172 -0.07216587 -0.051196236
0.080083914 0.042337265 0.008082569 -0.046904992 -0.07790926 -0.028146174 0.06092775 0.064326674
-0.03244982 0.021261603 -0.0008910859 -0.018506099 -0.056628056 -0.08440791 -0.07475535 0.0356421
-0.08153634 -0.014332632 -0.013916088 -0.07082349 -0.05650405 -0.045745302 -0.02264182 0.08312005
0.008601311 0.08677198 -0.04920377 0.046846915 -0.08383365 0.009967328 0.050909314 0.0003820175
-0.06333346 0.015836103 -0.07971468 0.08039823 0.037975967 -0.03916409 0.0640401 -0.06400277
-0.043914136 0.070922345 -0.024068618 -0.073537365 0.024589669 0.0071855015 -0.07221445 0.013352948
-0.035066355 -0.035825055 0.06615297 0.0010019949 -0.07577503 -0.03748035 0.06259296 0.0133762965
0.017931286 -0.07641846 0.055604607 -0.00087728933 -0.027521176 -0.020057924 0.045802694 -0.07233852
-0.014266314 0.05531208 -0.021809319 -0.07481144 -0.058099307 -0.01841213 -0.054561395 0.05509295

layer1.c1.bias f4 [16]
00000000: a82e 84bd 3e62 53bd cd5b c63c 9298 a3bd
00000010: 0ee5 49bc e432 b4bc 5ed5 ccbc 6d93 9b3a
00000020: b8d6 093d b870 843d 069a aebc 6807 f8bc
00000030: 1651 ab3c 4d60 9e3d c0b8 4abd 4020 a8bd
-0.064542115 -0.051607363 0.024213696 -0.07988085 -0.012322677 -0.021996923 -0.025004085 0.0011869498
0.033652037 0.06466812 -0.021313678 -0.03027697 0.020912688 0.07733212 -0.049492598 -0.08209276

layer1.b1.weight f4 [16]
00000000: d39f 7f3f 4a30 7f3f 0ad4 7e3f e3fc 7f3f
00000010: d29c 803f 2dd1 7f3f 000b 7f3f d9d5 803f
00000020: e879 7e3f 0e69 7f3f 178e 803f 400e 813f
00000030: 8bc7 803f ce52 803f 5a12 7f3f f9fd 7e3f
0.9985325 0.9968306 0.99542296 0.9999525 1.0047858 0.9992855 0.9962616 1.0065261
0.99404764 0.99769676 1.0043362 1.0082474 1.0060896 1.002527 0.9963738 0.9960628

layer1.b1.bias f4 [16]
00000000: d132 dbbb 4f6f 7fba 443b e0bb f326 8fba
00000010: 851f 383b d8a9 b83b 660b c3ba 6a2d 1f3c
00000020: 403f c2bb 2e28 583a b674 70ba 49bb 213c
00000030: 1bd0 6ebb 75b2 7c3b 4e7b abbb 70cb ecba
-0.0066894074 -0.00097440643 -0.0068430025 -0.0010921642 0.002809496 0.0056354813 -0.0014880716 0.009715417
-0.00592795 0.00082457333 -0.0009172665 0.009871312 -0.0036439958 0.0038558517 -0.005233205 -0.0018066

layer1.b1.running_mean f4 [16]
00000000: 010a 12be dd39 41bf 64ed 253e bd96 043f
00000010: 210e a83e a360 2a3d db0f bfbe 1d36 473e
00000020: e886 903e e954 613f 6b50 a8be 4bfe 13be
00000030: ecb0 3bbe 4e42 843f d1d5 843e e4b2 143e
-0.14261629 -0.7547892 0.16203839 0.5179251 0.3282328 0.041596066 -0.37316784 0.19454236
0.28227925 0.8802019 -0.32873854 -0.14452474 -0.18329209 1.0332735 0.2594438 0.14521366

layer1.b1.running_var f4 [16]
00000000: 5967 633e c9c0 f83e 3eaf 2c3e 4642 b43e
00000010: 132b 743e 58b9 503e 0b46 723e 0929 3f3e
00000020: 2257 4c3e 150d 093f f511 8c3e e723 3e3e
00000030: 239e 873e 5478 1f3f 3455 7e3e 5ba6 8d3e
0.22207393 0.48584583 0.16863725 0.35206813 0.23844557 0.20383203 0.23659532 0.18667997
0.19955114 0.53535587 0.2735745 0.18568383 0.26487836 0.6229298 0.2483719 0.27665982

layer1.c2.weight f4 [16, 16, 3, 3]
00000000: cdf7 a63d 58c8 6e3c 9c4a b83d 7f47 533d
00000010: 1a61 07bb 9a4b f4bc d9e6 2fbd a1ee 923d
00000020: 90f3 0cbd c39c 48bd 57fd 84bd 0142 1abd
00000030: 26cd 7d3d 7097 053a 6087 e93b aa81 89bd
00000040: 784c 6cbd fcd0 19bd 2f76 b13d 3334 633d
00000050: 24b5 f53a 7296 823d 5648 6f3d 44a1 873d
00000060: 4b55 90bd a876 22bc 27f1 7fbd dc41 f1bc
00000070: 02e4 a1bd 0a38 9d3c 39ee 40bd 2e8f 1ebd
00000080: ebcf eb3b ded1 333c 2a01 2dbc 62b5 6a3d
00000090: e895 423d 4284 d3ba c833 9fbd f942 f83c
000000a0: 66be 343d 5deb d3bc bff2 2bbd 4714 9c3d
000000b0: 80fe 083d 4374 e4bb 5c8f 92bd 7954 c43b
000000c0: e5c1 a1bd fb26 623c 18dd a1ba ade6 083d
000000d0: 88c6 6f3d b5fe 4d3d 8f1f be3c 105a ef3c
000000e0: 4610 69bd 1f09 9e3c 045d 173c bdee 43bd
000000f0: c4f8 803d fc86 933c 4773 623d a958 afbb
00000100: 0192 953d e93c 973d cbae debc 2067 5b3d
00000110: ff16 71bd 0cb8 0b3d 377e 85bc 0148 4a3d
00000120: 372c a7bd 7c25 8b3c cb96 17bd 187f 0bbd
00000130: 94b6 d73c 62d8 93bd 0ec5 4538 8ff2 86bd
00000140: d4f2 7ebd 81f5 fbbb 6dd8 1c3d 4277 78bd
00000150: 98cd 9a3d abca 75bd 39bf f5bb 76d9 963c
00000160: a6be 8cbd c637 a83c 29c9 903d 4471 15bd
00000170: c3d4 ab3c 7705 ec39 2d50 9b3d 3645 86bd
00000180: 33ea 32bd 72bf 50bd 3c99 14bc f20f acbd
00000190: 521d bfbc 1b75 11bd d15c 10bd 1d6d 43bc
000001a0: cd16 0c3d 14fb d5bc 7418 65bc 635b 393d
000001b0: 75e9 8abc 1d4d f93c d0a1 e33c a41b 963d
000001c0: 49d2 543d 35ed 923d 8f57 a5bd 20c2 71bd
000001d0: e08f a9bc d981 95bb 89b9 79bd 9f8d 693d
000001e0: fc73 c83c ff8d 843d 8553 a9bd 0450 34bd
000001f0: 1080 06bd e544 ecbc 96d9 6f3d 720c 26bd
00000200: d2d5 96bd b3b6 d03b 4392 a3bd c3ed 41bd
00000210: b222 fcbc bd99 ca3c d27b a53d 3eca 923d
00000220: c910 a63d 49c8 af3d 8922 87bc ab92 413d
00000230: 12d4 e03c 1d34 7dbd a0c9 05bc 4b3b 23bd
00000240: 8675 443d e232 893b b8c8 0ebd dfd4 42bd
00000250: 9dd3 54bd 3721 a03d 2e65 183b e121 a03d
00000260: 6118 8d3d 0fc3 973d c334 82bc b91d 253d
00000270: 09e7 693d 5c49 cbbc fb47 80bd 1932 6a3c
00000280: af39 223c 6627 4a3d 434a 8bbd 30d0 2fbc
00000290: f88d 2cbd e367 0bbd b7da b43b 74e6 ae3b
000002a0: 5102 a23d 2136 e9bc 1945 a7bc 8430 6b3c
000002b0: 3dfc cb3b 9751 87bd d1ee 823d c6c7 7cbd
000002c0: d003 0dbd 5d73 2c3c 58c8 973d e095 9cbc
000002d0: 7860 0a3d 9470 933d d05d 14bd 9a91 57bd
000002e0: 0f7a 523d 84ea 2a3d 99c9 a9bc b93d 70bd
000002f0: 50bb 8dbd fe9e d63c 8cbc c3bc ac33 3fbd
00000300: 2868 4ebd dff3 df3b d0c2 8bbd 228b 34bd
00000310: ea83 87bd 209d 963c 4c08 67bd e0c7 8f3d
00000320: 24ee 9dbd 8f09 4abb 0f0b 413d 88c6 5a3d
00000330: 076b 213d d472 653c 27d5 24bd b083 743d
00000340: 7261 3bbd c2be 73bd d32b 893d 7817 523d
00000350: b0d0 7d3d c1e5 a2bd 8c1a 81bc 6561 fe3c
00000360: 1008 103d 838f cf3c a8d6 7fbb 915c 613d
00000370: 62cf ad3c 9b0c 633d e321 dfbc 7bc7 4abc
00000380: d664 523b 2f81 23bd 0ca3 3a3c cc73 72bc
00000390: 1188 e039 2360 81bd ae47 9cbc 199f 2cbd
000003a0: a07b 00bd cf01 a7bd f96f 97bd 21d7 963d
000003b0: 6e9a 793b 3cdb 9b3c f759 8dbd 2497 8fbc
000003c0: a5fa 7dbd 7177 a1bc 940c 9cbd 2e7e 7e3d
000003d0: a20d 433d 0d34 8cbd 47fb 88bd 0e47 473d
000003e0: a0b6 4dbd 6fcc 643d b17d 5bbd 0115 ffbc
000003f0: fab1 28bc 7c7e 1cbd cace a73d 5567 ab3c
0.08152733 0.014574133 0.089986056 0.051581856 -0.0020657242 -0.029821206 -0.042944763 0.07174421
-0.034411967 -0.048977625 -0.06493633 -0.037660602 0.061963223 0.00050961133 0.0071267337 -0.067141846
-0.057690114 -0.03755282 0.0866512 0.055469703 0.0018746001 0.063763514 0.058418594 0.06622556
-0.07047518 -0.009915985 -0.06248584 -0.02945035 -0.07904817 0.01919176 -0.047102187 -0.038710766
0.0071964166 0.010975329 -0.01055936 0.057301886 0.047506243 -0.0016137438 -0.07773548 0.030305373
0.04412689 -0.025869066 -0.041979548 0.07621055 0.033445835 -0.0069718673 -0.0715625 0.0059915152
-0.078983106 0.013803239 -0.0012349216 0.033423115 0.058538944 0.050291736 0.023208408 0.02921775
-0.056900285 0.019291459 0.009238485 -0.0478351 0.06297448 0.018008702 0.05528572 -0.0053511453
0.07303239 0.073846646 -0.027182957 0.053565145 -0.05885982 0.034111068 -0.016295535 0.049385075
-0.0816273 0.016985647 -0.03700904 -0.034056753 0.026332177 -0.07219006 4.715198e-05 -0.06589233
-0.062243298 -0.0076891785 0.038292337 -0.060660608 0.07558745 -0.060007732 -0.007499602 0.01841424
-0.06872301 0.020534407 0.07069618 -0.03648497 0.020975476 0.000450175 0.07583652 -0.0655617
-0.04368038 -0.050963826 -0.009069737 -0.08401479 -0.02332941 -0.03551207 -0.035244767 -0.01192787
0.034201432 -0.0261207 -0.013982881 0.04525317 -0.016957024 0.030432278 0.02778712 0.07329491
0.051958356 0.0717415 -0.08073341 -0.059023023 -0.020698488 -0.004562598 -0.060967956 0.057019826
0.024469368 0.06472396 -0.08267883 -0.04402162 -0.032836974 -0.028841445 0.058557115 -0.040539213
-0.07365002 0.0063694357 -0.079868816 -0.047345888 -0.030778263 0.024731511 0.080802575 0.07167481
0.0810867 0.08583123 -0.01649596 0.047259014 0.027444873 -0.061817277 -0.008165747 -0.039851468
0.04796364 0.004186974 -0.03485939 -0.04756629 -0.051959623 0.07818835 0.0023253667 0.07818962
0.068894155 0.07410251 -0.0158943 0.04031155 0.057105098 -0.024815254 -0.06263729 0.014294171
0.009901448 0.04935398 -0.06801274 -0.010730788 -0.04212758 -0.03403462 0.005519237 0.0053375307
0.07910598 -0.028468193 -0.02041869 0.014354829 0.0062251375 -0.06607359 0.06393207 -0.061713956
-0.034427464 0.010525552 0.074112594 -0.019114435 0.033783406 0.07199207 -0.03622228 -0.05262909
0.051385935 0.041727558 -0.020726012 -0.058652613 -0.06920493 0.02619886 -0.023893617 -0.046680138
-0.0503923 0.0068344916 -0.06824267 -0.044078 -0.066169575 0.01838547 -0.056404397 0.07020545
-0.07711437 -0.0030828451 0.047129687 0.05341199 0.03940871 0.014004428 -0.04024234 0.0596959
-0.045747228 -0.059508093 0.06697812 0.051291913 0.061966598 -0.07953978 -0.015759729 0.0310523
0.03516394 0.025336986 -0.0039037857 0.05501992 0.021217052 0.055431943 -0.027237838 -0.012376661
0.003210356 -0.03991812 0.0113914125 -0.014798116 0.00042825987 -0.06317165 -0.019077148 -0.042143915
-0.031367898 -0.08154642 -0.07394404 0.07365251 0.0038086432 0.019025438 -0.06901925 -0.017528124
-0.06200661 -0.019710274 -0.076195866 0.062132053 0.047620423 -0.068458654 -0.06688552 0.048651747
-0.050222993 0.055859026 -0.053586666 -0.031137945 -0.010296339 -0.038206562 0.08193739 0.020923296

layer1.c2.bias f4 [16]
00000000: 6e8f 83bd a723 9bbd 7731 22bd 7e9a 15bd
00000010: 6c25 42bd 3e37 8ebd e89f 763d 55cb aa3c
00000020: 3c71 a13d 2f5a 1fbc 4949 9d3d abec 9039
00000030: e06c 90bd 58db 17bc 7321 a93d 1bf1 723d
-0.064238414 -0.075751595 -0.039597955 -0.03652429 -0.04739897 -0.0694413 0.060211092 0.02084891
0.07882926 -0.009726091 0.07679994 0.00027642152 -0.07052016 -0.009268604 0.08258333 0.059311967

layer1.b2.weight f4 [16]
00000000: 586b 803f e8d1 7f3f 2233 813f 1200 803f
00000010: bc33 7f3f 7dbe 803f 2e71 803f 9a6a 7e3f
00000020: 6d29 813f 3c05 803f e976 803f 6ea8 7e3f
00000030: ce5b 813f 1c74 7f3f 7ff5 7e3f cfad 7f3f
1.0032759 0.99929667 1.009373 1.0000021 0.99688315 1.0058132 1.003454 0.9938141
1.0090767 1.0001597 1.0036288 0.99475753 1.0106142 0.99786544 0.9959335 0.99874586

layer1.b2.bias f4 [16]
00000000: 6fbe a93b 3cb7 a3bb 006a 7aba 307f 4cbb
00000010: 6115 95bb f987 6fbb a260 be3b 8ee7 81ba
00000020: 7a1c 123c a322 b73b c182 1e3c c6f8 c2ba
00000030: 4059 b13b 0f09 9ebb 5065 ccba 0631 583b
0.005180172 -0.0049962085 -0.00095525384 -0.003120374 -0.0045496677 -0.0036549552 0.0058098594 -0.0009910928
0.008917922 0.005588846 0.009674729 -0.0014875166 0.0054122508 -0.004822857 -0.0015594158 0.0032988205

layer1.b2.running_mean f4 [16]
00000000: 3f24 dfbd 888c f5bd f088 533e 14f3 d7bd
00000010: 3795 273e c114 5a3e 73ff cdbe 8682 ffbd
00000020: f0de d2bc 00c7 673d 8fbd 0abf 2410 0f3e
00000030: 49bb 10be ce2c 9ebe f330 413e d146 923e
-0.10895585 -0.11989695 0.20657706 -0.1054441 0.16365515 0.2129698 -0.40233955 -0.12476067
-0.02574107 0.056586266 -0.54195493 0.13971001 -0.14133944 -0.30893558 0.18866329 0.28569654

layer1.b2.running_var f4 [16]
00000000: 4c12 053e 60b4 e23d 648c 003e 83fe 033e
00000010: 5726 353e 923f 1a3e 1425 553e 2410 f73d
00000020: 3146 0b3e 6dc7 1c3e d8c2 0b3f fce4 003e
00000030: 49a4 cf3d ee0f 3e3e 1c5c ae3d e34e a23d
0.12995261 0.1106956 0.12553555 0.12890057 0.17690407 0.15063313 0.20814925 0.120636255
0.13600995 0.1531045 0.5459418 0.1258735 0.10138757 0.18560764 0.08513662 0.07925203

layer2.0.weight f4 [32, 16, 3, 3]
00000000: f70d a43d 2e20 a63d 2d0c 73bb 06a4 8bbd
00000010: d8ad 833d b672 cbbc 5496 90bd 89b1 333d
00000020: 58a2 a23d 274f a13d d759 32bd f830 973d
00000030: c123 223c 67fe 0ebd 91cc f8bc 2994 6a3d
00000040: 973d b13d 322c b13d 76f6 993d b53b 443c
00000050: 848b 673d 58f2 f63c 2909 9fbb 2878 1a3d
00000060: b471 663d 3b35 9c3d 6306 d43c 4e53 a3bd
00000070: 49ca 403d 2064 0b3c e3fe 8e3d b55c 603d
00000080: 815e 47bd 26e6 a9bd 6db9 74bd 5607 7bbd
00000090: 772d 073a a299 f23c 981d 973d e4b3 503d
000000a0: f3e5 a9bd 29a9 5abd 55b4 833d db7d c93c
000000b0: 6b3b 273a c85f c43c d830 b03c 8580 03bd
000000c0: 5ef5 9fbd 21c0 2bbc e045 913d d50f a4bd
000000d0: 12c3 02bc d3ec 313d 7b30 92bb 3191 383d
000000e0: 1131 3abd b53b 1b3c b522 a4bd 98be 8a3d
000000f0: 4097 31bd 399e 33bc 777e 8abd 35ca 8d3d
00000100: 30e2 9e3c d754 06bc 3608 193d 8967 7ebc
00000110: 9ef8 a8bd dd31 2f3d 3983 63bd 1bb6 59bc
00000120: a265 a43c 79ab 643c 8f39 1fbd d238 363c
00000130: 89cd 693d 575c 213c 645f d33c 10a6 3b3b
00000140: cb70 8ebd d296 28bd 11b6 83bd 8ffe b9bc
00000150: a29e f73c ac83 d5bb 6c14 87bd f164 943d
00000160: cc19 6a3d a130 833d 3ceb 4cbd 612c 54bd
00000170: 59fc 763d d81a 44bd 6243 7b3d 1c3a 543d
00000180: 6773 283d f226 ac3d 732e babc a52d 63bd
00000190: 5aa1 34bd 012d 60bd 7e2e 1dbd 8f11 8cbd
000001a0: 3b92 e3bb a556 37bc f7fd 1d3c 6aa7 b3bd
000001b0: 4b10 2dbd ba0f 923d 8a6f 4cbd ed98 293d
000001c0: b9b8 873d e6b9 5abd 87f6 83ba 0018 a1bd
000001d0: 5968 213d 3300 80bd c0c6 2abd 8f33 ca3b
000001e0: 8732 92bb 8c3d 7cbd 21fb cabc 609c 52bd
000001f0: 00d3 59bd 6e05 85bd 768e 343d 29a6 6c3d
00000200: abef 1ebd 3925 aebd 28fa 833d 7cc4 a7bd
00000210: aa53 55bd d20d 76bd e9f1 8e3d c28a 8d3d
00000220: 2d84 66bd dd4a 33bd 41fc 89bd c496 2f3a
00000230: 4d4e 3f3d 9858 90bd 1418 4abb 31f0 a1bd
00000240: ee49 483d 73fc 81bd 7852 63bd 4921 833d
00000250: 64da a23d 31db f33c 4c7a 18bd 4450 69bd
00000260: 6720 5f3d aee8 49bd 066e 2fbc 3799 06bc
00000270: 7f1e 3dbd ce2a 183d 7f7d 143d 4319 98bd
00000280: 83c1 36bd 83ff 763c b668 ce3c df66 063d
00000290: fad4 a2bc 6c11 983d 52ee 2cbd 4776 903d
000002a0: 1429 35bd d7f5 903d 6f01 de3b 2469 5f3d
000002b0: 68bb ee3b 15bb 6cbc 728e 92bd 612b 21bd
000002c0: 2807 b3bd 715e 7c3d 6b32 033d 8484 923d
000002d0: da66 fcbc 4730 52bb ebca 573d 0190 303c
000002e0: e065 87bd 94d8 7abb 9c63 363d 8dda 9cbd
000002f0: aadd c2bc 4f3c 85bd b0e6 9a3d 035f f6bb
00000300: fa9b e8bb edf0 37bd 25d5 abbc 05df b5bd
00000310: 17f8 8b3d 303b 2cbb 1648 03bd 0935 a03d
00000320: 8946 c7bc d427 26bd d590 8e3c 0c4a a43d
00000330: 2b2c d7b9 28c4 a7bd f3c2 403c bb6e 7cbd
00000340: d436 8e3d c936 aa3b 40e4 f83c a70a 8f3c
00000350: 70a4 09bd 614a 823d ae82 e43b d039 df3c
00000360: 1029 60bd e952 213d a532 f63b a814 1dbc
00000370: e7a5 473c 5f54 bfbc 93b9 6f3d da57 23bd
00000380: 96dc 27bd 465b 83bd 19df 5f3d 213f 1bbc
00000390: 76ee a3bd 11c9 9fbc 13af 073c aa04 b0bd
000003a0: ad8b 1abd faa6 103d 43bc e4bb 990f dd3c
000003b0: f0b0 82bc 24de 093d 9909 05bd e682 7dbd
000003c0: ba59 9abc 39a3 9e3c dff1 103d 2940 803d
000003d0: b647 bebc e08f ffbc 72a6 eabc 9d05 a9bd
000003e0: 1f97 863c 3a72 aebb 766b 1e3c 4e1c c7bc
000003f0: 4fb3 14bd 3658 423d 2766 a43d 28f7 6fbd
0.08010476 0.081116065 -0.0037086115 -0.06818394 0.064296424 -0.024834972 -0.07059923 0.043870483
0.07941121 0.07876425 -0.04354271 0.07382387 0.00989622 -0.034910586 -0.030370982 0.057270203
0.086543255 0.08651008 0.07517712 0.011977126 0.056529537 0.030144855 -0.004853387 0.037712246
0.05626078 0.076273404 0.025881952 -0.079748735 0.047067914 0.008507758 0.069822095 0.054775912
-0.04867411 -0.082958505 -0.05974715 -0.061286293 0.0005156616 0.029614273 0.073786914 0.050952807
-0.082958125 -0.05338398 0.0643088 0.024596145 0.00063793984 0.023971453 0.021507666 -0.032104988
-0.07810472 -0.010482819 0.07093406 -0.08010832 -0.007981079 0.043438744 -0.0044613457 0.04506034
-0.04545695 0.0094746845 -0.08014432 0.06774634 -0.043357134 -0.010963016 -0.067624025 0.069233336
0.019394964 -0.008198938 0.037361346 -0.015527614 -0.08250545 0.042772163 -0.055545066 -0.013288046
0.020067994 0.013956898 -0.03887325 0.011121945 0.05708078 0.009848676 0.025802322 0.0028632917
-0.06955107 -0.04115946 -0.06431211 -0.02270439 0.03022701 -0.0065159407 -0.06595692 0.072458155
0.057153508 0.064057596 -0.050029024 -0.051800136 0.06029925 -0.047877163 0.061343558 0.05181323
0.04112568 0.08405866 -0.022727227 -0.055463452 -0.04409919 -0.05473042 -0.038374417 -0.068392865
-0.0069449223 -0.011190091 0.0096430695 -0.08772166 -0.042251866 0.07131906 -0.04991106 0.041405607
0.0662703 -0.053399943 -0.0010067978 -0.07865906 0.039406154 -0.06250038 -0.04169345 0.006170697
-0.0044615897 -0.061582133 -0.02477795 -0.051418662 -0.05317974 -0.06495176 0.044081174 0.05777565
-0.038802784 -0.085031934 0.06444198 -0.08191773 -0.05208174 -0.060071774 0.069797345 0.069112316
-0.056278396 -0.043772567 -0.06737567 0.0006698186 0.046705533 -0.07048148 -0.0030837106 -0.07907141
0.04889863 -0.06346979 -0.05549857 0.06402833 0.07951811 0.029767605 -0.037226006 -0.056961313
0.05447426 -0.049294166 -0.010707384 -0.00821524 -0.04617166 0.037150197 0.036252495 -0.07426693
-0.04461814 0.015075567 0.025196414 0.03281295 -0.019876946 0.07425198 -0.042219467 0.070538096
-0.04422863 0.0707814 0.0067750732 0.05454363 0.007285524 -0.014448901 -0.071560755 -0.03934801
-0.08741599 0.061613504 0.032030504 0.071541816 -0.030810762 -0.0032072233 0.052683752 0.010776521
-0.06611228 -0.0038276063 0.04452859 -0.07658873 -0.023787338 -0.065056436 0.075635314 -0.0075186505
-0.007098672 -0.0449075 -0.020975659 -0.08880428 0.06834429 -0.0026280396 -0.03205117 0.07822616
-0.024325626 -0.040565327 0.017403046 0.08021936 -0.00041040903 -0.08191711 0.0117652295 -0.06162904
0.069440514 0.005194519 0.030382276 0.017461134 -0.033604085 0.06361843 0.006973586 0.027249247
-0.05472666 0.03938571 0.0075133615 -0.009587444 0.01218555 -0.023355661 0.058526587 -0.039878704
-0.04098185 -0.064138934 0.054656122 -0.0094755 -0.08004467 -0.019505056 0.008281487 -0.085946396
-0.03773086 0.03531549 -0.0069804504 0.026984977 -0.015953511 0.033659115 -0.032479856 -0.061892413
-0.018841613 0.01936494 0.035386916 0.062622376 -0.023227554 -0.031196535 -0.02864382 -0.08253024
0.016429482 -0.0053236755 0.009669175 -0.024305489 -0.036303815 0.047447406 0.080272965 -0.058585316

layer2.0.bias f4 [32]
00000000: 16d8 cb3c 7ed9 8e3d 4fd3 613c 308a 7ebd
00000010: eadc 35bd 2b26 aa3d c843 623d 962c 23bd
00000020: 0c39 05bd 36b1 3f3a 9969 143d 90be 673d
00000030: b307 3c3d 2fce a43d 1a16 713d 1307 cdba
00000040: d8c2 853c e442 a1bd e907 923c 6ece 2abd
00000050: 8193 56bc c3d8 1cbb a7e5 10bd 7aea 1ebd
00000060: 0cae 2a3c 601f 0f3d 052e 28bd 3f26 c43c
00000070: 168b 0d3d a64f 173d 05b3 633d 8085 9a3d
0.024883311 0.06975077 0.01378329 -0.062143505 -0.044400133 0.08308061 0.055240422 -0.039837442
-0.032525107 0.0007312478 0.03623352 0.05657822 0.04590578 0.08047139 0.05885897 -0.0015642367
0.01632826 -0.078740865 0.017826037 -0.041700773 -0.013096691 -0.002393291 -0.035375264 -0.038797833
0.010417473 0.03494203 -0.041059513 0.023944018 0.03455647 0.036941193 0.05559065 0.07544994

layer2.1.weight f4 [32]
00000000: b948 803f ab3c 7f3f 55b0 7e3f b79b 7e3f
00000010: 94ec 803f 75ce 7e3f 8532 7f3f 55de 803f
00000020: c3bc 803f 5e0f 813f aee6 7e3f b0b8 803f
00000030: e462 803f d000 813f d47c 7e3f 6371 7e3f
00000040: 3b2c 813f 824c 7e3f 692e 803f 0790 7f3f
00000050: 8848 803f 8d58 813f 0981 7f3f 15d0 7f3f
00000060: bbee 7e3f 7425 803f 95f3 7e3f c101 803f
00000070: e42f 7f3f 26b7 803f c9ff 7f3f bcfa 7d3f
1.0022193 0.99701947 0.9948781 0.9945635 1.0072198 0.9953378 0.9968646 1.006785
1.0057606 1.0082815 0.9957074 1.0056362 1.0030179 1.0078373 0.9940922 0.99391764
1.0091623 0.9933549 1.0014163 0.99829143 1.0022135 1.0105149 0.9980627 0.99926883
0.99583024 1.001143 0.99590427 1.0000535 0.9968245 1.0055892 0.9999967 0.99210715

layer2.1.bias f4 [32]
00000000: 1a1d f03b 695e bfba 90ba 98bb f251 b1bb
00000010: da8e 003c 99cb 85bb c6d9 7bbb 28c2 fb3b
00000020: 983b f43b 4c47 cc3b a59c 9cbb 53cc ee3a
00000030: a137 c038 7a41 033c dd90 babb bbfe bdbb
00000040: f853 133c d509 bcbb 12a7 6e3b 1fd5 09bb
00000050: 5f4d d53b b5cb e23b e632 3fbb 87da 0abb
00000060: c5c2 62bb e2d8 64bb ade0 96bb 49b4 9b3b
00000070: bad6 84bb 2b2c e93b e447 ca3b 3ff3 c8bb
0.007327688 -0.001460028 -0.004660912 -0.00541138 0.0078465585 -0.0040831086 -0.0038429364 0.0076830573
0.007453393 0.006234085 -0.0047794157 0.0018218852 9.165635e-05 0.008011216 -0.0056935386 -0.0057981885
0.008992188 -0.0057384768 0.00364155 -0.002103157 0.0065094675 0.0069212564 -0.0029174625 -0.0021187381
-0.0034600955 -0.0034919311 -0.00460442 0.0047517163 -0.0040539177 0.007115861 0.006173121 -0.006132513

layer2.1.running_mean f4 [32]
00000000: 44b8 12be aeac 63bd a4e3 e83d 2da8 8bbd
00000010: 5d14 dbbe 2ddb 933f df93 35bf 8bd3 cbbe
00000020: eeab 393c bb46 2ebf 5802 cbbe 5278 3d3d
00000030: bc3f 0dbe 0b1b 92bd c215 1fbf 3237 acbc
00000040: 9bcf 18be bf67 19bf e357 d3be 88e7 9c3f
00000050: 34a2 093f a174 f4be c58a a8be 9c2a ab3e
00000060: bc63 5fbf b73b a3be e582 2bbf a2f6 083f
00000070: a080 aabd 8374 1ebe fdec 013f 7704 1cbf
-0.14328104 -0.055584602 0.11371544 -0.06819186 -0.42788973 1.1551262 -0.7092876 -0.39809832
0.011332495 -0.68076676 -0.39650226 0.046257325 -0.13793844 -0.07134064 -0.62142575 -0.021022413
-0.14922945 -0.5992393 -0.4127799 1.2258158 0.5376313 -0.4774523 -0.32918373 0.33430946
-0.8726156 -0.31881496 -0.66996604 0.5350133 -0.083253145 -0.15474133 0.5075224 -0.6094431

layer2.1.running_var f4 [32]
00000000: 7bfa bf3e b496 963e b7d1 5c3e 15de f73e
00000010: 3867 f33e f90c 1a3f e0d7 be3e 0b71 fa3e
00000020: 09bd 7a3e b1fc 023f c7fe 763e aafd 863e
00000030: d95c 9d3e 2b4f 6c3e 0791 033f 8e7d a53e
00000040: 5ce9 8a3e c57c 193f 9357 103f 3594 983f
00000050: aed4 203f de90 a43e 3900 f83e 093c ca3e
00000060: f153 463f ab07 d73e 1800 c43e 1957 b53e
00000070: 3a87 bc3e 8eb5 a53e 55d1 ad3e 59f9 d73e
0.3749579 0.29411852 0.21564375 0.48411623 0.47539687 0.60176045 0.37274075 0.4891437
0.24486174 0.51166826 0.24120627 0.26365405 0.307349 0.23077075 0.5139317 0.32322353
0.27131164 0.5995601 0.5638363 1.1920229 0.62824523 0.32141775 0.4843767 0.39498928
0.77471834 0.41998038 0.38281322 0.35418013 0.3682192 0.32365078 0.3394877 0.42182425

layer2.3.c1.weight f4 [32, 32, 3, 3]
00000000: 6987 fe3c 1460 4e3d 28a2 513d a5cd 1e3d
00000010: cd68 2e3d c5b6 5cbd 5fee aebc 0348 c83b
00000020: d71e bfbc 2161 99bb 8ac3 083d c136 00bc
00000030: c375 0f3d 48b9 35bd d3b5 a63b af08 64bd
00000040: 4f2d 56bd 872e ccbb fedc 893c 49fb e7bc
00000050: 97f1 1b3d e322 5d3d 92a0 46bd 16ed 42bb
00000060: 1a1a 37bc 7d85 5e3b 797c b33c 3e6e f13c
00000070: 9b03 823c 37ee 6dbd 07af cdbb 69dd 19bd
00000080: a2fe 45bc f868 8fbc 5c16 e0bc 4ddc 383d
00000090: c09a 6abd c931 71bd 7e7d d03c fe1d bfbc
000000a0: 3d36 25bd 6b1b 763c 0508 65bc 061a 05bd
000000b0: 8d1f eebc dee0 a6bc 6fff 543d 75ec 10bd
000000c0: e574 f43c f611 32bd 91c1 5d3c 993a 36bc
000000d0: 799b 523d 93f8 1d3d dc28 2f3d f320 37bd
000000e0: a84e c93c 1c74 77bd 0948 483c 0dc6 263d
000000f0: f045 703c c996 b0bc 087b 09bc 9ad8 53bd
00000100: 3ee9 3abd 20aa 733d 7898 c8bc 81aa 323d
00000110: 4ea0 47bd cc04 023d ea4a 44bd bf00 cc3c
00000120: 2d44 e9bc 1e8e 54bd 6577 17bb ced5 17bd
00000130: 7708 81bc 0bf7 3ebd 1701 f6bc 9dda 62bd
00000140: 1478 4e3d ca67 44bd 693c 153d 527c b03c
00000150: 4ee2 8bbc b102 2bbd d385 1fbc 5102 0d3c
00000160: aaf7 363d cb4a 9ebb 2e68 48bd dbfb 5e3d
00000170: 0494 773c 9c09 383d fef6 483d d7fb 54bd
00000180: 0cf0 1fbd 4e4d 28bb a0dd b73c e2b0 4bbd
00000190: 851b 193d 6aef d6bc d9b7 37bb c85e 1abd
000001a0: 56ef e7bc feb9 1fbd 0940 283c f968 20bd
000001b0: 6068 16bd 7643 053d 7a5e 46bc 630d 4d3d
000001c0: 5d03 b3bc df53 8ebc 4df1 073a 330b 5f3c
000001d0: 094b 5abd 49c1 63bd 6f61 adbc 033d 933b
000001e0: f881 e1bb 4a4d 353d 2cd3 27bd 709e a7bb
000001f0: 7e64 4b3c 5d23 7dbb 6572 453d 8a9c 443d
00000200: b024 04bd 38e2 77bd 5488 3c3c ab49 423d
00000210: 60f0 003d 76ec dc3c f9e5 443d 5c43 29bb
00000220: 8885 10bc 5b02 30bd be11 adbc 6834 4fbd
00000230: 3242 0e3c c4db debc 9c15 2a3d ddb7 833b
00000240: 7c2c db3b fef8 53bd 0933 1bbd ef0c 913c
00000250: aeaa a33c cc89 213d d14b f8bb ba3f 1f3d
00000260: e84b 10bd 345e 6abd 6e76 c3bb e5e3 8bbc
00000270: a016 e23c 61bd 9bbc f098 413d 4d07 853c
00000280: e7bf 1cbd 9a22 093d d4ae 7d3d 1d74 0d3b
00000290: b832 0fbd 3283 89bc 6386 f53b 9bbe d8bc
000002a0: 346f 3abb f3fe babc 7348 303c 8a81 1c3b
000002b0: 9481 783c fdff 7c3c 7a20 9f3b 3939 bfbc
000002c0: 9302 04bd ab3f 93ba 01b2 71bd fdcb 50bc
000002d0: 0daf dfbc 8515 6ebd ac24 653c 0950 7ebd
000002e0: 4283 103d 328f 98bc 3719 26bd 8f60 a8bc
000002f0: 9706 8a3b 7063 04bd e319 0ebc 86f7 39bd
00000300: cf70 7dbb 625d 59bc fdf3 73bc 3aa8 44bd
00000310: e588 01bd adbb da3b 3f28 0d3d 75b5 3d3c
00000320: f056 c43c dd6f 353b 664d 37bd f251 f8b9
00000330: c799 1bbd b691 c8bc a60c 8fbc c8ca 733c
00000340: 8098 82bd 6f59 82bc 7159 76bd 972b 61bd
00000350: 4f92 69bb 8836 c7bc 7b97 113d 9314 5c3d
00000360: 3b82 873c aa92 c8bc 539d d53c 9eb2 67bd
00000370: 653c a03c 85e1 46bd 24c7 203d 4bdd 14bd
00000380: d946 1bbd 92b2 79bd ed62 7fbd 14f7 723b
00000390: 4f32 96bc 3039 06bb aa32 e5bb df71 223d
000003a0: 8671 57bd 7365 163c 2319 4a3d 3a5f b73c
000003b0: c324 783c 8f9d 34bc 3da8 463d bb8f c0bc
000003c0: f7ac e6bb 4d3d 173c 9e3c 6d3c 7a08 a9bc
000003d0: 2096 983c 0ed3 4b3d 1af0 503d e1cc 953c
000003e0: bd33 6a3c 76e1 af3c 007d 8fbc 8232 333d
000003f0: 0dce a7bc 220c 113d 8190 63bd 91c9 18bd
0.031070428 0.050384596 0.051180035 0.038770337 0.042580415 -0.05388524 -0.021353899 0.0061121
-0.023330135 -0.004680768 0.033389606 -0.007825554 0.035024416 -0.04436615 0.005087593 -0.055672344
-0.052289303 -0.0062311324 0.01682901 -0.028318064 0.038072195 0.05398835 -0.048492976 -0.0029743365
-0.011175657 0.0033954077 0.02190994 0.029471513 0.01587086 -0.058088508 -0.0062769684 -0.03756467
-0.012084635 -0.017506108 -0.027354412 0.04513197 -0.057276487 -0.05888537 0.025450464 -0.023329731
-0.04033493 0.015021185 -0.013978963 -0.03249552 -0.029067779 -0.020370897 0.052001413 -0.035381753
0.029840896 -0.04347416 0.013534919 -0.011122369 0.0514178 0.038567137 0.042763576 -0.044709157
0.024573639 -0.060413465 0.012224206 0.04071622 0.014665112 -0.021556275 -0.008391149 -0.05172024
-0.045632593 0.059488416 -0.024486765 0.043619636 -0.048736863 0.031742856 -0.047923006 0.0249027
-0.028474892 -0.051893346 -0.0023111936 -0.037069134 -0.015751107 -0.046622317 -0.030029817 -0.055384267
0.050407484 -0.047950543 0.036434565 0.021543656 -0.017075684 -0.041750614 -0.009736496 0.008606509
0.044669785 -0.0048306934 -0.04892748 0.054439407 0.015110973 0.04493104 0.049063675 -0.051997986
-0.039047286 -0.0025680843 0.022444546 -0.049729235 0.03737976 -0.026237208 -0.0028033166 -0.037688047
-0.028312366 -0.038995735 0.010269173 -0.03916261 -0.036720634 0.03253504 -0.012107486 0.050061595
-0.02185219 -0.017373977 0.0005185798 0.01361351 -0.053294215 -0.055604253 -0.021164624 0.004493357
-0.0068819486 0.04426316 -0.040972874 -0.005115323 0.012414096 -0.0038625814 0.0482048 0.04800085
-0.03226155 -0.060518473 0.0115071125 0.047433536 0.03147924 0.026968222 0.04807088 -0.0025827503
-0.008820899 -0.042970996 -0.021126624 -0.050587088 0.008682774 -0.027204402 0.041524515 0.004019721
0.0066886526 -0.05175113 -0.037890468 0.017706363 0.019978847 0.039438054 -0.0075773974 0.038879134
-0.03522864 -0.057218745 -0.0059650457 -0.017076442 0.027598679 -0.019011201 0.047264993 0.016238833
-0.03826895 0.033480264 0.061934307 0.0021584101 -0.03496048 -0.016786192 0.007492827 -0.026458075
-0.002844763 -0.022826647 0.010759461 0.0023880922 0.015167613 0.015441892 0.0048561664 -0.023342716
-0.032229017 -0.0011234184 -0.05900765 -0.012743947 -0.02730515 -0.05812599 0.013985794 -0.062088046
0.035281427 -0.018622968 -0.04055139 -0.020553855 0.0042122114 -0.032321393 -0.008673164 -0.045402072
-0.0038671975 -0.013266893 -0.014889714 -0.048011996 -0.031624693 0.0066752047 0.03446221 0.011578907
0.023967236 0.0027685084 -0.044751547 -0.000473633 -0.03798845 -0.024483543 -0.017462086 0.01487989
-0.06376743 -0.015911786 -0.06014389 -0.05497321 -0.0035640185 -0.024317995 0.035544854 0.05373056
0.01654159 -0.024483997 0.026075995 -0.056566827 0.019560048 -0.048554916 0.039252415 -0.036343854
-0.037909362 -0.060961314 -0.062350202 0.003707354 -0.018334536 -0.0020480864 -0.006994565 0.039659377
-0.0525985 0.009179461 0.04934038 0.022384275 0.015145483 -0.011023893 0.04850029 -0.023506036
-0.007039662 0.009230924 0.014479784 -0.020633925 0.018626273 0.049761824 0.05101023 0.01828617
0.014294562 0.021469813 -0.01751566 0.04374934 -0.020483995 0.03541196 -0.05555773 -0.037301604

layer2.3.c1.bias f4 [32]
00000000: 0123 25bd 1ef9 2d3c f271 423d e2d1 5e3d
00000010: 989a 37bd 45ec db3b 75b7 10bd f571 713d
00000020: 1662 cfbc 58cf f63c 6d9c 163d b66f 50bd
00000030: 337d 9ebc e3ca 11bd b2ce 4c3d 9b8a 653b
00000040: 356b 763c 96f6 58bd e950 03bd 3f78 343c
00000050: 550a 543a 0561 ad3c 554d 3bbd d2f9 6ebd
00000060: 0867 093d 28a2 593d 861f 6ebd df2c 53bd
00000070: 2716 d63c 3ac6 3a3c 1773 27bd c4e1 6a3d
-0.040316585 0.010618476 0.047471948 0.05439938 -0.044825166 0.006711515 -0.03533121 0.05894657
-0.025315326 0.030128166 0.036770273 -0.050887786 -0.019346809 -0.03559388 0.050001808 0.0035025242
0.015040209 -0.052969538 -0.032059584 0.011014997 0.0008088698 0.021164427 -0.045728046 -0.058343716
0.033545524 0.05313316 -0.05813553 -0.051556464 0.02613361 0.0113998 -0.040881243 0.057344213

layer2.3.b1.weight f4 [32]
00000000: 1d0b 803f c156 803f e42d 7e3f 89c7 7e3f
00000010: 647e 803f bb3d 7e3f 7eb4 7d3f 59df 7e3f
00000020: 48a8 7e3f e262 7e3f 5993 803f b610 813f
00000030: 2028 813f a3d3 7f3f c16f 803f b061 7d3f
00000040: 5810 7e3f f8ee 7d3f d708 813f 7107 7f3f
00000050: 71d8 803f c42f 7e3f eb65 803f 780e 813f
00000060: 1059 7e3f 7e88 803f f468 7e3f 9205 7f3f
00000070: 6ad7 7d3f 7115 7f3f b4ac 7f3f a454 813f
1.0003392 1.0026475 0.99288774 0.99523216 1.0038571 0.99312943 0.99103534 0.9955955
0.99475527 0.99369633 1.0044967 1.0083225 1.009037 0.99932307 1.0034105 0.98977184
0.9924369 0.9919276 1.0080823 0.9962073 1.0066053 0.99291635 1.0031103 1.008254
0.9935465 1.0041654 0.99378896 0.99617875 0.9915682 0.9964209 0.998729 1.0103955

layer2.3.b1.bias f4 [32]
00000000: e0aa d23b d684 a53b 1593 e8ba e653 93bb
00000010: d99e c93b 1afc d1bb be3e f7bb f069 9bbb
00000020: 262a 20bb 79f1 f8bb a128 e33b 4aaa f73b
00000030: aee0 fb3a 0341 a83a 05d9 043c 899d 0abc
00000040: 10e4 55bb c2e0 a4bb d8c8 483c b212 e4bb
00000050: 699f c23b 2db7 08bc 38d8 6d3b ea1f 2b3c
00000060: 5ea4 00b9 6be5 8c3b 3852 f5bb aac5 ce3b
00000070: bba0 35bc 229a 423b 52ef 62bb 1ad5 243c
0.0064290613 0.0050512357 -0.0017744029 -0.0044960855 0.0061529693 -0.0064082267 -0.0075453212 -0.0047428533
-0.0024439185 -0.007597145 0.0069323336 0.007558142 0.001921674 0.0012836758 0.008108382 -0.008460411
-0.0032637157 -0.005031676 0.012254916 -0.0069602365 0.0059394133 -0.008344454 0.0036292206 0.010444621
-0.00012268263 0.0042998097 -0.007486608 0.0063101845 -0.011085684 0.002969392 -0.003462751 0.010060573

layer2.3.b1.running_mean f4 [32]
00000000: 5994 e8be b967 be3e 0155 9e3d feb5 8837
00000010: 2bdf 1e3e 932a 45bd b3c4 8bbd 4b9f d83d
00000020: 53bb 03bd cf89 bf3c 6045 b03e 3adf e63d
00000030: 5b84 b63c fd54 e33d bcb9 87be 0270 9d3d
00000040: 2178 02be 36db a0bd 22e0 a93e 2563 b9bd
00000050: 7fae 843d 1b6d a8bd 9c03 40bd 06da 683e
00000060: 657f e3bd 5b82 4f3e ed8b 94be ab93 c63e
00000070: ce3c 263e e487 76be 2521 3f3e e0fb 613e
-0.4542568 0.3718851 0.07731057 1.629721e-05 0.1551482 -0.048136305 -0.06824627 0.10577258
-0.03216107 0.023381142 0.3442793 0.11273046 0.022279909 0.111001946 -0.26508892 0.076873794
-0.12741138 -0.07854311 0.33178812 -0.090521134 0.06478595 -0.08223935 -0.046878442 0.2273942
-0.11108283 0.2026457 -0.29013005 0.38784537 0.16234133 -0.24075276 0.18664987 0.22068739

layer2.3.b1.running_var f4 [32]
00000000: 2bca d63d b759 253e effd ac3d 9bbc 133e
00000010: ef67 513e 9248 c63d 726f bc3d cc2d d03d
00000020: 3db3 043e da32 b83d 7cea d93d c229 ad3d
00000030: 8b27 d23d 5ae6 4a3e b5ba f73d eec9 e83d
00000040: 8ade ae3d 728b a93d 3b8b c53d 8d12 033e
00000050: dacb e43d d8f3 043e 1491 df3d 743d 2d3e
00000060: 59ed 1f3e a83c ca3d 098d d73d 11cf 353e
00000070: fe21 023e c8dd 8b3e 48f0 d03d 24a2 dc3d
0.10487779 0.16147505 0.084468715 0.14427416 0.20449804 0.096818104 0.09200944 0.10164985
0.12958999 0.08994074 0.106404275 0.0845523 0.102614485 0.19814435 0.120961584 0.1136664
0.0853854 0.0827855 0.09645697 0.12800045 0.11171694 0.12983644 0.10916343 0.16917974
0.15617885 0.098748505 0.10524947 0.17754771 0.1270828 0.27317643 0.1020208 0.10773113

layer2.3.c2.weight f4 [32, 32, 3, 3]
00000000: 3606 c8bc 8efc 3a3d f6b0 233d 3151 60bc
00000010: b1c2 433c fa84 d2bc 92ae 043d 921f 5e3c
00000020: b6d4 2c3d 8af1 2e3d ad25 6bbc 1a61 323d
00000030: e53c 98bc 3ddd 92bc 1049 e03c 6992 e93c
00000040: 96bc 043d 2486 39bd dc0a 453b 3694 2b3d
00000050: 5d04 113c 6907 47bd 1539 443c 370d e9bc
00000060: 6104 b3bb be78 98bc d483 67bd b1a6 0dbb
00000070: 660b 5cbd b02d a7bc 6d63 103d 48c3 5fbd
00000080: cfb1 d7bc 3015 633c 49f5 41bd 465e a5bc
00000090: 9108 ff3b eea9 4b3d d866 21bd c5c1 c5bb
000000a0: 4b8d 25bd 32cb 41bd 500b c83c 5711 723c
000000b0: e210 f23c 689c acbc a972 5abc 84bf a13b
000000c0: dbdc 4cbc 2a4e 6a3d 3ecb 24bb 889f 16bd
000000d0: cdce 223d 6e6a bbbb 8c7b 0a3d ff42 493d
000000e0: e8d3 2abd b53a 0abd 40d3 d8b9 5e15 73ba
000000f0: ee52 8a3c 09cb 403c 8dff 11bd e1e2 c5bc
00000100: 8519 423d e9ba 343c 5575 3abc 7dea 5bbb
00000110: f7cd 203d 009b 6abd 8d1f 4a3d 8be7 16bd
00000120: 038d 86bd 51d6 263d 0e74 8d3c 5f3d 913b
00000130: da43 c7bc c8c2 24bd d6e1 3abd c0f4 0c3d
00000140: 1da1 adbb 875c f5bb c6d9 80bd f790 383d
00000150: 85e0 a536 28d3 28bd dd75 213d 2474 ad3c
00000160: df08 fbbc e0a3 263d b50a b8bc dd63 183d
00000170: 5732 e53c b462 2cbd a881 0e3d 56ec c23c
00000180: 22b8 5abd ac7b 013d 5d72 60bc f8bf 1b3d
00000190: ad3e 01bc c669 fd3c 83f3 0ebd f2c0 9abb
000001a0: f6e8 d73c 1b2e 1dbd 3654 67bd a929 2e3c
000001b0: c3e0 80bd 30e9 b8bc 2a91 1bbd c5d6 6bbc
000001c0: 6520 13bd a882 933c 7163 49bc eae3 e03c
000001d0: 6b7a 723b e248 53bd da5c 573c 6d50 3c3d
000001e0: 7ab4 2bbd c752 93bb c53a eb3b 5bf2 70bd
000001f0: 8f58 46bd 1668 f5bc be8f 10bd 8153 273c
00000200: c238 4ebd 0a27 1bbd 58f6 9d3b b5e1 35bd
00000210: 5f72 07bb 479e 03bd 0c00 05bd 9403 7ebd
00000220: f081 543d 30fe a43c 0d9d 6bbd de32 e23c
00000230: 2c68 493c 8897 1abd 0cbc 53bd 390e 263d
00000240: c13a 39bc b0a0 4f3d 3f3d 193d 3570 3a3d
00000250: 4ac8 613d daee 3ebd 4168 69bd 6726 733d
00000260: 029b 55bc ae59 4a3d e422 f43c 2494 86bc
00000270: 966c cc3b 280d 14ba 148f 1ebc 5e9f 65bd
00000280: 9b54 b4bc 8d4e 833c b699 81bd 1b56 0dbc
00000290: d9f1 163c d6d8 1e3d 4a15 76bd 3f52 79bd
000002a0: 85c8 53bd 5d7b cd3b e0fa 75bd ab81 e5bb
000002b0: 39da d93c 39ee 00bd 6469 aebc a86a d0ba
000002c0: 6161 383d cc12 a83c 0b52 43bd 61bd 32bd
000002d0: 8142 ceba 1cb2 1c3d 69dc 1fbd 01f3 d93c
000002e0: 02a7 2ebc 83a8 76bd cd70 9dba f4cf 10bc
000002f0: f887 3e3d f468 0a3d 0a5b 3dbb dfa4 37bb
00000300: 4dab 133d 6fa9 ae3c 2411 4ebd 16a2 d0bb
00000310: 1603 523b aabf c9bc 513e a43a 2aef d83c
00000320: 8330 82bd b96e 4cbd 735d 323d 27cd 62bc
00000330: ca9a 12bd 7636 ff3c 9f35 6cbb 1b9a 463d
00000340: a2e6 dc3c 1486 9cbc f2c8 d73c eaa2 a23c
00000350: cc16 e4bc d559 91bb d692 0dbc ad54 b53c
00000360: 5c6e a1bc 589a 3e3d 6ec2 b83c d058 503d
00000370: d1aa 783d 7618 113d 574b 523d d8c1 03bc
00000380: c92d 003c a517 3f3c 334b 893c af43 34bc
00000390: a0fe 13bc 094c 4abd ec23 003d 432b 123b
000003a0: 0760 b5bc 0ea6 3d3d 6708 7e3d 971c bdbc
000003b0: 947c 5a3d 3e12 6bbd d413 633d b9a3 be3c
000003c0: 978d bcba 08e7 4b3d e234 323c c4a5 54b9
000003d0: ee66 373d 4141 05bd a7cd 59bd 2dc1 bb3c
000003e0: eaad 4dbd bf11 30bd aff9 04bc 7805 90bb
000003f0: 0373 ecbc ba35 803c e50a 063d 2ebc 62bd
-0.024417024 0.04565101 0.039963685 -0.013691233 0.0119482735 -0.025698174 0.032393046 0.013557332
0.042195044 0.04271082 -0.014352244 0.043549635 -0.018583724 -0.01792776 0.027378589 0.028512197
0.032406412 -0.045293942 0.0030066287 0.04188939 0.008851138 -0.04859105 0.0119765 -0.028448684
-0.0054631685 -0.018612262 -0.056522205 -0.0021614248 -0.053721808 -0.020407528 0.03525107 -0.054629594
-0.026329903 0.013860032 -0.047353063 -0.020186555 0.0077830036 0.049722604 -0.03940472 -0.006035062
-0.04041795 -0.047312923 0.024419457 0.014774642 0.029549066 -0.021070674 -0.013333001 0.0049361605
-0.012503828 0.05720345 -0.0025145556 -0.036773235 0.039748 -0.0057194745 0.03380923 0.049136158
-0.041705996 -0.033747394 -0.00041356124 -0.00092728983 0.016885247 0.011767157 -0.035644103 -0.024156036
0.04738762 0.011030891 -0.011380513 -0.0033556514 0.039258923 -0.057276726 0.049346495 -0.03684191
-0.065698646 0.04073173 0.017267253 0.004432365 -0.024324346 -0.04022482 -0.04562553 0.0344131
-0.005298747 -0.0074878368 -0.06291537 0.045060124 4.9435207e-06 -0.041217 0.039419044 0.021173544
-0.030643879 0.040683627 -0.022466043 0.037204612 0.027978105 -0.042086318 0.03479162 0.023794334
-0.05339826 0.031612083 -0.013699141 0.038024873 -0.007888478 0.030934226 -0.0349002 -0.004722708
0.026356202 -0.038374048 -0.056476794 0.01063005 -0.0629287 -0.02257213 -0.037980236 -0.014394467
-0.035919566 0.018006638 -0.012291775 0.027452428 0.0036999236 -0.05158318 0.013144696 0.045975138
-0.041920163 -0.004495952 0.0071786367 -0.05882488 -0.0484243 -0.029956859 -0.035293333 0.01021278
-0.050347097 -0.037879027 0.004820626 -0.044404704 -0.0020667536 -0.032133367 -0.032470748 -0.06201513
0.05188173 0.020140737 -0.057522822 0.027612146 0.012292903 -0.037742168 -0.051693007 0.040540908
-0.011305512 0.050690353 0.037411924 0.045517165 0.05512265 -0.046614505 -0.05698419 0.059362795
-0.013037445 0.04940193 0.029801793 -0.01642806 0.0062385304 -0.00056477124 -0.009677667 -0.056060188
-0.022013 0.016028667 -0.06328146 -0.008626486 0.009212934 0.03878101 -0.060078897 -0.06086945
-0.051704902 0.0062708096 -0.060053706 -0.007003983 0.026593314 -0.031477187 -0.021290489 -0.0015900927
0.045014743 0.020516776 -0.047685664 -0.043637637 -0.0015736372 0.038255796 -0.03902856 0.026605131
-0.010659935 -0.0602193 -0.0012011767 -0.008838642 0.04651639 0.033791497 -0.0028893375 -0.0028021855
0.036052037 0.021321027 -0.050309315 -0.0063669784 0.0032045296 -0.024627525 0.0012530779 0.02648123
-0.06356909 -0.04991028 0.04354615 -0.013842857 -0.03579215 0.031153899 -0.0036042703 0.04848681
0.026965443 -0.019106902 0.026340935 0.019853074 -0.027842902 -0.0044357576 -0.008640965 0.022135103
-0.019705944 0.046533912 0.022553649 0.05086595 0.06070978 0.03542372 0.05134138 -0.008041821
0.007823416 0.011663352 0.01675949 -0.011002465 -0.009032875 -0.04938892 0.031284258 0.0022303618
-0.022140516 0.04630094 0.06201973 -0.023084922 0.053341463 -0.057390444 0.05543883 0.023271428
-0.0014385459 0.049780875 0.010876866 -0.00020279648 0.044775896 -0.032532934 -0.05317464 0.022919262
-0.050214685 -0.042985674 -0.00811617 -0.004395183 -0.028863436 0.015650619 0.032725234 -0.055355243

layer2.3.c2.bias f4 [32]
00000000: 53e1 41bc cb08 ae3c b462 4fbd e84d 19bb
00000010: d9db 213d 1fa1 573d 1a20 3fbd c515 6cbd
00000020: 2452 7f3c af33 ea3a fb2a 193d 86ba 4fbd
00000030: fc66 03bd d808 43bd 06a6 533b 02ff 5abc
00000040: fa96 a9bc f6db 29bd e877 21bb 556e 603d
00000050: ed7c 413c fc5e 953c 73d1 39bc 31a4 4f3d
00000060: 1eb8 23bb 376a 953c a9be febc c71f d83c
00000070: c051 06bc 27af 11bb 29ec 39bc f9a3 ea3c
-0.011833507 0.021244427 -0.05063124 -0.0023392383 0.039516304 0.05264389 -0.046661474 -0.05763795
0.015583549 0.0017868186 0.037394505 -0.050714992 -0.032080635 -0.047615856 0.0032295003 -0.013366463
-0.020701874 -0.041469537 -0.002463812 0.05479272 0.01180957 0.018233769 -0.0113414405 0.050693695
-0.0024981569 0.018239124 -0.031096773 0.02638234 -0.008198202 -0.0022229643 -0.011347809 0.028642641
