models/resNet_3.pth (torch, 128913 bytes, 37 tensors)

stem.0.weight f4 [16, 1, 3, 3]
0	0x3cbacb83	0.02280212
1	0xbe828687	-0.2549326
2	0x3e57f725	0.21090372
3	0x3dc7d790	0.09757912
4	0xbe97474a	-0.29546577
5	0xbeaf928c	-0.34291494
6	0xbe1a3cd9	-0.15062274
7	0x3bc801a7	0.0061037126
8	0x3d78a1ee	0.060701303
9	0xbe8fbf64	-0.28075707
10	0x3e2ddf73	0.1697977
11	0xbeac0b27	-0.3360226
12	0xbe41fede	-0.1894488
13	0x3d08dd66	0.033414267
14	0xbe2b005c	-0.16699356
15	0x3e9937ee	0.29925483
16	0xbdda3091	-0.106537946
17	0x3da67906	0.08128552
18	0x3e915171	0.28382447
19	0xbe5c623e	-0.21521851
20	0xbe916ca6	-0.28403205
21	0xbd4d1eb0	-0.050078094
22	0xbdfdaac3	-0.12386086
23	0x3df1e9c4	0.118121654
24	0x3dae37a3	0.085067056
25	0xbe5555bc	-0.20833486
26	0xbe97eed2	-0.29674393
27	0xbd670425	-0.056400437
28	0xbe7dd9bd	-0.24790092
29	0xbdc7bcaf	-0.097527854
30	0x3e792d13	0.243336
31	0x3e07801f	0.13232468
32	0x3eb1f371	0.34756044
33	0x3e59036b	0.2119271
34	0x3ea5b508	0.32364678
35	0x3e9c46b4	0.30522692
36	0x3c748aa7	0.014925635
37	0xbd38d129	-0.045121346
38	0x3ce64b8e	0.0281122
39	0x3e349440	0.17634678
40	0x3dd359b8	0.10319847
41	0x3ea81bb0	0.32833624
42	0xbea56421	-0.32302955
43	0x3ea8f687	0.33000585
44	0xbe89a803	-0.26885995
45	0xbda37a6c	-0.079823345
46	0x3ea19e97	0.31566307
47	0x3df000e3	0.11718919
48	0xbd86da76	-0.06584637
49	0x3e92f93e	0.28705782
50	0xbe57947a	-0.21052733
51	0xbe3362d3	-0.17518167
52	0xbde56fed	-0.11202989
53	0x3dfb39fb	0.12266918
54	0xbea09736	-0.31365365
55	0xbe1f3de0	-0.15550947
56	0xbe58ea41	-0.21183111
57	0x3dc5841b	0.09644338
58	0xbcb5b5e6	-0.022181462
59	0x3e0c2339	0.13685311
60	0xbe7186c2	-0.23586562
61	0xbe40f369	-0.18842854
62	0xbde2dbb7	-0.110770635
63	0xbe55bbbf	-0.208724
64	0xbe007181	-0.12543298
65	0x3ce65d04	0.028120525
66	0xbe9657a7	-0.29363748
67	0x3e8776a6	0.2645771
68	0x3e4baf14	0.19891006
69	0xbe78cf4f	-0.24297832
70	0x3e48fba9	0.1962725
71	0x3d5058ad	0.050865818
72	0xbe406ea9	-0.18792213
73	0xbe3d0739	-0.18459786
74	0xbea0c329	-0.31398895
75	0x3e9b6501	0.30350497
76	0xbd4bd3c9	-0.04976252
77	0x3e007023	0.12542777
78	0x3d6e80c7	0.05822828
79	0xbe00044c	-0.12501639
80	0xbe3f0712	-0.18655041
81	0xbdb2e087	-0.087342314
82	0xbe05c575	-0.13063605
83	0x3dd405d9	0.10352678
84	0x3e0e6be1	0.1390834
85	0x3de6f6c3	0.11277535
86	0x3e9768fb	0.2957228
87	0x3e11e0ce	0.14245912
88	0xbddace11	-0.10683835
89	0xbe68c4ad	-0.22731276
90	0xbe2e9708	-0.17049801
91	0xbe8c14aa	-0.27359515
92	0xbe8e6939	-0.27814654
93	0x3d66c7c5	0.05634286
94	0x3e82a89a	0.25519258
95	0x3e3af2c7	0.18256675
96	0xbe7ec317	-0.24879108
97	0xbe9334f7	-0.28751346
98	0xbe2355a0	-0.15950632
99	0xbd80ac5c	-0.06282875
100	0x3e29a967	0.16568528
101	0xbe0065cc	-0.12538832
102	0x3e49b9b3	0.19699745
103	0x3e90d0c2	0.2828427
104	0xbe000aa0	-0.12504053
105	0xbd726e47	-0.0591872
106	0x3e92c0a6	0.28662604
107	0x3e936b1d	0.28792658
108	0xbd729d67	-0.05923214
109	0x3e37fe1b	0.17968027
110	0xbdac1017	-0.084015064
111	0xbd6e4a27	-0.058176186
112	0x3d557f02	0.052123077
113	0xbd14e217	-0.03634843
114	0xbe73c070	-0.23803878
115	0xbe3105c8	-0.17287362
116	0xb986bcf7	-0.00025699261
117	0x3e9fa79d	0.31182566
118	0x3ddd48cc	0.108049005
119	0x3e2fadcd	0.17156143
120	0x3d401ef5	0.046904523
121	0xbe983b40	-0.29732704
122	0x3e1fc58c	0.15602702
123	0x3e1af861	0.15133812
124	0xbe196cf6	-0.14982972
125	0xbd713bff	-0.058895107
126	0x3e8ed1d4	0.2789446
127	0x3e0d8136	0.13818821
128	0xbe87fd45	-0.26560417
129	0xbc068c77	-0.0082122
130	0x3e20adb2	0.1569126
131	0x3d444a16	0.047922216
132	0xbde25e0d	-0.11053095
133	0x3e2a3b03	0.16624074
134	0xbe0c8ecb	-0.13726346
135	0xbcf8672b	-0.030322632
136	0xbe93e973	-0.28889045
137	0xbdc76dfb	-0.09737774
138	0x3e1e6adf	0.15470456
139	0xbe16d566	-0.14729843
140	0xbe2a5728	-0.1663481
141	0x3d2475ba	0.040151335
142	0xbe3a6356	-0.18201956
143	0x3d9dc47d	0.07703493

stem.0.bias f4 [16]
0	0x3e66e058	0.22546518
1	0xbe13a9c1	-0.14420225
2	0x3ea5d723	0.323907
3	0x3d7a6714	0.06113346
4	0xbd90406f	-0.0704354
5	0xbd8bf61a	-0.068340495
6	0x3ea50195	0.3222777
7	0x3e79e62c	0.2440421
8	0x3e061ffd	0.1309814
9	0xbe83fb1c	-0.2577752
10	0x3e6f1611	0.23348261
11	0xbc9431b6	-0.01809011
12	0x3d87af0b	0.06625184
13	0x3e4fc9c6	0.20291814
14	0xbe9d0416	-0.3066718
15	0xbea00f84	-0.31261837

stem.1.weight f4 [16]
0	0x3f7e54cc	0.9934814
1	0x3f7ff89b	0.99988717
2	0x3f7e52d5	0.9934514
3	0x3f8121c4	1.008843
4	0x3f7a23c3	0.9771082
5	0x3f7b97b2	0.98278344
6	0x3f807413	1.0035423
7	0x3f7ec467	0.99518436
8	0x3f79ada5	0.97530586
9	0x3f7acb27	0.97966236
10	0x3f80eb28	1.0071764
11	0x3f814f2f	1.010229
12	0x3f795f16	0.97410715
13	0x3f7f85c6	0.998135
14	0x3f78dcf4	0.9721215
15	0x3f7ff24e	0.999791

stem.1.bias f4 [16]
0	0x3c2829c7	0.010263867
1	0xbb31e157	-0.002714237
2	0x3b597949	0.0033183864
3	0x3b1bc0c4	0.002376602
4	0xbc43675d	-0.011926499
5	0x3c37b8cf	0.011213495
6	0x3c83d3b1	0.016092153
7	0xb9bab0d9	-0.00035608446
8	0xbb2bb59e	-0.0026200782
9	0x3bfa5c80	0.0076404214
10	0x3c615b68	0.013754703
11	0x3b843224	0.0040342975
12	0xbc80d5d1	-0.015726956
13	0xbb1c98e0	-0.0023894832
14	0x3b453c05	0.003009559
15	0x3bf5ddb3	0.0075032352

stem.1.running_mean f4 [16]
0	0x3e5f2dd0	0.2179482
1	0xbe1df9ca	-0.15427318
2	0x3ea3aeee	0.31969398
3	0x3d88117d	0.066439606
4	0xbd7fce7f	-0.06245279
5	0xbd82a16e	-0.063784465
6	0x3ea185ad	0.315473
7	0x3e780801	0.24221803
8	0x3e01935a	0.12653866
9	0xbe810de3	-0.25205907
10	0x3e6b1730	0.22958064
11	0xbc578fc9	-0.01315684
12	0x3d867736	0.065657064
13	0x3e56ab41	0.20963766
14	0xbe9aa62b	-0.302049
15	0xbea402ce	-0.3203339

stem.1.running_var f4 [16]
0	0x3e904530	0.28177786
1	0x3e8698ae	0.2628836
2	0x3e6df602	0.23238376
3	0x3f873de0	1.0565758
4	0x3e874c41	0.26425365
5	0x3e23daff	0.16001509
6	0x3eda64c4	0.42655003
7	0x3e3917fa	0.18075553
8	0x3ec08037	0.3759782
9	0x3e6deb67	0.2323433
10	0x3f21639f	0.63042635
11	0x3ebf6605	0.37382522
12	0x3e0ac446	0.13551435
13	0x3e823a40	0.25435066
14	0x3deb660c	0.11494073
15	0x3e4b4d60	0.19853735

layer1.c1.weight f4 [16, 16, 3, 3]
0	0x3bd1dbd2	0.0064043785
1	0x3d5dd435	0.054157455
2	0xbd8b79af	-0.06810319
3	0xbdb2b96d	-0.087267734
4	0x3da6f040	0.08151293
5	0xbb3659c9	-0.0027824512
6	0xbd1df0b3	-0.038559627
7	0xbc8d2451	-0.017229231
8	0x3d145012	0.036209174
9	0x3cec8110	0.028870136
10	0xbce3c323	-0.02780301
11	0x3d8238cd	0.0635849
12	0x3caa4f2b	0.020789703
13	0x3d3bf82e	0.04589098
14	0xbd9a79ca	-0.07542761
15	0x3da424fa	0.08014865
16	0x3cf68165	0.030090997
17	0xbd2c5f1a	-0.042082883
18	0x3dadc022	0.08483912
19	0xbd715de9	-0.05892745
20	0xbd286e46	-0.04112079
21	0x3db104be	0.086434826
22	0xbd75cc37	-0.060009208
23	0xbd7b9a9f	-0.061426755
24	0x3ca225ca	0.01979341
25	0x3c8284e7	0.015932513
26	0x3d3c79e2	0.046014674
27	0xbd33b801	-0.04387665
28	0xbd01c63c	-0.03168319
29	0xbd8974bf	-0.06711721
30	0xbcd6f1a0	-0.026238263
31	0x3d67c9f4	0.056589082
32	0x3da99d9a	0.08282013
33	0xbdaa1d21	-0.08306337
34	0xbc731184	-0.014835719
35	0xbda04c03	-0.07826998
36	0x3a35263d	0.00069103
37	0xbd220c0a	-0.039562263
38	0x3c6f0680	0.014588952
39	0xbcd0f4e2	-0.025507394
40	0x3d98476f	0.074355
41	0x3d239e1f	0.039945718
42	0x3c212234	0.009834815
43	0x3d1ff0bc	0.03904794
44	0x3d5a7953	0.05333836
45	0x3d279e31	0.040922347
46	0x3bf1194c	0.007357752
47	0xbd831511	-0.064005025
48	0xba931e5f	-0.0011224261
49	0x3d82ba20	0.06383157
50	0xbd47af76	-0.048751317
51	0x3ca381d2	0.019959364
52	0xbd83f52a	-0.06443246
53	0xbdaab60c	-0.08335504
54	0x3d919dc8	0.071101725
55	0x3daba232	0.08380546
56	0xbd2abcd2	-0.04168398
57	0xbd5efe47	-0.054441717
58	0x3d37768e	0.044790797
59	0xbdbb2014	-0.09136978
60	0xbccdeeec	-0.02513834
61	0xbd4e86d5	-0.050421555
62	0x3c4af07e	0.012386439
63	0x3d5d4731	0.05402297
64	0x3d656fb2	0.056014724
65	0x3c8eff53	0.017455732
66	0x3ca018f2	0.019543145
67	0xbd6f3f13	-0.05840976
68	0xbd3c399c	-0.045953378
69	0xbd959851	-0.07304443
70	0x3c5a2339	0.013314062
71	0x3ce5d375	0.028054932
72	0x3d737a23	0.05944265
73	0xbd8f08e9	-0.06984121
74	0xbd863ccd	-0.065545656
75	0x3d42a9c8	0.047525197
76	0xba3c4dbe	-0.00071832153
77	0x3ceac409	0.02865793
78	0xbbb013f3	-0.005373472
79	0x3d4f48df	0.050606605
80	0xbbd33495	-0.0064454773
81	0xbd53b251	-0.051683728
82	0xbd387833	-0.045036506
83	0xbdba8a9f	-0.09108471
84	0xbd4e00e4	-0.050293818
85	0xb998b672	-0.00029127632
86	0x3d557db4	0.052121833
87	0xbc6a6391	-0.014305965
88	0x3d87c61e	0.06629585
89	0xbd8df2a6	-0.06931047
90	0xbd0ffc9c	-0.035153016
91	0xbd9ac102	-0.075563446
92	0xbd5f6f63	-0.054549586
93	0x3d1faac2	0.038981207
94	0xbda3290f	-0.07966816
95	0xbcf06b60	-0.029348075
96	0x3d57d4af	0.052693065
97	0xbd3a8c9e	-0.04554426
98	0xbc39bbda	-0.011336291
99	0x3da1f085	0.079072036
100	0x3da7c181	0.08191205
101	0xbd169348	-0.036761552
102	0x3d4d2a44	0.050089136
103	0x3d20552c	0.039143726
104	0xbd1e828c	-0.038698718
105	0x3d82583b	0.06364485
106	0x3c1928b2	0.009348081
107	0x3cf104b0	0.02942118
108	0x3bb295a3	0.005449967
109	0xbc1a8376	-0.009430757
110	0x3da18ca5	0.07888154
111	0x3cd2cf1f	0.025733529
112	0xbc15593f	-0.009115516
113	0xbd8a658f	-0.06757652
114	0xbd124de5	-0.035718817
115	0x3b9cd756	0.004786412
116	0xbc35f1ad	-0.011104983
117	0x3d29573a	0.04134295
118	0xbc9834b7	-0.018579824
119	0x3b4462e9	0.0029966182
120	0xbacafa39	-0.0015485949
121	0x3cafaf60	0.02144593
122	0x3d53ce04	0.051710144
123	0x3d2daec8	0.042403013
124	0x3bb34225	0.0054705315
125	0xbd443da7	-0.04791036
126	0xbd53beca	-0.051695623
127	0x3a7002ff	0.000915572
128	0x3bc7284b	0.0060778013
129	0xbcae9156	-0.021309536
130	0xbd83c359	-0.06433744
131	0x3d9a2cb6	0.07528059
132	0x3db820e8	0.08990651
133	0x3b824620	0.0039756447
134	0x3b469d5a	0.0030306191
135	0x3d8519a7	0.064990334
136	0xbd14c6f5	-0.036322553
137	0xbd3eb727	-0.046561386
138	0xbd44552e	-0.047932796
139	0x3da0ef7f	0.0785818
140	0x3ce5c963	0.02805013
141	0x3d9607fd	0.073257424
142	0xbce5bbf6	-0.028043728
143	0xbd500d19	-0.05079374
144	0x3daf7d1b	0.08568784
145	0x3d65014e	0.055909447
146	0xbd1466ce	-0.036230855
147	0x3b30e66e	0.0026992816
148	0x3d91f12a	0.071260765
149	0xbd578c64	-0.05262412
150	0x3c84ae1f	0.016196309
151	0x3d3842bd	0.04498552
152	0x3d0a1d8b	0.03371958
153	0xbcdca2f4	-0.02693317
154	0x3d2f6a2a	0.042825855
155	0x3ca8cae6	0.020604562
156	0xbce77f2b	-0.02825888
157	0x3bf089f7	0.0073406654
158	0xbd0b6227	-0.034029152
159	0xbd0e3e8c	-0.034727618
160	0xbc6c17b8	-0.014409952
161	0x3d0be8fc	0.034157738
162	0x3d483b71	0.048884813
163	0xbd4fc01d	-0.050720323
164	0xbcd20bcb	-0.025640389
165	0xbda4e495	-0.08051411
166	0x3c8da773	0.01729176
167	0xbd2b841a	-0.04187403
168	0x3d6ff9dd	0.058587898
169	0x3d609e89	0.05483869
170	0xbd8ecd1d	-0.06972716
171	0x3d294816	0.041328512
172	0xbd668d57	-0.056287136
173	0x3cac6609	0.021044748
174	0xbd7ae20f	-0.061250743
175	0xbd56e184	-0.052461162
176	0x3d9a3de9	0.0753134
177	0x3d6843ca	0.056705274
178	0x3d93296d	0.07185636
179	0x3d3a441a	0.045475103
180	0x3c99f9ed	0.018795932
181	0x3c190f1f	0.009341984
182	0xbd819ab6	-0.06328337
183	0xbd951b5a	-0.072806075
184	0x3d733be9	0.059383307
185	0x3cb26885	0.021778354
186	0x3d001b27	0.031275894
187	0xbccb2b2e	-0.024800863
188	0xbd8d98de	-0.06913923
189	0xb8e34a3d	-0.000108380314
190	0x3dab14a9	0.0835355
191	0x3dabdb5e	0.0839145
192	0xbd31395d	-0.043267597
193	0x3cb152e8	0.021645978
194	0xba876ee6	-0.0010332733
195	0xbc465e80	-0.0121074915
196	0xbd74b939	-0.059746955
197	0xbdbf4144	-0.0933862
198	0xbd9675de	-0.073467
199	0x3d1f2870	0.038856924
200	0xbd86ac03	-0.065757774
201	0xbcb8a027	-0.022537304
202	0xbccdd696	-0.025126737
203	0xbda12bd0	-0.07869685
204	0xbd8ea34e	-0.06964742
205	0xbd5c6d37	-0.053815093
206	0xbc9287cd	-0.01788702
207	0x3dc3e696	0.09565465
208	0x3cd2aa7a	0.025716055
209	0x3dc81cc4	0.097711116
210	0xbd1e8e62	-0.038710006
211	0x3d4664e7	0.04843607
212	0xbdad2100	-0.0845356
213	0x3c6405b8	0.013917379
214	0x3d3389a9	0.043832455
215	0xbc8022c6	-0.015641581
216	0xbd8a5eb6	-0.06756346
217	0x3cabd89d	0.020977313
218	0xbd83d57b	-0.064372025
219	0x3d9ba2d2	0.07599415
220	0x3cfc7d84	0.03082157
221	0xbd498f6a	-0.049209036
222	0x3d5c22bb	0.05374406
223	0xbd825d3e	-0.06365441
224	0xbd1b605d	-0.037933696
225	0x3d94c4d6	0.07264106
226	0xbc4c4115	-0.012466689
227	0xbd73c212	-0.05951125
228	0x3c8d31b0	0.017235607
229	0xbab0a189	-0.0013475876
230	0xbdb2d11e	-0.08731292
231	0x3cfab577	0.030604107
232	0xbc5b88bd	-0.0133993
233	0xbc81d7f8	-0.015850052
234	0x3d89afa3	0.06722953
235	0x3be56143	0.00700012
236	0xbd803d18	-0.06261653
237	0xbd4d54a5	-0.05012955
238	0x3d471a53	0.04860909
239	0x3b17dc24	0.0023171986
240	0x3c78bb6f	0.015181406
241	0xbd9d52b2	-0.076817885
242	0x3d83e11c	0.064394206
243	0xbc318439	-0.010834747
244	0xbcd0c25f	-0.025483308
245	0xbc9023b6	-0.017595153
246	0x3d5839f8	0.05278966
247	0xbd8c4a6d	-0.06850133
248	0xbc7500a9	-0.014953771
249	0x3d994278	0.07483381
250	0xbb8a7644	-0.004225524
251	0xbd9226b7	-0.071362905
252	0xbd20483b	-0.039131384
253	0xbc51c2d0	-0.012802795
254	0xbd60a416	-0.054843985
255	0x3d341e89	0.043974433

layer1.c1.bias f4 [16]
0	0xbd826916	-0.063677
1	0xbd59c3ce	-0.05316525
2	0x3cc4551f	0.02396637
3	0xbda6522b	-0.08121141
4	0xbc4919e6	-0.012274241
5	0xbcca58c2	-0.024700526
6	0xbcdb867c	-0.026797526
7	0x3990c451	0.00027612087
8	0x3d0a3019	0.033737276
9	0x3d843e77	0.06457227
10	0xbcb4aae5	-0.022054145
11	0xbcf3751d	-0.02971893
12	0x3c9b49a8	0.01895602
13	0x3d9c5f29	0.07635338
14	0xbd41132a	-0.047137417
15	0xbda6b3ed	-0.08139787

layer1.b1.weight f4 [16]
0	0x3f7f75e2	0.9978925
1	0x3f806ee9	1.0033847
2	0x3f7f3fd1	0.9970675
3	0x3f7d6c21	0.98993117
4	0x3f7e47ff	0.9932861
5	0x3f81385d	1.0095326
6	0x3f817521	1.011387
7	0x3f802423	1.0011028
8	0x3f7baf0c	0.98313975
9	0x3f7d118e	0.9885491
10	0x3f821d05	1.0165106
11	0x3f80606e	1.0029428
12	0x3f82589e	1.0183294
13	0x3f812b61	1.0091363
14	0x3f802c22	1.0013468
15	0x3f7bf8d6	0.9842657

layer1.b1.bias f4 [16]
0	0xbc86453e	-0.01639044
1	0xbbec7e82	-0.0072172293
2	0xbc3ac9e7	-0.011400676
3	0xbbe0a75e	-0.006855889
4	0x3c557533	0.013028431
5	0x3c93f3d3	0.0180606
6	0x3bb82473	0.0056195795
7	0x3cf3eeb5	0.02977691
8	0xbc85a026	-0.016311716
9	0x3c2ec66a	0.010667423
10	0xbbe6a000	-0.0070381165
11	0x3c804679	0.015658604
12	0x3bf69c57	0.0075259614
13	0x3c5b66d5	0.013391216
14	0xbba1b42a	-0.0049348073
15	0xbbab0c9e	-0.00522001

layer1.b1.running_mean f4 [16]
0	0xbdea444a	-0.11438806
1	0xbf0f9d6b	-0.56099576
2	0xbdfbcbe4	-0.122947484
3	0x3f429b64	0.7601836
4	0x3e9e6744	0.3093816
5	0x3bf14b33	0.007363701
6	0xbe978fe2	-0.2960196
7	0x3d8c55f6	0.06852333
8	0x3eca0363	0.3945571
9	0x3f7d2255	0.9888051
10	0xbea26ab1	-0.31722024
11	0xbe7a448d	-0.24440213
12	0xbe94d6a6	-0.29070014
13	0x3f9185b7	1.1368932
14	0x39a2a231	0.0003101989
15	0x3eb04974	0.3443104

layer1.b1.running_var f4 [16]
0	0x3e5514d6	0.2080873
1	0x3ec2c3cd	0.3804001
2	0x3e48462b	0.19558017
3	0x3f052df9	0.52023274
4	0x3e75f5be	0.24019524
5	0x3e481e0d	0.19542713
6	0x3e699b86	0.22813234
7	0x3e2d4e31	0.16924359
8	0x3e79def7	0.2440146
9	0x3f2cc442	0.67486966
10	0x3e8075e7	0.25089952
11	0x3e4df243	0.20111947
12	0x3ea97eb6	0.33104485
13	0x3f3506d5	0.7071355
14	0x3e852a01	0.2600861
15	0x3ea08681	0.31352618

layer1.c2.weight f4 [16, 16, 3, 3]
0	0x3daacfd5	0.08340422
1	0x3c7e3f35	0.015517999
2	0x3ddb1c8c	0.10698804
3	0x3d7bd5b2	0.061483093
4	0x3c73e708	0.014886625
5	0xbc368fa5	-0.011142646
6	0xbce92c6f	-0.02846357
7	0x3d9ec160	0.07751727
8	0xbcd8d247	-0.026467456
9	0xbd88e2d4	-0.06683889
10	0xbda566e4	-0.080762655
11	0xbd1e5608	-0.038656265
12	0x3d81b61f	0.06333565
13	0x3a8fdc55	0.0010975698
14	0x3c2bcfdc	0.010486569
15	0xbd965436	-0.07340281
16	0xbd89911d	-0.06717131
17	0xbd4c7bcc	-0.04992275
18	0x3daedf6a	0.085387066
19	0x3d8004e2	0.06250931
20	0x3b4fd7e1	0.0031714367
21	0x3d987997	0.074450664
22	0x3d92caf7	0.07167619
23	0x3d913c1a	0.070915416
24	0xbd996098	-0.07489127
25	0xbbd14dae	-0.006387434
26	0xbd6ed8ca	-0.058312215
27	0xbcd2ab74	-0.02571652
28	0xbd9d347b	-0.076760255
29	0x3c9eff31	0.019408794
30	0xbd51cd5e	-0.051221244
31	0xbd3b481a	-0.04572306
32	0x39b840c7	0.00035143478
33	0x3c9283fb	0.017885199
34	0xbc100d67	-0.008792258
35	0x3d5f729e	0.054552667
36	0x3d51a6cc	0.05118446
37	0x3b89559c	0.0041911136
38	0xbda26c2c	-0.079307884
39	0x3cd35037	0.025795085
40	0x3d4af07d	0.049545754
41	0xbce4b89f	-0.027920065
42	0xbd2a08bf	-0.041512247
43	0x3d9a07a3	0.07520988
44	0x3cee5fa1	0.029098334
45	0xbc8cadc7	-0.017172707
46	0xbd8c8d9f	-0.068629496
47	0x38813bd5	6.162344e-05
48	0xbd984f06	-0.074369475
49	0x3c9cfda0	0.019163907
50	0x3a8ebdf1	0.0010890347
51	0x3d12315e	0.03569161
52	0x3d6e89f4	0.05823703
53	0x3d4fffff	0.050781246
54	0x3c5bc813	0.013414401
55	0x3ced8830	0.028995603
56	0xbd5a6aa4	-0.053324357
57	0x3c94d183	0.01816631
58	0x3a866340	0.0010252967
59	0xbd64a684	-0.055822864
60	0x3d42f2c3	0.047594797
61	0x3c1b55aa	0.009480873
62	0x3d516a43	0.05112673
63	0xbc63ef54	-0.013912041
64	0x3d9a5ee4	0.0753763
65	0x3daafdc9	0.08349187
66	0xbcb3b7c1	-0.021938207
67	0x3d51de09	0.05123714
68	0xbd714a2a	-0.05890862
69	0x3d0764ae	0.033055
70	0xbcc8bcce	-0.024504092
71	0x3d3837fd	0.04497527
72	0xbda7a51d	-0.0818579
73	0x3b5a7ec1	0.0033339711
74	0xbd2550ac	-0.040360138
75	0xbcd1f288	-0.025628343
76	0x3cf8c20f	0.030365972
77	0xbd94a5e0	-0.07258201
78	0xbb88b920	-0.0041724592
79	0xbd857cf8	-0.065179765
80	0xbd93323c	-0.07187316
81	0xbc00acd8	-0.007853709
82	0x3d0ee911	0.03489024
83	0xbd860849	-0.06544549
84	0x3d9e6f47	0.07736068
85	0xbd84f579	-0.06492133
86	0xbc987980	-0.018612623
87	0x3cc42b5b	0.023946455
88	0xbd91fd75	-0.07128421
89	0x3c74b43c	0.014935549
90	0x3d870227	0.065922074
91	0xbd4977b9	-0.049186442
92	0xb961d4fe	-0.00021537018
93	0x3b9afb9f	0.0047297026
94	0x3d9d9600	0.07694626
95	0xbd8c30d5	-0.068452515
96	0xbd24c2fe	-0.04022502
97	0xbd70d17f	-0.05879354
98	0xbcc3c1b2	-0.023896072
99	0xbd97aa2c	-0.074055046
100	0xbca8d3c0	-0.020608783
101	0xbd2a61e5	-0.041597266
102	0xbd104881	-0.035225395
103	0xbc6494e1	-0.013951511
104	0x3c9390e3	0.018013423
105	0xbcaa3774	-0.020778395
106	0x3ac04f93	0.0014672152
107	0x3d574dfc	0.052564606
108	0xbc3c8599	-0.011506462
109	0x3cf1e6ff	0.029529093
110	0x3ca71895	0.020397464
111	0x3d8fca5d	0.070210196
112	0x3d4ce992	0.050027438
113	0x3d4455de	0.04793345
114	0xbda3e58b	-0.08002766
115	0xbd60523e	-0.054765932
116	0xbd4d817e	-0.05017232
117	0xb85308d2	-5.0314535e-05
118	0xbd74a96d	-0.05973189
119	0x3d4dd25b	0.05024944
120	0x3cbc769c	0.023005776
121	0x3d7b4290	0.061342776
122	0xbdbb3898	-0.09141654
123	0xbd3eeaf0	-0.046610773
124	0xbd189957	-0.03725561
125	0xbd14faad	-0.036371876
126	0x3d35dbb5	0.044398982
127	0xbd3ef5af	-0.04662102
128	0xbd89ea79	-0.06734175
129	0x3b283350	0.002566535
130	0xbdafbda9	-0.08581097
131	0xbd5472be	-0.05186724
132	0xbcf7f678	-0.030268893
133	0x3c963b1b	0.01833873
134	0x3d946539	0.07245869
135	0x3d8b19c5	0.067920245
136	0x3d94535e	0.072424635
137	0x3d9b2a0d	0.0757638
138	0xbc0fd985	-0.008779888
139	0x3d479032	0.0487215
140	0x3cd62e54	0.026145138
141	0xbd532c3f	-0.05155587
142	0xbb90cfcf	-0.004419304
143	0xbd2a0e3b	-0.041517477
144	0x3d35e100	0.04440403
145	0x3b5b776f	0.0033487936
146	0xbca83ccf	-0.020536808
147	0xbd4e8725	-0.050421853
148	0xbd84f52a	-0.06492074
149	0x3d9effad	0.0776361
150	0x3bd17eca	0.0063932883
151	0x3d59eaab	0.053202312
152	0x3d6df993	0.05809934
153	0x3dcdfd8b	0.10058125
154	0xbbb299cf	-0.0054504643
155	0x3d64ffa2	0.055907853
156	0x3d4368f6	0.04770752
157	0xbd24e972	-0.040261693
158	0xbd968ff9	-0.07351679
159	0x3cfea9a7	0.031086756
160	0x3b736ceb	0.0037143778
161	0x3d75f767	0.060050394
162	0xbd8b1a19	-0.06792087
163	0xbc63012b	-0.013855259
164	0xbd40afd8	-0.047042698
165	0xbd4efbe4	-0.05053319
166	0xbc16b4f2	-0.009198414
167	0xbc53d1ed	-0.012928468
168	0x3dad8264	0.08472136
169	0xbcd6c4c8	-0.02621688
170	0xbcf4b9f4	-0.029873826
171	0x3c18f2f7	0.009335271
172	0xba3af539	-0.0007131878
173	0xbd8e4b08	-0.06947905
174	0x3d594f3a	0.053054072
175	0xbd88c048	-0.066773
176	0xbce72d21	-0.028219761
177	0x3bd55d11	0.0065113385
178	0x3d90357f	0.070414536
179	0xbc821953	-0.015881216
180	0x3d10d9bd	0.0353639
181	0x3d970fca	0.073760584
182	0xbd0b4455	-0.034000713
183	0xbd696b3e	-0.05698704
184	0x3d407896	0.04699
185	0x3d2240cb	0.039612573
186	0xbd13b1d3	-0.03605826
187	0xbd7c1481	-0.06154299
188	0xbd8913c0	-0.0669322
189	0x3d0eed72	0.034894414
190	0xbc5eeb85	-0.013605957
191	0xbd337ff5	-0.0438232
192	0xbd66a034	-0.056305125
193	0x3ba58036	0.0050506843
194	0xbd8a0890	-0.067399144
195	0xbd548bea	-0.051891245
196	0xbd5e3a9b	-0.05425511
197	0x3cde4528	0.027132586
198	0xbd806a10	-0.0627023
199	0x3d580e77	0.05274817
200	0xbda4e1a0	-0.08050847
201	0x3bcc99c2	0.0062439153
202	0x3d4506f5	0.048102338
203	0x3d70dcc9	0.058804307
204	0x3cb93640	0.022608876
205	0x3bb8c9ea	0.0056393044
206	0xbd01d648	-0.031698495
207	0x3d7e24fb	0.062046986
208	0xbd19f659	-0.03758845
209	0xbd487456	-0.04893907
210	0x3d3e5374	0.046466306
211	0x3cd84fbb	0.026405206
212	0x3d3e3943	0.046441328
213	0xbdc31ce6	-0.09526996
214	0xbcd81aad	-0.026379908
215	0x3d0c0f60	0.03419435
216	0x3ce954b8	0.02848278
217	0x3c417b12	0.011809127
218	0xbc862ef3	-0.016379809
219	0x3d573599	0.05254135
220	0x3ca6587c	0.020305865
221	0x3d5d912d	0.05409353
222	0xbcb2ce2f	-0.021826832
223	0xbb80ad5e	-0.003926917
224	0x3c1874f1	0.009305225
225	0xbd1ba6c7	-0.03800085
226	0x3be49bba	0.006976572
227	0xbcad7aa3	-0.021176642
228	0xbbd62217	-0.0065348255
229	0xbd951d4f	-0.07280981
230	0xbcbeecb4	-0.023306228
231	0xbd43f129	-0.04783741
232	0xbd0b9bdc	-0.034084186
233	0xbda2ba07	-0.07945638
234	0xbd8cafdb	-0.06869479
235	0x3d9a6178	0.07538122
236	0x3b8ddb63	0.0043291315
237	0x3c9babcb	0.019002816
238	0xbd844cf2	-0.06459989
239	0xbc623340	-0.013806164
240	0xbd861ba8	-0.06548244
241	0xbcb44030	-0.022003263
242	0xbda353d2	-0.07974972
243	0x3d84f651	0.064922936
244	0x3d5d523a	0.054033495
245	0xbd83f6f2	-0.064435855
246	0xbd568c4a	-0.052379884
247	0x3d525812	0.05135352
248	0xbd68c010	-0.05682379
249	0x3d579496	0.052631937
250	0xbd27a02f	-0.040924247
251	0xbc2492a3	-0.010044727
252	0xbc036d23	-0.008021626
253	0xbd13d812	-0.036094733
254	0x3d96d39a	0.073645785
255	0x3cc8087d	0.02441811

layer1.c2.bias f4 [16]
0	0xbd859a40	-0.065235615
1	0xbd9fde2a	-0.07806046
2	0xbd2a6aa8	-0.04160562
3	0xbd0e4aa1	-0.03473914
4	0xbd47f15c	-0.048814163
5	0xbd88d7d3	-0.0668179
6	0x3d75d3af	0.06001633
7	0x3caeaf11	0.021323713
8	0x3d9f98a0	0.07792783
9	0xbb5fd47c	-0.003415375
10	0x3d9d26e5	0.07673434
11	0x3aed3e49	0.0018100227
12	0xbd8b1fb7	-0.067931585
13	0xbbcd7453	-0.0062699704
14	0x3dabd3be	0.08389996
15	0x3d751691	0.059835974

layer1.b2.weight f4 [16]
0	0x3f82c3f6	1.0216053
1	0x3f8272c4	1.0191274
2	0x3f822e83	1.0170444
3	0x3f8067f8	1.0031729
4	0x3f79cfb7	0.9758257
5	0x3f84b516	1.0367763
6	0x3f82508b	1.018083
7	0x3f7d36f3	0.9891197
8	0x3f83ca5e	1.0296133
9	0x3f833129	1.0249377
10	0x3f82b2fd	1.0210873
11	0x3f7daad2	0.99088776
12	0x3f83547e	1.026016
13	0x3f80e017	1.0068387
14	0x3f7e98bf	0.9945182
15	0x3f7ccb19	0.987474

layer1.b2.bias f4 [16]
0	0x3c2fdb5f	0.0107334545
1	0xbc94fccc	-0.01818695
2	0xbc095bc8	-0.008383699
3	0xba48f7fe	-0.0007666348
4	0x3bd92c59	0.006627601
5	0x3c991907	0.018688692
6	0x3c82645d	0.015916998
7	0xbc651db3	-0.013984132
8	0x3c126c98	0.008937024
9	0x3d0f3964	0.03496684
10	0x3cc8fbef	0.024534194
11	0x3c894453	0.016756212
12	0x3cac1fbf	0.021011231
13	0xbc161ee0	-0.009162635
14	0xbbf44db0	-0.00745555
15	0x3c4a0882	0.01233113

layer1.b2.running_mean f4 [16]
0	0xbe366a86	-0.17814073
1	0xbe4c4be8	-0.19950831
2	0x3e65ecb2	0.22453573
3	0xbd286084	-0.04110767
4	0x3d714eb1	0.058912937
5	0x3e2e31e5	0.17011221
6	0xbf0117f2	-0.5042716
7	0xbd10c5ad	-0.03534477
8	0xbdb4244b	-0.08795985
9	0xbddd2286	-0.107976004
10	0xbf00bd66	-0.50289
11	0x3e739f19	0.2379116
12	0xbe63296f	-0.22183774
13	0xbebdcba8	-0.3706944
14	0x3e2fc303	0.17164235
15	0x3e76f38e	0.24116346

layer1.b2.running_var f4 [16]
0	0x3e165b96	0.14683375
1	0x3dc6ac12	0.097007886
2	0x3e296872	0.16543749
3	0x3e0e4e12	0.13896969
4	0x3e16ee0a	0.14739242
5	0x3e31060e	0.17287466
6	0x3e846d91	0.25864843
7	0x3e1fabdc	0.15592903
8	0x3e03f2ce	0.12885591
9	0x3e65e316	0.22449908
10	0x3ed2eff1	0.41198686
11	0x3deb2f65	0.11483649
12	0x3db25a41	0.08708621
13	0x3e65f652	0.22457245
14	0x3e058b59	0.13041438
15	0x3d88c581	0.06678296

layer2.0.weight f4 [32, 16, 3, 3]
0	0x3d8fb490	0.070168614
1	0x3d946b6f	0.07247054
2	0x3b2466af	0.0025085618
3	0xbd7d9fa0	-0.06191981
4	0x3d8271dd	0.06369374
5	0xbccefb3d	-0.025266284
6	0xbda0b5b5	-0.07847158
7	0x3d19a455	0.037510235
8	0x3d9baad1	0.0760094
9	0x3d98440b	0.07434853
10	0xbd622c8a	-0.055218257
11	0x3d7a22b5	0.061068255
12	0x39c043ee	0.00036671705
13	0xbd493c51	-0.049129788
14	0xbce70f31	-0.028205486
15	0x3d2e861f	0.042608377
16	0x3d9610a0	0.0732739
17	0x3d969009	0.07351691
18	0x3d71a85c	0.05899845
19	0x3a9472a7	0.0011325673
20	0x3d289d5f	0.041165706
21	0x3c923f8a	0.017852563
22	0xbc135c6e	-0.008994205
23	0x3c8cc6d0	0.017184645
24	0x3d577426	0.052601002
25	0x3da44d5f	0.0802257
26	0x3c9165f7	0.017748816
27	0xbdb507f2	-0.08839406
28	0x3d25f94e	0.04052096
29	0xbae60062	-0.0017547722
30	0x3d30e20f	0.043184336
31	0x3cfea2d7	0.031083507
32	0xbd8d98f8	-0.06913942
33	0xbdcbf1ce	-0.0995823
34	0xbd8cf483	-0.068825744
35	0xbd9df308	-0.0771237
36	0xbc363fac	-0.011123579
37	0x3c9926ff	0.018695353
38	0x3d8195cb	0.06327399
39	0x3d02ade7	0.031904127
40	0xbdca4575	-0.09876529
41	0xbd92442b	-0.07141908
42	0x3d6800d4	0.056641415
43	0x3c78de6c	0.015189748
44	0xbc6e2517	-0.01453521
45	0x3d1da368	0.038485914
46	0x3ca48b4c	0.020085953
47	0xbd11f9cb	-0.03563861
48	0xbd93f670	-0.072247386
49	0xbc756169	-0.014976838
50	0x3d538dfc	0.05164908
51	0xbd8c713f	-0.068575375
52	0xbc86a930	-0.016438097
53	0x3d10b905	0.0353327
54	0xbc4ebb7b	-0.012617941
55	0x3d394ded	0.04524033
56	0xbd168cfd	-0.03675555
57	0x3b3052b2	0.002690476
58	0xbd8a02af	-0.06738793
59	0x3db39438	0.08768505
60	0xbd5107ba	-0.05103276
61	0xbbdf0c9c	-0.006806923
62	0xbd51e544	-0.051244035
63	0x3d7d6c09	0.06187061
64	0xba01fbaf	-0.0004958463
65	0xbc9bf66b	-0.0190384
66	0x3ccd3a6f	0.025052277
67	0xbd096f0e	-0.033553176
68	0xbdbb0697	-0.09132116
69	0x3d1d95a5	0.03847279
70	0xbd81889b	-0.063248836
71	0xbc9007ce	-0.017581847
72	0x3cd21bfc	0.02564811
73	0x3cc24585	0.02371479
74	0xbceafca4	-0.028684922
75	0x3b8b255b	0.0042463965
76	0x3d43bd18	0.047787756
77	0x3b905d7a	0.0044056745
78	0x3ceeabf2	0.029134724
79	0x3c339068	0.010959722
80	0xbd6b9218	-0.057512373
81	0xbd1851e7	-0.037187483
82	0xbd702a8f	-0.058634337
83	0xbd118c9a	-0.03553448
84	0x3c7ad456	0.015309414
85	0xbca33d07	-0.019926561
86	0xbda6c7c0	-0.08143568
87	0x3d88a983	0.06672957
88	0x3d74c961	0.059762362
89	0x3d73239f	0.059360143
90	0xbd277853	-0.040886234
91	0xbd3cc792	-0.046088763
92	0x3d9d5d6c	0.076838344
93	0xbd4275fb	-0.047475796
94	0x3d5e4c69	0.05427209
95	0x3d597567	0.05309048
96	0x3d56c31c	0.052432165
97	0x3dcdc2d4	0.10046926
98	0x3b9e0173	0.00482195
99	0xbd85c53d	-0.06531761
100	0xbd4cc935	-0.049996573
101	0xbd86ad4f	-0.06576025
102	0xbd690339	-0.05688784
103	0xbdbab37e	-0.09116267
104	0xbd0386ca	-0.032110967
105	0xbcdd8520	-0.027041018
106	0xbb0558da	-0.002034715
107	0xbdc45dc7	-0.09588199
108	0xbd61aa93	-0.055094313
109	0x3d503bd6	0.050838314
110	0xbd726599	-0.059178922
111	0x3cf0a760	0.029376686
112	0x3d5f52de	0.054522388
113	0xbd80cf0f	-0.06289493
114	0xbb7906e9	-0.0037998504
115	0xbdbeb0a6	-0.09311037
116	0x3cdf9f29	0.027297573
117	0xbd89975b	-0.06718322
118	0xbd45a3f4	-0.04825206
119	0x3cebcd22	0.028784338
120	0x3c1c9bb0	0.009558603
121	0xbd567aee	-0.05236333
122	0xbc8c6a1e	-0.017140444
123	0xbd7435d9	-0.059621666
124	0xbda598c3	-0.080857776
125	0xbd9d537e	-0.076819405
126	0x3d455eac	0.04818599
127	0x3d497a83	0.049189102
128	0xbd3a2cf1	-0.045453016
129	0xbdad0f84	-0.08450225
130	0x3d753fb1	0.059875194
131	0xbdc772f1	-0.0973872
132	0xbd244f0f	-0.04011446
133	0xbd72a861	-0.05924261
134	0x3d690125	0.056885857
135	0x3d710428	0.058841854
136	0xbd8c529b	-0.06851693
137	0xbd6d4055	-0.05792268
138	0xbd960cfc	-0.07326695
139	0xbc213651	-0.00983961
140	0x3d0e7285	0.034777183
141	0xbd990fb0	-0.07473695
142	0xbc606805	-0.013696675
143	0xbdb9bc9f	-0.0906918
144	0x3d574ef6	0.052565537
145	0xbd6d4f48	-0.057936937
146	0xbd3af913	-0.045647692
147	0x3d9dfdcd	0.07714424
148	0x3db46a7b	0.08809372
149	0x3d2e20fd	0.04251193
150	0xbd37023c	-0.044679865
151	0xbd536b47	-0.05161598
152	0x3d62f5ca	0.055410184
153	0xbd6723b8	-0.05643055
154	0xbb875c85	-0.0041309022
155	0xbbd1021c	-0.0063784253
156	0xbd459737	-0.048239913
157	0x3cd88308	0.026429668
158	0x3d020935	0.03174706
159	0xbd9d09ac	-0.076678604
160	0xbd55aa36	-0.05216428
161	0x3bf185bd	0.007370679
162	0x3c8e10af	0.01734194
163	0x3d00d355	0.031451542
164	0xbcdb606b	-0.026779374
165	0x3d8f01b2	0.06982745
166	0xbcf9a382	-0.030473474
167	0x3d8ea006	0.06964116
168	0xbd462ba2	-0.048381455
169	0x3d8c55cb	0.06852301
170	0x3be963bf	0.0071224864
171	0x3d60f174	0.054917768
172	0x3a79c29d	0.0009527596
173	0xbcd4f309	-0.025994794
174	0xbdbcb2f2	-0.092138186
175	0xbd5e65cb	-0.054296296
176	0xbdd7dc07	-0.10540014
177	0x3d5f7d44	0.054562822
178	0x3cefb31d	0.029260213
179	0x3d4f7c18	0.050655454
180	0xbd02915d	-0.03187691
181	0xbc0358bb	-0.00801676
182	0x3d30a1d0	0.043123066
183	0x3c34d913	0.011038083
184	0xbd878a72	-0.06618203
185	0xbc5dd4b0	-0.013539478
186	0x3d10f344	0.035388246
187	0xbda17101	-0.07882882
188	0xbcdb5ac3	-0.026776677
189	0xbd625d0e	-0.055264525
190	0x3da34b42	0.07973339
191	0xbba25014	-0.0049533937
192	0x3bdb3dc4	0.0066907126
193	0xbd1ad71f	-0.03780281
194	0xbcf6c3a5	-0.030122587
195	0xbdc6064f	-0.09669172
196	0x3da25b3c	0.07927558
197	0x3be38d8c	0.006944364
198	0xbd242f79	-0.040084336
199	0x3d95c3d9	0.073127456
200	0xbc9b25ed	-0.018938983
201	0xbd52f570	-0.0515036
202	0x3cd80aed	0.026372397
203	0x3dc40e08	0.09572989
204	0xbc7ffbd0	-0.015624002
205	0xbdb6abbf	-0.08919477
206	0x3c3ef275	0.011654486
207	0xbd63069e	-0.055426233
208	0x3d7d0e88	0.061781436
209	0x3b7e991f	0.0038848592
210	0x3cc2eb51	0.023793848
211	0x3bb02dd3	0.0053765564
212	0xbd32446b	-0.04352228
213	0x3d76da6f	0.06026691
214	0x3ba92155	0.005161444
215	0x3cc28618	0.023745582
216	0xbd4df2c5	-0.05028035
217	0x3d31abae	0.043376617
218	0x3c53f2de	0.012936322
219	0xbc72fffd	-0.01483154
220	0x3b99b9f1	0.0046913554
221	0xbc9010f0	-0.017586201
222	0x3d408e86	0.04701092
223	0xbd4ae399	-0.04953346
224	0xbd2edec7	-0.042692926
225	0xbd5c5162	-0.05378855
226	0x3d93b3cc	0.07212028
227	0xbc55a04f	-0.013038709
228	0xbdbaa592	-0.09113611
229	0xbc92dd40	-0.017927766
230	0xbc0ccc92	-0.008593695
231	0xbdc1a712	-0.09455694
232	0xbcce512b	-0.025185188
233	0x3cc802b4	0.024415351
234	0xbc07299f	-0.008249669
235	0x3cc05590	0.0234783
236	0x389168d0	6.933662e-05
237	0x3cd0d8d6	0.02549402
238	0xbd17696f	-0.036965784
239	0xbd7e6532	-0.062108226
240	0xbcaea46f	-0.021318642
241	0x3c9bba80	0.019009829
242	0x3d42fc28	0.047603756
243	0x3d5d2552	0.05399067
244	0xbce8800d	-0.028381372
245	0xbd292908	-0.041298896
246	0xbcd88414	-0.026430167
247	0xbda7cce4	-0.08193377
248	0x3c5caf25	0.013469492
249	0xbc1087d7	-0.008821449
250	0x3af60475	0.0018769639
251	0xbcdd9dd2	-0.027052794
252	0xbd18f15e	-0.03733956
253	0x3d3363c7	0.043796327
254	0x3da57345	0.080786265
255	0xbd5a0764	-0.053229704

layer2.0.bias f4 [32]
0	0x3cce4bbb	0.025182595
1	0x3d8f3033	0.06991615
2	0x3c5de50e	0.01354338
3	0xbd807179	-0.06271643
4	0xbd3b2e61	-0.045698527
5	0x3dac3e41	0.084103115
6	0x3d63457f	0.0554862
7	0xbd2b1fa6	-0.04177823
8	0xbd087d38	-0.033322543
9	0xb7fb0c83	-2.9927358e-05
10	0x3d128fec	0.035781786
11	0x3d6003e4	0.05469121
12	0x3d3cc37e	0.046084873
13	0x3d9bfd35	0.07616655
14	0x3d74fe23	0.059812676
15	0xbb17b8fc	-0.002315103
16	0x3c766ce3	0.015040609
17	0xbda12295	-0.07867924
18	0x3c8e11b5	0.017342428
19	0xbd294c8e	-0.041332774
20	0xbc4afaac	-0.012388866
21	0xbb6a5315	-0.0035755087
22	0xbd14b2e2	-0.03630341
23	0xbd1fcf22	-0.039015897
24	0x3c2c0452	0.010499077
25	0x3d11712c	0.03550832
26	0xbd2a3d3a	-0.041562296
27	0x3cc1a0ef	0.02363631
28	0x3d08fdcd	0.03344517
29	0x3d0fa420	0.03506863
30	0x3d604c71	0.0547604
31	0x3d9991c6	0.07498507

layer2.1.weight f4 [32]
0	0x3f80883f	1.0041579
1	0x3f80050c	1.000154
2	0x3f7f34fa	0.9969021
3	0x3f7ddf8f	0.9916925
4	0x3f85ab1d	1.0442845
5	0x3f80aa6d	1.005201
6	0x3f82400c	1.0175796
7	0x3f85e8ad	1.0461632
8	0x3f835172	1.025923
9	0x3f854cdd	1.0414082
10	0x3f80e230	1.0069027
11	0x3f815928	1.0105333
12	0x3f80a5e1	1.0050622
13	0x3f85cef5	1.0453783
14	0x3f7e52b7	0.9934496
15	0x3f7e7b43	0.9940683
16	0x3f861934	1.0476441
17	0x3f7dbb0e	0.9911355
18	0x3f84b52d	1.036779
19	0x3f8089ec	1.004209
20	0x3f803b97	1.0018185
21	0x3f828e2e	1.019964
22	0x3f7e0765	0.99230033
23	0x3f80f687	1.0075234
24	0x3f7e9343	0.99443454
25	0x3f8062a9	1.0030109
26	0x3f7fe586	0.999596
27	0x3f83796e	1.0271432
28	0x3f811330	1.008398
29	0x3f861c17	1.0477322
30	0x3f813001	1.0092775
31	0x3f7d5fbb	0.989742

layer2.1.bias f4 [32]
0	0x3ca3f2d4	0.02001325
1	0x3c8844e3	0.01663441
2	0xbb090790	-0.0020909049
3	0xbba23a3b	-0.0049507893
4	0x3d3707f8	0.044685334
5	0x3c0837c0	0.008314073
6	0xbcb1cb3f	-0.02170336
7	0x3d39c8e5	0.045357604
8	0x3d0abd29	0.033871803
9	0x3cb14e8f	0.021643905
10	0x3c9feaea	0.019521195
11	0x3bc1f83f	0.005919486
12	0xbbb6a89e	-0.0055743
13	0x3d256dd3	0.04038794
14	0xbbaa8824	-0.0052042175
15	0xb867d00b	-5.5268447e-05
16	0x3d0dd8ee	0.03463071
17	0xbb96e2b4	-0.004604662
18	0x3d1612b4	0.03663893
19	0x3bafb0ba	0.0053616436
20	0x3d0ef48e	0.034901194
21	0x3bed66c4	0.0072449166
22	0xbc8bfb2a	-0.017087538
23	0x3c421216	0.011845132
24	0xbbe5399d	-0.0069953934
25	0xbc57a0db	-0.0131609095
26	0x3ac74ac5	0.0015204778
27	0x3d48a891	0.048988882
28	0xbc5b3306	-0.013378864
29	0x3d459d4c	0.048245713
30	0x3d21aba3	0.039470326
31	0xbc0a0386	-0.008423692

layer2.1.running_mean f4 [32]
0	0xbf4d7b34	-0.8026612
1	0xbe20efd6	-0.1571649
2	0xbe2a0638	-0.16603935
3	0xbe7b33c1	-0.24531461
4	0xbf811df7	-1.008727
5	0x3fc5acaf	1.5443324
6	0xbf6d4d9c	-0.9269655
7	0xbe62b1bb	-0.22138111
8	0xbe806ca7	-0.25082895
9	0xbf38432b	-0.7197749
10	0x3e2b41d6	0.16724333
11	0xbd6e6ce4	-0.058209315
12	0xbf044ed0	-0.5168276
13	0xbdd964c8	-0.106149256
14	0xbed90db3	-0.42393264
15	0x3ef38c68	0.4756806
16	0xbddd7d06	-0.10814862
17	0xbf7521f9	-0.95754963
18	0xbecb243f	-0.3967609
19	0x3f494178	0.7861552
20	0x3c822e0c	0.015891097
21	0xbf1d12cb	-0.613568
22	0xbf0a65cd	-0.54061586
23	0x3e7fa5e7	0.2496563
24	0xbf46e2b3	-0.77689666
25	0xbef6043a	-0.480501
26	0xbf2eb749	-0.6824842
27	0xbd709016	-0.05873116
28	0xbe8b4c77	-0.27206776
29	0xbe2a2f7b	-0.16619675
30	0x3e0a66d4	0.13515788
31	0xbf663d7c	-0.8993757

layer2.1.running_var f4 [32]
0	0x3f207c14	0.6268933
1	0x3e9d1fbc	0.30688274
2	0x3eb370f9	0.3504713
3	0x3f2bc59d	0.6709841
4	0x3f41b5dc	0.7566812
5	0x3f04836b	0.5176303
6	0x3ea328b6	0.31866997
7	0x3ebc6a51	0.36799863
8	0x3eec256b	0.46122298
9	0x3ea82966	0.32844085
10	0x3efa3f02	0.48876196
11	0x3e6bfeea	0.23046461
12	0x3e9de7b5	0.3084084
13	0x3e614830	0.22000194
14	0x3eb92b59	0.36165884
15	0x3ef32cdc	0.47495162
16	0x3ebf160b	0.37321505
17	0x3f1eaee6	0.61985624
18	0x3ee18a57	0.44050857
19	0x3f18b070	0.5964422
20	0x3ea99dba	0.33128148
21	0x3e8a3344	0.26992238
22	0x3f0cb946	0.54970205
23	0x3ed1269a	0.40849763
24	0x3f0564c0	0.5210686
25	0x3eaa9e19	0.33323744
26	0x3e735add	0.2376513
27	0x3ed78237	0.42091534
28	0x3e99f236	0.30067605
29	0x3e9003a5	0.2812778
30	0x3e86c0ae	0.26318878
31	0x3ec3c80f	0.3823857

layer2.3.c1.weight f4 [32, 32, 3, 3]
0	0x3c49dd61	0.012320847
1	0x3cd60171	0.026123734
2	0x3cf71897	0.030163093
3	0x3cc91dd8	0.024550363
4	0x3cf7a8da	0.030231882
5	0xbd4f6e9d	-0.0506426
6	0xbc4fdc01	-0.01268673
7	0x3c4733de	0.012158362
8	0xbbf7260d	-0.007542378
9	0xbbf34e31	-0.0074250926
10	0x3ca92a6d	0.020650113
11	0xbcdbd493	-0.026834762
12	0x3cf136e4	0.02944512
13	0xbd76c52b	-0.060246628
14	0xbc85024c	-0.016236447
15	0xbce69b05	-0.028150091
16	0xbd1f519a	-0.03889618
17	0xbb519fdc	-0.0031986153
18	0x3c70d865	0.01470003
19	0xbcd4c628	-0.025973395
20	0x3d1322a6	0.035921715
21	0x3d4a1766	0.04933872
22	0xbd5e5111	-0.05427653
23	0xbc2cb405	-0.010540967
24	0xbc722dd6	-0.014781436
25	0xbc2b5d18	-0.010459207
26	0x3c4f5015	0.01265337
27	0x3c543d96	0.012954136
28	0xbc0420bc	-0.008064445
29	0xbd9d041a	-0.07666798
30	0xbcbd8d99	-0.023138808
31	0xbd799267	-0.060930636
32	0xbca24d7f	-0.019812344
33	0xbc7e9792	-0.015539067
34	0xbcebe580	-0.028795958
35	0x3d3cb008	0.046066314
36	0xbd8db3f5	-0.0691909
37	0xbd8b8605	-0.068126716
38	0x3c75fc64	0.015013788
39	0xbd2710b7	-0.040787425
40	0xbd4d8eef	-0.05018514
41	0x3c6b935e	0.014378397
42	0xbcf5e6fa	-0.030017365
43	0xbd1862c8	-0.03720358
44	0xbcc2234b	-0.02369847
45	0xbc3f583f	-0.011678754
46	0x3d6c2f99	0.05766258
47	0xbce9798f	-0.028500346
48	0x3d1e9156	0.038712822
49	0xbd0512ee	-0.032488756
50	0x3c990ec6	0.018683802
51	0x3c0dd792	0.008657353
52	0x3d85d1e6	0.065341756
53	0x3d4fc957	0.050729122
54	0x3d1f3c76	0.03887602
55	0xbd1894ba	-0.03725121
56	0x3c8a1c09	0.016859071
57	0xbd8aaa73	-0.06770792
58	0x3bb67d88	0.0055691637
59	0x3cff53ba	0.031167854
60	0x3c355153	0.0110667525
61	0xbc8ede8e	-0.017440107
62	0xbb481e42	-0.0030535613
63	0xbd141180	-0.0361495
64	0xbd13d0aa	-0.03608767
65	0x3d9fd8d8	0.078050315
66	0xbc947015	-0.018119851
67	0x3d73afc0	0.05949378
68	0xbcb6f63f	-0.022334216
69	0x3d382005	0.04495241
70	0xbce18822	-0.027530733
71	0x3d6c04f7	0.057621922
72	0xbd1a6839	-0.03769705
73	0xbd6789a6	-0.056527756
74	0x3aae2436	0.0013285938
75	0xbd16251b	-0.03665648
76	0xbc9322e0	-0.017960966
77	0xbd387274	-0.045031026
78	0xbcb24a3f	-0.021763919
79	0xbd1e76f1	-0.03868765
80	0x3d80dd5f	0.06292223
81	0xbd05469a	-0.032538034
82	0x3d284d0a	0.041089095
83	0x3cd0f02a	0.025505144
84	0xbc93e96f	-0.018055646
85	0xbd4e3c96	-0.050350748
86	0xbcadb882	-0.021206144
87	0x3bd988cb	0.0066386214
88	0x3d0adc94	0.033901766
89	0xb9230176	-0.00015545436
90	0xbd3b525e	-0.04573285
91	0x3d4bdd82	0.049771793
92	0x3c8931a7	0.016747309
93	0x3d3a3ae3	0.045466315
94	0x3d30c741	0.043158773
95	0xbd4ec973	-0.050485086
96	0xbcd022c0	-0.025407195
97	0x3b115eb8	0.00221817
98	0x3d05e3ef	0.032688078
99	0xbd7f047f	-0.062260147
100	0x3c50ddb5	0.012748172
101	0xbd273d3d	-0.040829886
102	0x3ab9a673	0.0014163986
103	0xbd274618	-0.04083833
104	0xbc9c931e	-0.01911312
105	0xbcc4d5ed	-0.024027789
106	0x3c0a397c	0.008436557
107	0xbd167bbe	-0.036739103
108	0xbd2d03bf	-0.0422399
109	0x3cb771b0	0.022393078
110	0xbc7ed3ef	-0.015553459
111	0x3d1195f5	0.0355434
112	0xbcd1485e	-0.025547203
113	0xbc937361	-0.017999353
114	0xb99c0dd2	-0.00029764936
115	0x3be89ff4	0.007099146
116	0xbd6f1e87	-0.058378723
117	0xbd71ce23	-0.059034478
118	0xbd21d025	-0.039505143
119	0x3b3dedcd	0.0028980852
120	0xbbb45965	-0.0055038207
121	0x3d0b0c56	0.03394731
122	0xbd0ac55a	-0.033879615
123	0x3c26a71f	0.010171681
124	0x3c6dbe0d	0.014510644
125	0x3c44d0d3	0.012012678
126	0x3d4d6eb8	0.050154418
127	0x3d221d9e	0.039579026
128	0xbcd94ac6	-0.026524913
129	0xbd8e4899	-0.06947441
130	0xbc71d311	-0.014759795
131	0x3d2a1eaa	0.04153315
132	0x3cfd22e2	0.030900422
133	0x3cca0b24	0.024663515
134	0x3d82b149	0.06381471
135	0x3b13616f	0.0022488495
136	0x3b8b344b	0.004248177
137	0xbcd38268	-0.025819018
138	0xbc4ea0b6	-0.012611559
139	0xbd1de881	-0.03855181
140	0x3c79afe4	0.0152396895
141	0xbc0ceb1e	-0.008600978
142	0x3d6671d7	0.05626091
143	0x3c9cef9b	0.019157222
144	0x3cc1fc87	0.023679985
145	0xbd2dea82	-0.042459972
146	0xbbce7fd7	-0.006301861
147	0x3cdb935e	0.026803669
148	0x3cb976d1	0.022639664
149	0x3d773e45	0.06036212
150	0x3bf1645c	0.0073667
151	0x3d47c838	0.048774928
152	0xbc4ae991	-0.012384788
153	0xbd5f7bd2	-0.054561444
154	0xbc0f89c8	-0.008760877
155	0xbca400fe	-0.020020004
156	0x3c9eb2fa	0.019372452
157	0xbcd89c76	-0.026441794
158	0x3d4c9416	0.049945913
159	0xba454b34	-0.000752616
160	0xbd35c788	-0.04437974
161	0x3d2218c2	0.039574392
162	0x3d89f3fd	0.0673599
163	0x3b1cc732	0.002392244
164	0xbcf59a41	-0.02998078
165	0xbcb970d4	-0.022636808
166	0x3abde2bf	0.0014487131
167	0xbca179c0	-0.019711375
168	0xba6ff0a8	-0.0009152987
169	0xbca51743	-0.020152694
170	0x3cb035b4	0.021509983
171	0xbbef16f0	-0.0072964355
172	0x3c2a9e41	0.010413707
173	0x3c5490dd	0.012973991
174	0x3a68ec09	0.00088852696
175	0xbcbf120d	-0.023324037
176	0xbd03e0bd	-0.03219675
177	0x3af0751e	0.001834545
178	0xbd6d1fe9	-0.05789176
179	0xbc945c0f	-0.018110303
180	0xbd2e3e2b	-0.042539757
181	0xbd89a456	-0.06720798
182	0x3b8070f9	0.0039197174
183	0xbd65d3bd	-0.056110132
184	0x3d04c874	0.03241773
185	0xbcb15f0c	-0.021651767
186	0xbce4ae98	-0.027915284
187	0xbc41f9b3	-0.011839318
188	0x3b70c689	0.003673943
189	0xbcf981c8	-0.030457392
190	0xbc843018	-0.016136214
191	0xbd321618	-0.0434781
192	0xbc80e6b6	-0.015735012
193	0xbcae6f82	-0.021293405
194	0xbc92b177	-0.017906887
195	0xbd22ece3	-0.039776694
196	0xbd050afa	-0.03248117
197	0x3b927d6f	0.0044705193
198	0x3c9d6958	0.01921527
199	0x3c2c146c	0.010502916
200	0x3cd88eb6	0.026435237
201	0x3afb4fef	0.0019173602
202	0xbd2c56f9	-0.04207513
203	0xbb592013	-0.003313069
204	0xbcfd53df	-0.030923782
205	0xbcf499ce	-0.029858496
206	0xbc6a6887	-0.014307148
207	0x3c2e09f0	0.0106224865
208	0xbd73ad32	-0.059491344
209	0xbc79bd28	-0.015242852
210	0xbd502128	-0.05081287
211	0xbd3ef7db	-0.046623092
212	0xba9a12ab	-0.0011754831
213	0xbc52e1ed	-0.012871248
214	0x3d23de3c	0.04000686
215	0x3d57c8a6	0.052681588
216	0x3cb9a339	0.022660838
217	0xbcb118d4	-0.021618284
218	0x3d11dd14	0.035611227
219	0xbd7e19b9	-0.06203625
220	0x3c6cb2a9	0.014446893
221	0xbd203546	-0.039113306
222	0x3d12973e	0.035788767
223	0xbcfb7255	-0.030694166
224	0xbcb33d34	-0.02187977
225	0xbd8ce4ff	-0.06879615
226	0xbd7c2380	-0.061557293
227	0x3b8195f9	0.0039546457
228	0xbca30593	-0.019900119
229	0x3abb5300	0.0014291704
230	0x3aa9bf13	0.0012950621
231	0x3cbfc930	0.023411363
232	0xbd78df65	-0.06075992
233	0x3b536609	0.0032256863
234	0x3cc4d1b5	0.024025777
235	0x3c3a604a	0.011375496
236	0x3b61c7e0	0.003445141
237	0xbccad1cc	-0.024758242
238	0x3d2b5e35	0.04183789
239	0xbc6aabe4	-0.0143232085
240	0xbc915b3b	-0.017743697
241	0x3bb93bc6	0.0056528775
242	0xba9b95c7	-0.0011870199
243	0xbcaed616	-0.021342319
244	0x3b274718	0.0025524553
245	0x3d27a840	0.04093194
246	0x3d66cdec	0.056348726
247	0x3bc4d5c5	0.0060069286
248	0x3c04e867	0.00811205
249	0x3cece3a7	0.028917147
250	0xbca94705	-0.020663748
251	0x3d326d7d	0.043561447
252	0xbce14fc1	-0.02750385
253	0x3cbb5f0a	0.022872467
254	0xbd786b4a	-0.060649194
255	0xbd31bd13	-0.043393206

layer2.3.c1.bias f4 [32]
0	0xbd272d84	-0.04081489
1	0x3c2c5f56	0.010520777
2	0x3d3f761b	0.046743494
3	0x3d5f8e3b	0.054579
4	0xbd3760db	-0.044770103
5	0x3beb8799	0.0071877954
6	0xbd1047c9	-0.03522471
7	0x3d71d898	0.05904445
8	0xbccd9403	-0.025094992
9	0x3cf95612	0.03043655
10	0x3d16ce35	0.036817748
11	0xbd510a1d	-0.051035035
12	0xbc9e22ab	-0.01930364
13	0xbd111e83	-0.03542949
14	0x3d4edff5	0.05050655
15	0x3b64255d	0.003481231
16	0x3c6bec48	0.014399596
17	0xbd5926bb	-0.053015452
18	0xbd053709	-0.03252319
19	0x3c360a9e	0.01111093
20	0x3ab940b9	0.0014133669
21	0x3cacef43	0.021110183
22	0xbd3949e2	-0.045236476
23	0xbd6f3cad	-0.058407474
24	0x3d092ff8	0.033493012
25	0x3d58ef5e	0.052962653
26	0xbd7020bf	-0.05862498
27	0xbd529bbe	-0.05141806
28	0x3cd730be	0.02626836
29	0x3c3c00d0	0.011474803
30	0xbd25caaf	-0.040476497
31	0x3d69dbcf	0.05709439

layer2.3.b1.weight f4 [32]
0	0x3f84a303	1.0362247
1	0x3f7bf374	0.98418355
2	0x3f7df8b8	0.9920764
3	0x3f75876a	0.9590975
4	0x3f7eb921	0.99501234
5	0x3f847e76	1.0351093
6	0x3f7773ec	0.9666126
7	0x3f7d6dac	0.9899547
8	0x3f7b0733	0.9805786
9	0x3f7ac821	0.9796162
10	0x3f7ea073	0.99463576
11	0x3f81d380	1.014267
12	0x3f7ff9e9	0.9999071
13	0x3f7cc608	0.9873967
14	0x3f84e699	1.0382873
15	0x3f7928c2	0.97327816
16	0x3f814487	1.0099038
17	0x3f7ff6a3	0.9998571
18	0x3f81ac5a	1.0130723
19	0x3f72d2fa	0.94853175
20	0x3f8075a0	1.0035896
21	0x3f7ce57a	0.98787653
22	0x3f7ef246	0.9958843
23	0x3f809239	1.0044624
24	0x3f7c5a5e	0.9857539
25	0x3f7c8afb	0.9864957
26	0x3f7fcd46	0.999226
27	0x3f77d6f8	0.9681239
28	0x3f72eba0	0.94890785
29	0x3f81149a	1.0084412
30	0x3f822ce9	1.0169955
31	0x3f821871	1.0163709

layer2.3.b1.bias f4 [32]
0	0x3ce2bb76	0.027677279
1	0xbcbffdb1	-0.0234364
2	0xbcf08c85	-0.02936388
3	0xbce97aa5	-0.028500864
4	0xbc456a43	-0.012049261
5	0x3c7c836b	0.015412192
6	0xbd033b17	-0.032038774
7	0xbca2ccd4	-0.01987306
8	0xbc983df5	-0.01858423
9	0xbca0b569	-0.019617753
10	0xbc018fdc	-0.007907834
11	0xbbc71a24	-0.0060761143
12	0xbcb63ffc	-0.022247307
13	0xbcddab7b	-0.027059307
14	0x3c32cbe5	0.01091287
15	0xbc976c0e	-0.018484142
16	0x3c9cb8df	0.019131122
17	0xbc463c5e	-0.012099354
18	0x3c007e6b	0.00784264
19	0xbd223380	-0.039599895
20	0xbb07595c	-0.0020652628
21	0xbcb8be9f	-0.022551833
22	0xbc6a86ce	-0.0143143665
23	0xbbbe552f	-0.0058084945
24	0xbbc4b616	-0.0060031516
25	0xbc48693e	-0.012232123
26	0x3bb9f68c	0.0056751426
27	0xbcd63c74	-0.026151873
28	0xbd28ab36	-0.041178904
29	0x3acbdaa9	0.0015552837
30	0xbb7f8bfb	-0.0038993347
31	0xbb957dec	-0.00456213

layer2.3.b1.running_mean f4 [32]
0	0xbeee7612	-0.46574455
1	0x3ed00e62	0.40635973
2	0xbe6bbcc5	-0.23021229
3	0xbefd0494	-0.49417555
4	0x3e08aa78	0.13346279
5	0xbde4e23a	-0.11175962
6	0xbe8f823d	-0.2802905
7	0xbdb5a47f	-0.08869266
8	0xbe97f75d	-0.2968091
9	0xbd86b0a9	-0.06576664
10	0x3e49bf54	0.19701892
11	0x3c563c36	0.013075879
12	0xbe019787	-0.1265546
13	0xbdaf5bc2	-0.08562423
14	0xbe5f379a	-0.21798554
15	0xbe9fcbf0	-0.3121028
16	0xbe3c60aa	-0.1839625
17	0xbca33355	-0.019921938
18	0x3deefec6	0.11669688
19	0x3e10ce7d	0.14141269
20	0xbe7c5819	-0.24642982
21	0xbe7de78d	-0.24795361
22	0xbe880e1f	-0.26573274
23	0x3d9300e3	0.071779035
24	0xbea06dfc	-0.3133391
25	0x3de65d45	0.112482585
26	0xbe11b7c6	-0.1423026
27	0x3e78f1dd	0.24311014
28	0xbe6ee014	-0.23327667
29	0xbe8fc67f	-0.28081128
30	0x3d6f83cd	0.058475304
31	0x3b17d47d	0.0023167424

layer2.3.b1.running_var f4 [32]
0	0x3da57e1b	0.08080693
1	0x3e02889b	0.12747423
2	0x3de2f050	0.11080992
3	0x3e2c8376	0.16847023
4	0x3e01f440	0.1269083
5	0x3ddfac60	0.1092155
6	0x3e81fa49	0.25386265
7	0x3e6c5b53	0.23081712
8	0x3e759cb7	0.23985563
9	0x3e5bb3ca	0.21455303
10	0x3dbb13fb	0.0913467
11	0x3ddfc444	0.109261066
12	0x3ddb5123	0.10708835
13	0x3e26a923	0.16275458
14	0x3da98f91	0.08279336
15	0x3e7af88c	0.24508876
16	0x3dc54f70	0.09634292
17	0x3df47f06	0.1193829
18	0x3da48a47	0.08034187
19	0x3e4d2061	0.20031883
20	0x3dc4331f	0.09580063
21	0x3e454320	0.19263887
22	0x3dfb5e0c	0.122737974
23	0x3de5f915	0.11229149
24	0x3e0d0164	0.13770062
25	0x3dedd928	0.11613685
26	0x3dd713f2	0.10501851
27	0x3e1b64e9	0.15175213
28	0x3e42b5a6	0.19014606
29	0x3e0f8a48	0.14017594
30	0x3e05c385	0.13062866
31	0x3de60c0e	0.11232768
