models/resNet_2.pth (torch, 128913 bytes, 37 tensors)

stem.0.weight f4 [16, 1, 3, 3]
0	0xbe632630	-0.22182536
1	0x3e3e7069	0.18597569
2	0xbe15afa7	-0.14617787
3	0x3e80b6ab	0.25139365
4	0xbe43122a	-0.19049898
5	0xbe12fbd0	-0.14353871
6	0xbd967b82	-0.07347776
7	0xbe98b37d	-0.2982444
8	0x3cbba5e1	0.022906246
9	0xbe8e28bc	-0.27765453
10	0xbc80e053	-0.015731966
11	0xbe6e524a	-0.23273578
12	0x3e9cd2e2	0.3062964
13	0xbe725d39	-0.23668374
14	0xbc6fbe86	-0.014632827
15	0x3e0e1a9a	0.13877335
16	0xbe994164	-0.29932702
17	0x3d124d0a	0.035718
18	0xbe192c1d	-0.14958234
19	0xbd007caa	-0.03136889
20	0x3e28e38a	0.1649305
21	0x3e2f81fb	0.17139427
22	0xbd83d37f	-0.06436824
23	0x3bdcbae1	0.006736145
24	0xbe4af72f	-0.19820856
25	0x3e94d67f	0.29069898
26	0x3e569cd7	0.20958267
27	0x3e72671e	0.23672149
28	0x3e6cf67a	0.23140898
29	0xbe72201f	-0.23645066
30	0x3e252d14	0.16130477
31	0xbe15125d	-0.14557786
32	0xbe87bdde	-0.26512045
33	0x3e297f05	0.1655236
34	0x3e073cf6	0.13206849
35	0xbe5b0992	-0.2139037
36	0x3df61b1f	0.12016892
37	0xbd2f1e65	-0.042753596
38	0x3e820be5	0.253997
39	0x3e641952	0.22275284
40	0xbea79b1e	-0.32735533
41	0x3e50555a	0.20345059
42	0xbe9a7447	-0.30166838
43	0x3e62baa0	0.22141504
44	0xbdd32d81	-0.103114136
45	0xbe532b46	-0.20621976
46	0x3e1e1250	0.15436673
47	0xbe621628	-0.22078764
48	0x3db2cac6	0.08730082
49	0x3dc552dd	0.096349455
50	0x3d793156	0.060838066
51	0xbe76a0e7	-0.24084817
52	0x3eaa96be	0.33318132
53	0xbc66f698	-0.0140968785
54	0x3e87a335	0.26491705
55	0x3c659c8e	0.014014376
56	0x3e4bc356	0.19898733
57	0xbe1ffd97	-0.1562408
58	0xbe417f71	-0.18896271
59	0x3cfbd30b	0.030740282
60	0x3de82eb0	0.1133703
61	0xbea2ac49	-0.31772068
62	0xbe2eb068	-0.17059481
63	0xbe8fd81f	-0.28094575
64	0xbe4442ea	-0.1916615
65	0x3e4afb91	0.19822527
66	0x3e570276	0.20997033
67	0xbe9a5cad	-0.3014883
68	0xbe9dcf0f	-0.30822036
69	0x3ea9e9f1	0.33186296
70	0x3e41c16f	0.18921445
71	0x3e2cd974	0.16879827
72	0xbea4819d	-0.32130137
73	0xbe0244d5	-0.1272157
74	0x3e3cb9fb	0.18430321
75	0xbd5b6197	-0.053559866
76	0xbe363930	-0.17795253
77	0x3e6b8cbe	0.23002908
78	0x3d4f2f4b	0.05058221
79	0x3e9f1e49	0.31077793
80	0x3e1a55f7	0.15071855
81	0x3e174f4b	0.14776342
82	0x3c9b1707	0.018931879
83	0x3e6f8f02	0.23394397
84	0x3e928643	0.2861806
85	0x3e808c0f	0.25106856
86	0xbe1f394f	-0.15549205
87	0x3dda2adc	0.10652706
88	0x3e485131	0.19562222
89	0xbda0a7f0	-0.078445315
90	0xbe04c63f	-0.1296625
91	0x3e1543dc	0.14576668
92	0x3d5a77e0	0.053336978
93	0xbe28b2a7	-0.164744
94	0x3d1def7f	0.03855848
95	0xbe9c4d01	-0.305275
96	0x3cba1faa	0.022720177
97	0xbd87e58e	-0.06635581
98	0x3e87de6f	0.2653689
99	0x3e4df355	0.20112355
100	0xbc972b3a	-0.01845323
101	0xbdb6ac1c	-0.08919546
102	0xbd779cca	-0.06045226
103	0xbdc81305	-0.09769253
104	0xbe12889c	-0.14309925
105	0xbdc9a3ae	-0.098456725
106	0xbe84d433	-0.25943145
107	0x3def2ec4	0.11678842
108	0x3d9b8b82	0.075949684
109	0xbe08c8eb	-0.13357894
110	0x3bdb0b0f	0.006684668
111	0x3ea9767c	0.3309821
112	0xbe6b5834	-0.22982866
113	0x3e8aaa75	0.27083173
114	0x3bc2ef79	0.0059489575
115	0x3e546f58	0.207456
116	0xbd62bbb7	-0.0553548
117	0xbe907bf2	-0.28219563
118	0x3e45c1a0	0.19312143
119	0x3ea3f77b	0.3202475
120	0x3e1c742a	0.15278688
121	0x3e979480	0.29605484
122	0x3e209d99	0.15685119
123	0x3c4ebc8e	0.012618197
124	0x3e9ebbd7	0.31002685
125	0xbe7dfb14	-0.2480281
126	0xbe3763fa	-0.17909232
127	0x3d078140	0.033082247
128	0xbd9f6788	-0.07783419
129	0x3e5b6e0a	0.21428695
130	0x3e6c3178	0.23065746
131	0x3db50916	0.08839624
132	0x3e2931df	0.1652293
133	0xbe8fd736	-0.2809388
134	0xbe9ec019	-0.31005934
135	0x3e947162	0.28992754
136	0x3e7a19e3	0.24423937
137	0xbe8bb4e9	-0.2728646
138	0x3cf1385b	0.029445818
139	0xbd7f4f31	-0.062331382
140	0x3e2ba82b	0.1676337
141	0x3e9d5896	0.30731648
142	0xbe948377	-0.2900655
143	0xbe8146aa	-0.25249225

stem.0.bias f4 [16]
0	0x3dddb87d	0.10826204
1	0xbe9597ca	-0.29217368
2	0xbdc5b75a	-0.09654112
3	0xbd6173e3	-0.05504216
4	0xbdad3739	-0.084577985
5	0x3ea7d748	0.32781434
6	0x3e0b5d0a	0.1360971
7	0x3e22f784	0.15914732
8	0xbea2cc4f	-0.317965
9	0x3e34be8a	0.1765081
10	0x3d497cef	0.04919141
11	0x3e917f26	0.2841732
12	0x3e5f4c2a	0.21806398
13	0x3e3defa9	0.18548454
14	0xbc49601e	-0.0122909825
15	0xbe3e9c52	-0.18614319

stem.1.weight f4 [16]
0	0x3f7c2b3e	0.9850348
1	0x3f820c72	1.0160048
2	0x3f819a69	1.0125247
3	0x3f7a507f	0.9777908
4	0x3f7fc374	0.9990761
5	0x3f801380	1.0005951
6	0x3f7a7372	0.97832406
7	0x3f81a9bc	1.0129924
8	0x3f751c6a	0.9574648
9	0x3f79fda5	0.97652656
10	0x3f80ddc3	1.0067676
11	0x3f7c0d46	0.98457754
12	0x3f7b515e	0.9817103
13	0x3f76891d	0.9630297
14	0x3f7603c0	0.9609947
15	0x3f792831	0.9732695

stem.1.bias f4 [16]
0	0x3b506043	0.0031795658
1	0xbc595ed1	-0.013267235
2	0xbce3ef74	-0.027824141
3	0x3c2b0b1b	0.0104396595
4	0xbb6c0bdd	-0.0036017813
5	0x3ce89412	0.028390918
6	0xbcaa6d5a	-0.020804096
7	0x3d161e91	0.036650244
8	0xbd1a5da6	-0.037686966
9	0x3b635687	0.0034689025
10	0xbb62a136	-0.0034580952
11	0xbc8f731e	-0.017510947
12	0xbd097b47	-0.033564832
13	0xbbeffff2	-0.007324212
14	0xbcc5a5cf	-0.024126915
15	0x3c870e71	0.016486378

stem.1.running_mean f4 [16]
0	0x3de89967	0.11357384
1	0xbe932728	-0.2874081
2	0xbdcdf4ab	-0.10056432
3	0xbd640063	-0.05566443
4	0xbdb0b68a	-0.086285666
5	0x3ea75cf0	0.32688093
6	0x3e0da577	0.13832651
7	0x3e225eae	0.1585643
8	0xbea3fd65	-0.32029262
9	0x3e2c4e84	0.16826826
10	0x3d4e3eb9	0.050352786
11	0x3e93711a	0.28797227
12	0x3e5aece3	0.21379428
13	0x3e359d61	0.17735817
14	0xbc3528be	-0.011057077
15	0xbe3fc57f	-0.18727683

stem.1.running_var f4 [16]
0	0x3e52babb	0.20579045
1	0x3e8a25b5	0.26981893
2	0x3e2ceb31	0.16886593
3	0x3e7bd4c3	0.24592881
4	0x3e13a887	0.14419757
5	0x3e096c6f	0.1342027
6	0x3ef18640	0.47172737
7	0x3f39d34b	0.7258803
8	0x3eddebc0	0.43343925
9	0x3ef38973	0.47565803
10	0x3e26e844	0.1629954
11	0x3e5b4bb7	0.21415602
12	0x3e237ca6	0.15965518
13	0x3f1c806f	0.61133474
14	0x3ec3d1c6	0.38245982
15	0x3e90fc72	0.283176

layer1.c1.weight f4 [16, 16, 3, 3]
0	0xbc45a1cd	-0.012062502
1	0x3d3f1ab5	0.04665633
2	0xbbf6133a	-0.007509616
3	0xbd2c1f41	-0.042021994
4	0xbda3b729	-0.079939194
5	0xbd7824a4	-0.06058182
6	0xbd3c5493	-0.045979094
7	0xbce201d7	-0.027588768
8	0x3a63c82a	0.00086891896
9	0xbda737ca	-0.08164938
10	0x3cf5cb35	0.030004123
11	0xbdacefd6	-0.084441826
12	0x3d44a57e	0.04800939
13	0xbc9c6928	-0.019093111
14	0x3c7c77a1	0.015409381
15	0xb9a710e6	-0.00031865312
16	0x3d8aeb57	0.06783169
17	0x3cd96079	0.02653526
18	0xbd2fdd61	-0.042935733
19	0x3cd5c43a	0.026094545
20	0x3cf763f3	0.030199027
21	0x3d890707	0.066907935
22	0x3d1d0514	0.03833492
23	0x3d62d392	0.05537755
24	0x3c122a99	0.008921289
25	0xbd888eae	-0.06667839
26	0xba195f56	-0.0005850693
27	0xbb8b1762	-0.004244731
28	0x3c1a8b1a	0.009432578
29	0xbc5416f8	-0.012944929
30	0xbd257a65	-0.040399928
31	0xbc6f3626	-0.014600312
32	0xbc2c8e12	-0.010531919
33	0x3bca48fb	0.0061732507
34	0xbcaf3a5a	-0.021390129
35	0xbcb87d78	-0.022520766
36	0x3cff61d5	0.03117458
37	0xbc24d21e	-0.0100598615
38	0xbd5e8bae	-0.054332428
39	0x3d978e81	0.07400227
40	0x3d4b52e2	0.04963959
41	0x3aaba22e	0.0013094598
42	0xbd3116d6	-0.04323467
43	0x3d37c874	0.0448689
44	0x3d483723	0.048880707
45	0xbdcb6f98	-0.09933394
46	0xbdcc65ac	-0.0998033
47	0xbde6e27c	-0.11273667
48	0x3d9f418c	0.07776174
49	0x3d06dccb	0.03292541
50	0xbc0d4d4d	-0.008624387
51	0x3d35d528	0.044392735
52	0xbd31efe5	-0.043441672
53	0xbd6931f8	-0.05693242
54	0x3d1deeea	0.038557924
55	0x3ba36961	0.0049869274
56	0xbca7e452	-0.020494614
57	0xbd9bd7a6	-0.07609491
58	0xbd8555f6	-0.065105364
59	0x3cd83754	0.02639357
60	0xbd22af93	-0.039718222
61	0x3d02a1dd	0.031892646
62	0x3d6baf6c	0.057540342
63	0xbd1cf31f	-0.038317796
64	0xbc5eab05	-0.013590579
65	0xbc95f41b	-0.018304875
66	0xbd066a65	-0.03281631
67	0xbd5b5e4c	-0.053556725
68	0x3d592267	0.053011324
69	0xbd211f69	-0.039336596
70	0xbd0bf15f	-0.034165736
71	0xbd8a33d9	-0.067481704
72	0xbb3953ee	-0.0028278786
73	0xbd209b09	-0.039210353
74	0x3d1c5fd9	0.038177345
75	0xbd8a42bc	-0.0675101
76	0xbdaf11eb	-0.085483395
77	0x3cc93cec	0.024565183
78	0xbc07dfd0	-0.008293107
79	0xbc0c4ed7	-0.008563719
80	0x3d3971f4	0.04527469
81	0xbd08b372	-0.033374257
82	0xbd206d61	-0.03916681
83	0x3a8f41fa	0.0010929697
84	0x3ced4a24	0.028966017
85	0x3d17881f	0.03699505
86	0xbc66f298	-0.014095925
87	0x3af20149	0.0018463518
88	0x3d0265f5	0.031835515
89	0x3d6aa0af	0.057282146
90	0x3c2a9335	0.010411073
91	0x3d64a42b	0.055820625
92	0x3d19192f	0.037377533
93	0x3d8243ec	0.06360611
94	0x3d5434cd	0.051808167
95	0xbd8c1cc0	-0.06841421
96	0xbd840b4c	-0.06447467
97	0xbdbb7aee	-0.09154306
98	0x3d9e2077	0.07721036
99	0x3ce03497	0.027368827
100	0x3d7d7e54	0.061888054
101	0xbd87adea	-0.06624968
102	0x3c9c536e	0.019082751
103	0xbd1c50f4	-0.03816314
104	0x3d22901d	0.03968822
105	0x3d739be1	0.05947483
106	0xbc1f855f	-0.009736388
107	0xbc2e320f	-0.010632052
108	0x3dc5af50	0.09652579
109	0x3d8afeca	0.067868784
110	0xbda4409b	-0.08020135
111	0x3c7db117	0.015484116
112	0x3d7e22b5	0.062044818
113	0x3da69996	0.08134763
114	0x3ce8f8a8	0.028438881
115	0x3c91a4d1	0.017778786
116	0xbd3941a8	-0.04522863
117	0x3d539560	0.051656127
118	0xbb1f3dff	-0.0024298427
119	0xbdd5a324	-0.10431507
120	0x3d174206	0.0369282
121	0x3d4c0397	0.04980811
122	0x3d62f500	0.05540943
123	0x3d22a059	0.0397037
124	0xbd435324	-0.04768671
125	0x3d20e03a	0.03927634
126	0x3cab49d2	0.020909224
127	0xbd8a3bc6	-0.06749682
128	0xbdbe19e2	-0.092822805
129	0x3cf71af6	0.030164223
130	0xbd96f0c9	-0.07370145
131	0xbcebbe89	-0.028777378
132	0xbd9e8905	-0.07740978
133	0xbd88fe18	-0.066890895
134	0xbd15be73	-0.03655858
135	0xbd1d5f72	-0.038421102
136	0x3cd2da9a	0.025739003
137	0xb8e524a8	-0.00010926399
138	0x3d10f072	0.035385557
139	0x3d0cc4a8	0.034367234
140	0x3d28c482	0.04120303
141	0x3be8b32b	0.0071014366
142	0x3da9c73d	0.08289955
143	0x3ce3d1b2	0.027809951
144	0x3c050725	0.008119379
145	0x3b1482ea	0.0022661039
146	0xbcb7de9d	-0.022445017
147	0xbd168e59	-0.036756847
148	0x3cc7d7db	0.02439492
149	0xbcba3ba1	-0.022733511
150	0x3da0e7d8	0.07856721
151	0x3cafaa9c	0.021443658
152	0x3d386901	0.045022015
153	0xbc8909a1	-0.016728224
154	0xbbd4864c	-0.006485736
155	0x3d4c4f81	0.04988051
156	0xbd897bbd	-0.06713054
157	0x3b908a12	0.0044109905
158	0xbc96e6fa	-0.018420685
159	0xbd2c6660	-0.04208982
160	0xbbd92482	-0.0066266665
161	0xbc6eb7f5	-0.014570226
162	0x3db48db2	0.08816089
163	0x3c703995	0.014662166
164	0x3d9d06ea	0.076673344
165	0xbd861686	-0.06547265
166	0x3d729e04	0.059232727
167	0x3c3ee7ee	0.011651976
168	0x3d95e47b	0.0731897
169	0x3c085682	0.008321406
170	0xbb23d264	-0.0024997229
171	0x3d4272ed	0.047472883
172	0x3d860bb4	0.06545201
173	0x3d75cec5	0.060011644
174	0xbcf5c482	-0.030000929
175	0x3d6b2753	0.05741055
176	0x3d203cfb	0.039120656
177	0x3c31b1b2	0.0108455885
178	0x3d9f5655	0.077801384
179	0x3cc01d47	0.02345146
180	0x3dadb877	0.084824495
181	0xbc35c286	-0.011093741
182	0xbd9baa2f	-0.07600819
183	0x3d915c88	0.07097727
184	0xbc4e8272	-0.012604343
185	0x3dcb842b	0.099373184
186	0xbd411672	-0.047140546
187	0x3d962579	0.07331366
188	0x3d82c88d	0.06385908
189	0xbc76abd1	-0.015055613
190	0x3d8149e8	0.063129246
191	0xbd841cb7	-0.064507894
192	0xbbcefb3e	-0.0063165715
193	0xbdb671db	-0.08908435
194	0x3d1e5370	0.03865379
195	0xbcfbc63a	-0.03073417
196	0x3da42b13	0.08016028
197	0x3d69bbe0	0.057063937
198	0x3da41a0a	0.08012779
199	0x3d0fffa6	0.035155915
200	0xbd7e4635	-0.062078673
201	0x3cc18bad	0.023626173
202	0xbd87e8c6	-0.06636195
203	0x3d337809	0.043815646
204	0x3caf4220	0.021393836
205	0x3be2df4d	0.006923592
206	0x3bce6cbb	0.006299583
207	0x3c6af040	0.014339507
208	0xbd48ad22	-0.048993237
209	0xbb0bb4bc	-0.0021317443
210	0x3d91336d	0.07089887
211	0xbb84b50e	-0.0040499037
212	0x3dad97af	0.08476197
213	0x3d954483	0.07288458
214	0x3c9d7f61	0.019225778
215	0xbc35c9f3	-0.011095512
216	0xbd0e7dfa	-0.03478811
217	0xbd28f337	-0.041247573
218	0x3d2f8f96	0.042861544
219	0xbd646acc	-0.055765912
220	0x3c1dfef6	0.009643307
221	0xba34aa07	-0.0006891791
222	0x3d40e628	0.047094494
223	0xbbb57f9b	-0.0055388934
224	0x3d477a53	0.04870064
225	0xbd0830eb	-0.033249777
226	0x3d885f04	0.06658748
227	0x3cbcf12f	0.023064224
228	0xbd1b1df8	-0.037870377
229	0x3d18bb5a	0.037288047
230	0xbd14b5f7	-0.036306348
231	0x3d11a420	0.035556912
232	0x3d5fd43b	0.054645758
233	0xbc10a064	-0.008827303
234	0x3c9799c8	0.018505946
235	0xbd9a0e36	-0.07522242
236	0xbd1bcf69	-0.0380396
237	0x3d042ee5	0.032271285
238	0x3d3144a0	0.043278337
239	0x3c832c4e	0.016012337
240	0xbd2d27bb	-0.042274218
241	0x3cce5924	0.02518899
242	0xbd16a0f7	-0.0367746
243	0x3b291d23	0.002580472
244	0x3d622faf	0.055221256
245	0x3d214187	0.039369132
246	0x3db368af	0.08760201
247	0x3d8227cb	0.06355246
248	0x3d2be6c2	0.041968115
249	0xbd421e25	-0.04739203
250	0x3ce3dc53	0.02781502
251	0x3d9f78bc	0.077867
252	0xbd710a09	-0.05884746
253	0x3d4b49aa	0.0496308
254	0xbd844899	-0.064591594
255	0x3c0a27e0	0.0084323585

layer1.c1.bias f4 [16]
0	0xbd2d6d0e	-0.04234033
1	0xbd81075a	-0.0630023
2	0xbd88683f	-0.06660508
3	0xbd6cf91d	-0.05785476
4	0x3d2d3618	0.042287916
5	0xbd630d8e	-0.05543285
6	0x3da1b6e5	0.078962125
7	0x3cd3ea24	0.025868483
8	0x3d88f86e	0.06688009
9	0x3d30a303	0.04312421
10	0xbd8e70aa	-0.06955083
11	0xbd3a5208	-0.045488387
12	0x3ccf39a2	0.025296036
13	0xbbf7d07d	-0.0075626955
14	0xbc59ef65	-0.013301705
15	0x3d8a157c	0.06742379

layer1.b1.weight f4 [16]
0	0x3f7f860a	0.998139
1	0x3f8063b0	1.0030422
2	0x3f80c470	1.0059948
3	0x3f7c93d7	0.98663086
4	0x3f8025ad	1.0011498
5	0x3f7eb430	0.99493694
6	0x3f82434b	1.0176786
7	0x3f81bb7a	1.0135338
8	0x3f7dc679	0.9913097
9	0x3f7d66d5	0.98985034
10	0x3f8247dd	1.0178181
11	0x3f7dfef8	0.99217176
12	0x3f807ebc	1.0038676
13	0x3f7e8626	0.99423444
14	0x3f813035	1.0092837
15	0x3f7d2ac4	0.9889338

layer1.b1.bias f4 [16]
0	0xbcd79331	-0.026315304
1	0x3be9461c	0.0071189534
2	0xbd69f700	-0.057120323
3	0xbca90a1c	-0.020634703
4	0xbbdabee1	-0.0066755866
5	0xbd304b9b	-0.043040853
6	0xbbb8d914	-0.005641112
7	0x3bb65cfe	0.0055652848
8	0xbc0ecebf	-0.008716284
9	0xbc29c592	-0.010362046
10	0x3be94ac0	0.0071195066
11	0xbc6b2091	-0.014351026
12	0xbc1168db	-0.008875097
13	0xba532de4	-0.00080558495
14	0xbc4a236d	-0.012337548
15	0xbb846e2b	-0.0040414534

layer1.b1.running_mean f4 [16]
0	0xbe86f324	-0.26357377
1	0x3f7852ae	0.9700116
2	0xbe7761d5	-0.24158414
3	0xbeca7080	-0.39538956
4	0xbe9b9b75	-0.30392042
5	0x3f3cad87	0.7370228
6	0xbf087e4a	-0.533177
7	0xbf095089	-0.5363851
8	0x3dcc9a3f	0.099903576
9	0xbedae18d	-0.42750207
10	0xbee3728f	-0.4442334
11	0xbed1f139	-0.4100435
12	0xbf0ae1c8	-0.54250765
13	0x3e69ad0c	0.22819918
14	0xbf0197cb	-0.5062224
15	0x3eb72ee3	0.3577796

layer1.b1.running_var f4 [16]
0	0x3ea42c4b	0.32065043
1	0x3f0b559d	0.5442751
2	0x3e6cb7d3	0.23116998
3	0x3e783004	0.24237067
4	0x3e4cba3c	0.19992918
5	0x3ef9014d	0.48633805
6	0x3ec07124	0.3758632
7	0x3ec7d0c4	0.39026463
8	0x3ea436a7	0.32072946
9	0x3e7ec9e7	0.24881707
10	0x3e2e38f3	0.17013912
11	0x3e6f1be4	0.23350483
12	0x3e71ac3d	0.2360086
13	0x3e328369	0.17432941
14	0x3e66a5cd	0.22524185
15	0x3e2bfd24	0.16795784

layer1.c2.weight f4 [16, 16, 3, 3]
0	0x3d0d4101	0.03448582
1	0xbb489024	-0.0030603493
2	0x3dbaf589	0.09128863
3	0xbd544a8c	-0.051828906
4	0xbd9feefd	-0.07809255
5	0x3d8f05ad	0.069835044
6	0x3d9a4fed	0.07534776
7	0xbd529e9a	-0.051420785
8	0x3da6174b	0.081099115
9	0xbd75e1a7	-0.060029652
10	0xbd79dd7b	-0.061002236
11	0xbcb0ee0c	-0.021597885
12	0x3b974679	0.0046165553
13	0x3d4dda34	0.050256923
14	0x3c8dee1f	0.017325459
15	0xbd72c224	-0.05926718
16	0xbdb0e67d	-0.08637712
17	0x3d864403	0.06555941
18	0xbd11c2d4	-0.035586193
19	0xbbdcb78d	-0.006735748
20	0x3da3ce9d	0.07998393
21	0x3d6ba862	0.05753363
22	0x3c047dcc	0.008086633
23	0x3d9753c7	0.07389026
24	0x3d9cb78d	0.07652197
25	0xbcd3f1bb	-0.025872102
26	0xbd42bcef	-0.047543462
27	0x3d4e28eb	0.05033199
28	0xbcf9c8ba	-0.030491222
29	0xbd09a721	-0.033606652
30	0xbd88a11e	-0.06671356
31	0x3d01f95a	0.03173194
32	0x3d20f0f6	0.0392923
33	0xbc3385dd	-0.010957208
34	0x3b915e6a	0.004436304
35	0xbd8aeb55	-0.06783167
36	0xbd3823e6	-0.04495611
37	0x3cf492e5	0.029855201
38	0xbcfce2f5	-0.03086994
39	0xbd9aaf8a	-0.07553013
40	0x3d83bede	0.064328894
41	0x3dc57299	0.096409984
42	0xbd5873b9	-0.052844737
43	0xbd9fb151	-0.07797492
44	0x3d8da1a7	0.06915598
45	0xbd8c8615	-0.068615116
46	0x3cdddaf9	0.027081953
47	0xbdbd5894	-0.092454106
48	0xbce5b674	-0.028041102
49	0x3c9be5ab	0.019030413
50	0x3c9f22cf	0.019425778
51	0x3d8d1f73	0.06890764
52	0x3d206569	0.039159212
53	0xbdc2011c	-0.09472868
54	0xbb5551d9	-0.0032550006
55	0x3cd804cf	0.02636948
56	0xbda9185e	-0.08256601
57	0x3d883b57	0.06651943
58	0x3c8f8cda	0.017523218
59	0x3bb52427	0.0055279913
60	0x3d186e34	0.037214473
61	0xbd7eef57	-0.06223997
62	0x3bf1e779	0.00738233
63	0x3b6a128b	0.003571662
64	0xbd448d2f	-0.047986206
65	0x3db92e8b	0.090420805
66	0x3d97321c	0.073826045
67	0x3c9e215b	0.019303015
68	0xbd0522ff	-0.032504078
69	0xbd736e90	-0.059431612
70	0xbcdbe234	-0.02684126
71	0x3db42502	0.08796121
72	0xbc7376ba	-0.01485985
73	0xbca1fb5e	-0.019773182
74	0xbd062bb5	-0.032756526
75	0x3cb629da	0.022236753
76	0x3d4c51b7	0.049882617
77	0xbcd9c6ad	-0.026583994
78	0xbb665307	-0.0035144703
79	0x3da6cc13	0.08144393
80	0x3d669255	0.056291897
81	0x3b7408a7	0.0037236603
82	0x3d29fb19	0.04149923
83	0xbcd74c70	-0.026281565
84	0x3d9180c0	0.07104635
85	0xbc9c6a33	-0.019093608
86	0x3d09edaa	0.03367392
87	0xbd3d01be	-0.04614424
88	0xbd092413	-0.03348167
89	0xbd351abe	-0.044214956
90	0x3dd310a1	0.10305906
91	0x3d130687	0.035894897
92	0xbd6713cc	-0.056415364
93	0xbd25f182	-0.040513523
94	0xbd82217c	-0.06354043
95	0x3d42a76f	0.04752296
96	0x3cb7e185	0.022446403
97	0x3d8dcf15	0.069242634
98	0x3cd1ec59	0.025625395
99	0x3c20987a	0.009801978
100	0x3caf2600	0.021380424
101	0x3d76e850	0.060280144
102	0xbc83aaad	-0.016072595
103	0x3cbc389b	0.02297621
104	0x3c780171	0.015137062
105	0xbd1f4313	-0.038882326
106	0x3d661bb7	0.056178775
107	0xbc126b61	-0.008936734
108	0x3ce28d6d	0.027655328
109	0xbd6236ad	-0.055227924
110	0x3d1eda67	0.038782503
111	0x3b58dfa1	0.0033092278
112	0xbd1ee5e3	-0.038793456
113	0xbd424324	-0.04742731
114	0x3dc1c270	0.09460914
115	0x3d110cfd	0.035412777
116	0xbd6f2e28	-0.058393627
117	0x3aa5d7b9	0.0012652791
118	0xbda47f3e	-0.08032082
119	0xbb038502	-0.0020068293
120	0xbced82e7	-0.028993083
121	0x3d64fbfb	0.05590437
122	0xbd351b69	-0.044215593
123	0x3c3a0968	0.011354782
124	0x3db9a79c	0.09065172
125	0xbcc0bf9e	-0.02352887
126	0x3c943945	0.018093714
127	0xbc4b7dc7	-0.012420124
128	0xbc271439	-0.010197693
129	0xbd48f057	-0.04905733
130	0x3da842b9	0.08215851
131	0xbd6f2f28	-0.05839458
132	0xbd07995d	-0.033105243
133	0x3da9e4df	0.08295607
134	0x3c1549dc	0.009111848
135	0xbd1f9479	-0.038959954
136	0x3c53011e	0.012878684
137	0x3aa83cc9	0.0012835498
138	0xbcd0540f	-0.025430707
139	0x3cbb35c6	0.02285279
140	0xbd229d05	-0.039700527
141	0xbd574299	-0.052553747
142	0xbd48e336	-0.04904481
143	0xbcc8a871	-0.024494382
144	0xbd40ca62	-0.047068007
145	0xbce342be	-0.027741786
146	0xbcd548d2	-0.0260357
147	0xbd2b3a7c	-0.041803822
148	0x3cf4facb	0.029904744
149	0xbd4e359b	-0.05034409
150	0x3d78b4c8	0.06071928
151	0xbd97fd64	-0.07421377
152	0xbd74bfc7	-0.059753206
153	0x3db1f234	0.08688775
154	0xbd649526	-0.0558063
155	0xbd8ee986	-0.06978135
156	0xbc434935	-0.011919309
157	0x3d6dcd24	0.058056965
158	0x3c8c7df8	0.01714991
159	0xbd12f15d	-0.035874713
160	0xbdcb53f1	-0.0992812
161	0xbb74ca3d	-0.0037351989
162	0xbcbcdb9c	-0.023053937
163	0xbd95bec6	-0.07311778
164	0xbdc4cc56	-0.096092865
165	0x3d138ade	0.036021106
166	0x3d184537	0.037175383
167	0x3d2af12f	0.041733917
168	0xbcc6882e	-0.024234857
169	0xbdb01fc0	-0.08599806
170	0xbd17fe0e	-0.03710752
171	0x3c22b3c3	0.009930554
172	0x3cb03c9e	0.02151328
173	0xbcda318b	-0.026634952
174	0x3c82d354	0.01596991
175	0x392c4cba	0.00016431781
176	0x3cff797a	0.031185854
177	0x3d33f741	0.04393697
178	0xbc27145c	-0.010197725
179	0x3c225aa4	0.009909306
180	0xbc5b424f	-0.013382508
181	0xbda65d43	-0.08123257
182	0xbd53541f	-0.051593896
183	0x3c50420d	0.01271106
184	0xbca5f49b	-0.020258239
185	0x3c3603fb	0.011109347
186	0xbd93c11e	-0.072145686
187	0x3cb23dc4	0.021757968
188	0xbd324d05	-0.043530483
189	0x3d26874b	0.04065637
190	0xbd80cd75	-0.06289188
191	0xbd19388e	-0.03740745
192	0x3d8bd79d	0.06828234
193	0x3d8e8da0	0.069606066
194	0x3c197a31	0.009367512
195	0xbd9a8968	-0.075457394
196	0xbce4b855	-0.027919928
197	0xbcf0bc1b	-0.02938657
198	0xbcdbd515	-0.026835004
199	0xbd249c4a	-0.04018811
200	0xba25d7c2	-0.0006326401
201	0x3d2ca143	0.04214598
202	0xbd4c818c	-0.049928233
203	0x3db732c2	0.08945228
204	0xbbc5577a	-0.006022391
205	0xbbc5d323	-0.0060371323
206	0x3d94e3c9	0.07270009
207	0xbc1d980e	-0.009618772
208	0x3cb96414	0.022630729
209	0x3d8770e2	0.066133276
210	0x3d956b78	0.07295889
211	0x3da0e851	0.07856811
212	0xbbdba962	-0.0067035416
213	0x3cf3abf4	0.02974508
214	0x3cd023f7	0.025407774
215	0x3d582620	0.052770734
216	0xbcbb42dd	-0.022859031
217	0xbc28c7f1	-0.010301576
218	0x3db1c412	0.086799756
219	0x3d365a6a	0.04451982
220	0xbd819a06	-0.06328206
221	0x3d9c929b	0.0764515
222	0xbc91898a	-0.017765779
223	0x3c91c707	0.017795099
224	0xbc43813c	-0.011932667
225	0xbd0dddb2	-0.034635253
226	0xbd1a8736	-0.037726603
227	0x3c83b3ca	0.016076941
228	0xbce358ac	-0.027752243
229	0xbd4a203a	-0.04934714
230	0x3cbd2a77	0.023091538
231	0x3d4a6599	0.049413297
232	0xbd92a772	-0.07160844
233	0xbcd33f36	-0.025786977
234	0x3d80abdd	0.0628278
235	0x3cc6ece1	0.024282875
236	0xbb0a8d77	-0.0021141449
237	0x3c1c287e	0.009531138
238	0xb8a56436	-7.886479e-05
239	0xbd0606f5	-0.03272148
240	0x3c885a58	0.016644642
241	0x3da270bf	0.07931661
242	0x3d95a27d	0.07306383
243	0x3dabad99	0.083827205
244	0x3c1d4046	0.0095978435
245	0x3d5279de	0.051385753
246	0x3db5919a	0.08865662
247	0x3d173ffc	0.036926255
248	0xbc2e624e	-0.010643555
249	0xbc8d467f	-0.01724553
250	0x3d98f751	0.07469047
251	0x3da8fc0d	0.082512
252	0xbd1f7dad	-0.038938213
253	0xbd4f3716	-0.050589643
254	0xbccd513e	-0.025063153
255	0x3d66705c	0.056259498

layer1.c2.bias f4 [16]
0	0xbce04c85	-0.027380237
1	0xbd47565f	-0.048666354
2	0x3bcc2b91	0.0062307795
3	0xbda433e0	-0.08017707
4	0x3d5d5124	0.05403246
5	0x3cc9ae0e	0.024619129
6	0xbd89593b	-0.067064725
7	0xbda5b8e0	-0.08091903
8	0xbd17abb4	-0.037028983
9	0x3cef1e69	0.029189305
10	0xbcf4b2ab	-0.029870352
11	0xbd35ea81	-0.044413093
12	0x3dbb4260	0.091435194
13	0xbc1cfaaf	-0.009581252
14	0x3db5bc1b	0.08873769
15	0xbd9a58d9	-0.075364776

layer1.b2.weight f4 [16]
0	0x3f857de0	1.0429039
1	0x3f8296e4	1.0202298
2	0x3f8243c6	1.0176933
3	0x3f84b458	1.0367537
4	0x3f83e043	1.0302814
5	0x3f7dc578	0.9912944
6	0x3f846bd8	1.0345411
7	0x3f83f2c6	1.0308464
8	0x3f838c6d	1.027723
9	0x3f82c447	1.0216149
10	0x3f853f20	1.0409889
11	0x3f7bb2a4	0.9831946
12	0x3f79a47c	0.9751661
13	0x3f850d74	1.039473
14	0x3f8350f3	1.0259079
15	0x3f836cc0	1.0267563

layer1.b2.bias f4 [16]
0	0xbc414799	-0.011796855
1	0xbc4e1968	-0.0125792995
2	0xbbb7f5a1	-0.005613998
3	0xbd2c961e	-0.04213535
4	0xbc5cb607	-0.013471133
5	0xbb5cc04d	-0.0033683956
6	0xbd34f600	-0.044179916
7	0xbcc5cda4	-0.024145909
8	0x3b55651b	0.0032561484
9	0xbbc95dc7	-0.0061452123
10	0xbcf42b22	-0.029805724
11	0xbbc6b2db	-0.0060638017
12	0xbba87aa4	-0.005141573
13	0xbd2acfad	-0.04170196
14	0xbd26629f	-0.040621396
15	0x3c1ad7bb	0.009450848

layer1.b2.running_mean f4 [16]
0	0x3d51c48c	0.051212832
1	0x3c9a4e39	0.018836128
2	0xbe83d725	-0.2575008
3	0x3e08bb13	0.13352613
4	0xbde30d06	-0.110864684
5	0xbecb07f1	-0.39654496
6	0xbe705927	-0.23471509
7	0x3e76c68a	0.24099174
8	0x3e14f54c	0.14546698
9	0x3d4a089a	0.04932461
10	0xbb6140b4	-0.0034370841
11	0x3df4122c	0.119175285
12	0xbd806e8b	-0.062710844
13	0xbd997c87	-0.07494455
14	0xbc38aeb9	-0.011272126
15	0xbe96dd2e	-0.29465622

layer1.b2.running_var f4 [16]
0	0x3dd7f22a	0.10544236
1	0x3dc3df11	0.09564031
2	0x3de3489a	0.11097832
3	0x3dfb3d6e	0.12267576
4	0x3e06de63	0.13170771
5	0x3d9a6dda	0.07540484
6	0x3da6507a	0.081208184
7	0x3e4b832f	0.19874261
8	0x3dc60cf1	0.09670437
9	0x3d733522	0.059376843
10	0x3dc7cde3	0.09756067
11	0x3dbaae60	0.09115291
12	0x3dfd79cc	0.123767465
13	0x3d9c1e24	0.07622936
14	0x3e0e92ce	0.13923189
15	0x3dbd63e8	0.09247571

layer2.0.weight f4 [32, 16, 3, 3]
0	0xbc2b76cd	-0.010465336
1	0x3a8fcc3e	0.0010970903
2	0x3cee77c4	0.029109843
3	0xbc33c562	-0.010972353
4	0x3d9ba8a9	0.07600529
5	0x3d2dfb61	0.04247606
6	0x3d510594	0.05103071
7	0x3c3b3a67	0.011427498
8	0x3d808473	0.06275263
9	0xbc0b476b	-0.008500914
10	0xbda57622	-0.08079173
11	0xbdc40396	-0.095709965
12	0x3ca4eb42	0.02013171
13	0x3cf71cf0	0.030165166
14	0x3dc0b4a4	0.094094545
15	0x3ce57d4b	0.028013846
16	0x3ceae492	0.028673444
17	0xbd1a0ee5	-0.03761186
18	0xbd9ee144	-0.0775781
19	0xbd1fe726	-0.0390388
20	0x3cc736d5	0.024318138
21	0x3d14c9c1	0.03632522
22	0x3c6401ae	0.013916416
23	0x3d1785b2	0.036992736
24	0x3d714efa	0.05891321
25	0xbc3cccc0	-0.011523426
26	0xba2de3c1	-0.0006633364
27	0xbc3639a7	-0.011122144
28	0x3c7ef6dc	0.015561786
29	0x3d0088e8	0.031380564
30	0x3d102f76	0.035201512
31	0x3d935078	0.071930826
32	0x3d9ba430	0.07599676
33	0xba39ce2e	-0.0007087913
34	0x3d420a9b	0.047373395
35	0xbc941024	-0.018074103
36	0xbb113b18	-0.0022160467
37	0x3db4e4c2	0.088326946
38	0x3d624a80	0.05524683
39	0xbc7badbf	-0.0153612485
40	0x3d739225	0.059465546
41	0xbb44e657	-0.003004452
42	0xbcfd0c9c	-0.030889802
43	0x3d2a720a	0.041612662
44	0x3b8ea17d	0.004352747
45	0xbd19fe23	-0.03759588
46	0x3d8d8ac9	0.06911237
47	0x3d829d94	0.06377712
48	0xbda7f7fd	-0.08201597
49	0x3ba5b660	0.005057141
50	0xbd9353ae	-0.07193695
51	0x3d6679c5	0.056268472
52	0xbd088ecc	-0.033339307
53	0xbcc2e7bb	-0.023792138
54	0x3d30dcde	0.043179385
55	0xbd6bbc1b	-0.05755244
56	0xb96bb7e2	-0.00022479848
57	0x3da12d2e	0.078699455
58	0xbd169cd6	-0.036770664
59	0x3cc006d7	0.023440761
60	0xbd610f70	-0.054946363
61	0x3d3326e4	0.04373826
62	0xbcecc6fe	-0.02890348
63	0xbdc37ad0	-0.09544909
64	0x3c9ae170	0.018906325
65	0xbd1fa96c	-0.038979933
66	0x3caaf403	0.020868307
67	0x3d253ba2	0.040340073
68	0x3c139702	0.009008171
69	0xbd02eb68	-0.031962782
70	0x3ba2a85b	0.004963917
71	0x3cd48863	0.02594394
72	0xbdae143b	-0.084999524
73	0xbd5fd5da	-0.054647304
74	0x3d2ffd88	0.042966396
75	0xbdc99fcd	-0.09844933
76	0xbd85b14d	-0.06527958
77	0x3ce474ce	0.027887728
78	0x3ce5686e	0.028003898
79	0x3c224e98	0.0099064335
80	0x3d6e96a9	0.05824915
81	0x3ca1dc0a	0.019758243
82	0x3c98346c	0.018579684
83	0xbb484b4b	-0.0030562456
84	0xbd001a63	-0.031275164
85	0x3cd31b46	0.02576984
86	0x3d7d93f1	0.061908666
87	0xbc9319bd	-0.017956609
88	0xbd8b03c1	-0.067878254
89	0xbc9dd92c	-0.019268595
90	0xbbae341e	-0.0053162714
91	0xbc083843	-0.008314195
92	0x3bcf25e3	0.006321655
93	0x3d755fe5	0.059905905
94	0xbd6f50c4	-0.058426633
95	0x3d0c39aa	0.03423468
96	0x3be3a539	0.0069471863
97	0xbb7ebc7b	-0.0038869667
98	0x3d37e5dd	0.04489695
99	0xbd8af4e8	-0.067849934
100	0x3cc09147	0.023506774
101	0x3d4255b2	0.047445007
102	0xbda6bbfb	-0.08141323
103	0xbd0149d3	-0.031564545
104	0xbdbe3d15	-0.09288994
105	0xbce4efcc	-0.027946375
106	0xbd2ff407	-0.042957332
107	0x3da288ae	0.07936226
108	0x3cdbf3d0	0.026849657
109	0x3ad171d1	0.0015979355
110	0x3d451f4f	0.04812556
111	0xbdc1a256	-0.09454791
112	0xbde49d22	-0.11162783
113	0xbd5658c3	-0.052330744
114	0xbda59771	-0.08085526
115	0xbd3afb8b	-0.045650046
116	0xbdcaa075	-0.09893886
117	0xbca1cb3e	-0.019750234
118	0x3d23e08e	0.040009074
119	0xbd22e7fc	-0.03977202
120	0x3d60b8d9	0.054863784
121	0xbc37479d	-0.0111865075
122	0x3cd76b7b	0.026296368
123	0x3da1cbba	0.07900186
124	0xbd47f8e8	-0.04882136
125	0x3c50a090	0.012733594
126	0xbcd14d3e	-0.025549527
127	0x3d41aa07	0.04728129
128	0xbd1111ef	-0.035417493
129	0x3b995d28	0.0046802945
130	0x3d959c45	0.07305197
131	0x3d3c2b7b	0.045939904
132	0xbc9560db	-0.01823466
133	0xbbeac524	-0.0071646143
134	0x3d617bf8	0.055049866
135	0xbbdf90a2	-0.0068226615
136	0x3d8dd216	0.06924836
137	0xbd710e20	-0.05885136
138	0x3bc60b61	0.006043837
139	0xbd6f9027	-0.058487084
140	0xbddc9bc6	-0.10771899
141	0x3d3436b1	0.04399747
142	0xbd75c50f	-0.060002383
143	0xbd80cdc8	-0.0628925
144	0xbd7c888e	-0.061653666
145	0x3c8aeefe	0.016959663
146	0x3d44d75a	0.048056938
147	0x3d407061	0.046982173
148	0xbc613dca	-0.013747642
149	0xbd878d93	-0.066188
150	0x3d9d317d	0.07675455
151	0x3d1a2327	0.03763118
152	0x3cdb031c	0.026734881
153	0xbcde86bd	-0.027163858
154	0xbcb5f384	-0.022210844
155	0xbbb52876	-0.005528505
156	0xbd35de34	-0.044401363
157	0x3ca5c65d	0.020236189
158	0xbd9ef5f7	-0.07761758
159	0xbce91c5f	-0.028455911
160	0x3dafe553	0.08588662
161	0xbc4a23df	-0.012337654
162	0xbda43904	-0.08018687
163	0xbdae3aa5	-0.08507279
164	0xbd2fab69	-0.04288808
165	0xbcea3f7d	-0.028594727
166	0xbd1604b8	-0.036625594
167	0xbd667f4d	-0.056273747
168	0xbd7ca570	-0.06168121
169	0x3d7c1845	0.061546583
170	0xbd6fb062	-0.05851782
171	0xbc907943	-0.017635947
172	0xbdbe9079	-0.093049
173	0x3c5dbebc	0.013534244
174	0x3d534eb4	0.05158873
175	0xbc4c1393	-0.012455839
176	0xbd8c2445	-0.06842855
177	0x3d2dc044	0.042419687
178	0x3d09bbbe	0.03362631
179	0x3c3fb196	0.011700055
180	0x3d01727f	0.031603333
181	0x3d29b549	0.041432653
182	0xbd4a5c40	-0.049404383
183	0x3da0036f	0.07813155
184	0x3d85b294	0.06528202
185	0x3d27462f	0.040838417
186	0xbd8a4e6a	-0.067532375
187	0xbc99092f	-0.018681137
188	0xbc108865	-0.0088215815
189	0xbd086def	-0.033307966
190	0x3d3228bb	0.043495875
191	0xbd288b06	-0.041148208
192	0xbda434d2	-0.08017887
193	0x3b33a07f	0.0027408896
194	0xbda9a571	-0.082835086
195	0xbd8a4b4f	-0.06752645
196	0xbd1c44ed	-0.03815167
197	0x3cc6afdc	0.024253778
198	0xbd922719	-0.071363635
199	0x3d949d0c	0.07256517
200	0x3d2b6a03	0.041849148
201	0xbd2fc641	-0.04291368
202	0xbd2bf9b9	-0.0419862
203	0x3d85457c	0.06507394
204	0xba306aaa	-0.00067297614
205	0xbd046cbf	-0.03233027
206	0x3d43a51c	0.047764882
207	0x3b840aa6	0.0040295897
208	0x3d175292	0.03694398
209	0xbd06fcbf	-0.03295588
210	0xbd975548	-0.07389313
211	0x3c92b302	0.017907623
212	0xbd61b6a5	-0.055105824
213	0x3da7d404	0.08194736
214	0x3b7e4ae8	0.0038801972
215	0xbbf2b4b4	-0.0074067954
216	0xbccffd71	-0.025389405
217	0xbcf42f09	-0.029807584
218	0x3d145088	0.036209613
219	0x3d6a4aa5	0.057200093
220	0xbbde12a2	-0.0067771235
221	0xbd7d1b97	-0.06179389
222	0x3c7f7ab5	0.0155932205
223	0x3ba170c4	0.004926773
224	0x3d73e167	0.059541132
225	0xbd286619	-0.041112993
226	0x3dabf922	0.08397128
227	0x3da900b4	0.08252087
228	0x3c5d1d4a	0.013495753
229	0xbcc36141	-0.023850085
230	0x3db78870	0.0896157
231	0xbc6524a3	-0.013985786
232	0x3d9b911b	0.07596036
233	0xbd33260d	-0.04373746
234	0xbce7f729	-0.028316097
235	0x3ce50174	0.027954794
236	0x3cde2b77	0.027120335
237	0xbc9a2168	-0.018814757
238	0x3d8f5bf7	0.06999963
239	0x3d3abc46	0.045589708
240	0xbd1dcdfd	-0.038526524
241	0x3db52e0c	0.08846673
242	0xbcd945c1	-0.026522519
243	0xbdb46a80	-0.08809376
244	0x3d1d76aa	0.038443245
245	0x3c3d3e09	0.011550435
246	0x3d9a30a5	0.075288095
247	0xbcc995f2	-0.024607632
248	0xbd63788d	-0.055534888
249	0xbcac6f20	-0.021049082
250	0x3cd8668d	0.026416088
251	0xbd9360bc	-0.07196185
252	0xbd93d163	-0.07217672
253	0xbd9cbff6	-0.07653801
254	0x3ce3ca37	0.027806384
255	0xbd6dc2af	-0.058046993

layer2.0.bias f4 [32]
0	0xbd595409	-0.053058658
1	0xbd598f4d	-0.053115178
2	0x3d69bcd3	0.057064842
3	0xbd6b9e94	-0.05752428
4	0xbc058378	-0.00814902
5	0xbc8a063f	-0.016848681
6	0xbc786d2b	-0.015162746
7	0x3ac218b2	0.0014808385
8	0xbd2c5533	-0.04207344
9	0x3d849f63	0.06475713
10	0xbd7d035d	-0.061770786
11	0x3d316f93	0.043319296
12	0xbd708afe	-0.058726303
13	0xba2c861c	-0.0006581263
14	0x3d1bd012	0.03804023
15	0x3d0b9916	0.03408154
16	0xbc319575	-0.010838856
17	0xbd143739	-0.036185477
18	0xbc136b60	-0.008997768
19	0xbc3d9644	-0.011571471
20	0xbd3193ba	-0.043353774
21	0x3d2dc757	0.042426433
22	0x3cf133f6	0.029443722
23	0xbd66b496	-0.056324564
24	0xbda1bd29	-0.078974076
25	0xbcc00679	-0.023440586
26	0xbcb0cc78	-0.021581873
27	0x3c797845	0.015226428
28	0xbd92b382	-0.07163145
29	0xbbed4d37	-0.0072418707
30	0xba98e1b3	-0.0011663943
31	0x3d90d13b	0.070711575

layer2.1.weight f4 [32]
0	0x3f845730	1.0339108
1	0x3f82a5f2	1.0206892
2	0x3f8129d4	1.009089
3	0x3f855f33	1.0419677
4	0x3f81b951	1.0134679
5	0x3f853774	1.0407548
6	0x3f83c9d2	1.0295966
7	0x3f84d704	1.0378118
8	0x3f847357	1.0347699
9	0x3f81dcec	1.0145545
10	0x3f8264a4	1.0186963
11	0x3f81ee75	1.0150896
12	0x3f849a88	1.0359659
13	0x3f85bc25	1.0448042
14	0x3f863748	1.048562
15	0x3f83a786	1.0285499
16	0x3f86de5c	1.0536609
17	0x3f85d55a	1.0455735
18	0x3f846ee4	1.0346341
19	0x3f85abfc	1.044311
20	0x3f874887	1.0569009
21	0x3f86410d	1.0488602
22	0x3f833626	1.02509
23	0x3f857c67	1.042859
24	0x3f83983e	1.0280836
25	0x3f856948	1.0422754
26	0x3f871d46	1.0555809
27	0x3f8774d7	1.0582532
28	0x3f83ac0e	1.0286882
29	0x3f85f455	1.0465189
30	0x3f7f4bae	0.99724853
31	0x3f862fcc	1.0483336

layer2.1.bias f4 [32]
0	0x3d8c0e5d	0.06838677
1	0x3c7b6be9	0.015345552
2	0x3bdc6c15	0.0067267516
3	0x3d6236e7	0.05522814
4	0x3c992987	0.01869656
5	0x3cf42476	0.029802542
6	0x3d14937a	0.036273457
7	0x3c838fc1	0.016059758
8	0x3c5b7025	0.013393437
9	0x3ca229c2	0.019795302
10	0x3c9c7bcd	0.019102002
11	0x3b80db83	0.003932418
12	0x3d2fa640	0.042883158
13	0x3cf08db0	0.029364437
14	0x3d1da608	0.038488418
15	0x3cd01328	0.02539976
16	0x3d59d76c	0.053183958
17	0x3d1b45d6	0.037908398
18	0xbc9e110b	-0.019295236
19	0x3ce1c275	0.027558545
20	0x3d0d9a41	0.034570936
21	0xbc51a8a5	-0.012796556
22	0x3d1136cf	0.03545266
23	0x3d49d9d0	0.049279988
24	0x3d156ebc	0.036482558
25	0x3c496bad	0.012293738
26	0x3d6c8430	0.05774325
27	0x3d6ea10a	0.058259048
28	0x3d125743	0.03572775
29	0x3d0b87ce	0.03406506
30	0x3c45cb41	0.012072385
31	0x3d919a0a	0.07109459

layer2.1.running_mean f4 [32]
0	0xbe0889df	-0.13333844
1	0xbc376b9d	-0.011195091
2	0xbecaaf61	-0.39586928
3	0xbf02e968	-0.511374
4	0xbeb5eee4	-0.35533822
5	0xbe5dc04a	-0.21655384
6	0x3ed5c591	0.41752294
7	0xbe8e517e	-0.2779655
8	0x3e1aceea	0.15117994
9	0xbe5bfb72	-0.21482638
10	0x3dc6e873	0.09712305
11	0xbe3dec3f	-0.18547152
12	0x3f8a8abd	1.082359
13	0xbd92df27	-0.07171469
14	0xbedeb9a2	-0.43501002
15	0x3f1523f8	0.5825801
16	0xbf7aaf89	-0.97924095
17	0xbed94c0c	-0.42440832
18	0xbd461bf7	-0.048366513
19	0xbe7be134	-0.24597627
20	0x3fb49288	1.4107218
21	0x3ef5d8a2	0.4801684
22	0x3cd33c14	0.025785483
23	0xbf30f08b	-0.6911704
24	0x3f679164	0.90456223
25	0x3f2a640e	0.6655892
26	0xbfc049f9	-1.5022575
27	0xbf9f2558	-1.2433271
28	0x3f8045ab	1.0021261
29	0xbf554855	-0.83313495
30	0x3f38e746	0.72227895
31	0x3fb8c7e3	1.4436

layer2.1.running_var f4 [32]
0	0x3f2746d7	0.6534247
1	0x3ed8a12e	0.4231047
2	0x3ef74ef1	0.48302415
3	0x3ea753cb	0.32681116
4	0x3ea9eccb	0.3318847
5	0x3ead8b3d	0.33895293
6	0x3e5b7f5d	0.21435304
7	0x3e69987c	0.22812074
8	0x3eddf825	0.43353382
9	0x3e949c94	0.2902571
10	0x3eb1a7f3	0.34698448
11	0x3e972cba	0.2952631
12	0x3ee61702	0.4493943
13	0x3e736c3a	0.23771754
14	0x3e95a827	0.29229853
15	0x3ea560b3	0.32300338
16	0x3ef568ed	0.47931615
17	0x3eb01ca7	0.3439686
18	0x3eadef32	0.33971554
19	0x3e6fe713	0.23427992
20	0x3ea72c37	0.3265092
21	0x3eb62a8e	0.35579342
22	0x3e983ea7	0.297353
23	0x3efed5da	0.4977253
24	0x3ee9303d	0.45544615
25	0x3e94535b	0.28969845
26	0x3f313c3c	0.69232535
27	0x3f43e9b4	0.7652848
28	0x3f21a01c	0.6313493
29	0x3ebf9ed8	0.37425876
30	0x3f19e788	0.60118914
31	0x3f335d37	0.7006411

layer2.3.c1.weight f4 [32, 32, 3, 3]
0	0xbd0fd592	-0.035115786
1	0x3bc3c14b	0.00597397
2	0xbd159b87	-0.036525276
3	0x3ce5fabf	0.028073667
4	0x3d0777f2	0.033073373
5	0xbbaf512d	-0.005350253
6	0xbba90fe7	-0.0051593664
7	0x3c0c43ff	0.008561133
8	0x3d657fcf	0.05603009
9	0x3c8ca94b	0.017170569
10	0xbc606d6a	-0.013697961
11	0xbd1c765a	-0.038198806
12	0x3c78a676	0.015176406
13	0x3ce0cc59	0.02744119
14	0x3d153c04	0.03643419
15	0x3b93d92d	0.0045119734
16	0xbd2e2d49	-0.042523656
17	0x3d2f000f	0.042724665
18	0x3cc58206	0.024109852
19	0xbccfb83e	-0.025356408
20	0xbc9df0fe	-0.019279953
21	0x3ce4ad72	0.027914736
22	0x3c52675c	0.012842026
23	0xbcbb0386	-0.022828829
24	0xbbbdeb02	-0.0057958374
25	0x3d468cf8	0.048474282
26	0x3d2ef02f	0.042709526
27	0xbd02541e	-0.0318185
28	0xbc1c395d	-0.009535161
29	0xbd2b86af	-0.04187649
30	0x3c906208	0.01762487
31	0x3d60b5f5	0.054861028
32	0xbccb1a90	-0.02479294
33	0xbb5b6bd2	-0.0033481014
34	0xbb6abbf5	-0.0035817598
35	0x3d3ac9f1	0.045602743
36	0x3d576df6	0.0525951
37	0x3ca1030a	0.01965477
38	0x3c686d4d	0.014186216
39	0x3c622423	0.013802561
40	0xbcd2ad9d	-0.02571755
41	0x3c14f7f0	0.009092316
42	0xbb003e82	-0.0019568508
43	0x3d1bff83	0.03808547
44	0xbcfba093	-0.030716216
45	0xbd6f0198	-0.05835113
46	0x3d598136	0.05310174
47	0x3cc4a7c0	0.02400577
48	0xbbd03cad	-0.0063548894
49	0xbd4758c1	-0.048668627
50	0x3b35bc1a	0.0027730525
51	0xbd56bda8	-0.052426964
52	0x3d154b04	0.036448494
53	0xbd82440c	-0.06360635
54	0xbb394d29	-0.002827475
55	0xbcdc9424	-0.026926108
56	0x3d28c883	0.041206848
57	0xbc22c3e9	-0.009934404
58	0x3cbfb18c	0.02340009
59	0xbcac9957	-0.021069212
60	0xbd039405	-0.032123584
61	0x3d92b3c7	0.07163196
62	0x3d633367	0.055468943
63	0x3c9be2a8	0.019028977
64	0xbd32f735	-0.043692786
65	0x3da43efb	0.08019825
66	0x3bcfd594	0.006342599
67	0x3cd35d46	0.025801312
68	0x3cb5c185	0.022187004
69	0xbcda409a	-0.026642133
70	0xbce4269f	-0.027850447
71	0x3d413e5f	0.047178622
72	0xbd6deb71	-0.058085863
73	0x3acccd76	0.0015625197
74	0xbca15609	-0.019694345
75	0xbb5fffda	-0.00341796
76	0x3c213a85	0.009840612
77	0xbd719f14	-0.0589896
78	0xbd4d8fd9	-0.050186012
79	0x3bfa0414	0.0076298807
80	0x3d2fe471	0.042942468
81	0xbba8a76b	-0.005146911
82	0xbc51129a	-0.012760783
83	0xbd4abb52	-0.04949505
84	0xbc43a8c6	-0.011942094
85	0x3d440333	0.047854614
86	0xbd40aa73	-0.047037553
87	0xbb07405e	-0.002063773
88	0x3adbcc33	0.001676923
89	0xbd2bbd12	-0.04192836
90	0x3d4f9875	0.050682504
91	0x3cdfbf4f	0.027312903
92	0x3d2c5c1d	0.042080034
93	0xbcac7e2c	-0.021056257
94	0x3b167897	0.002296006
95	0x3d3e7338	0.0464966
96	0x3c367209	0.011135587
97	0x3d25dc84	0.040493503
98	0xbc734c69	-0.014849761
99	0x3cfc86cf	0.030826
100	0x3caee57e	0.021349665
101	0x3c2bb407	0.010479934
102	0xbb914b9b	-0.0044340617
103	0xbd3cd66c	-0.046102926
104	0xbba945fe	-0.0051658144
105	0x3c2ac210	0.010422245
106	0x3d154150	0.03643924
107	0x3c13eeed	0.009029132
108	0xbbd74c1f	-0.0065703536
109	0x3c811e77	0.015761597
110	0x3ca79183	0.020455128
111	0xbd263eb6	-0.04058715
112	0x3d6e9d9e	0.058255784
113	0xbcd98a59	-0.026555227
114	0x3c3ca8fb	0.011514897
115	0x3b2dbf11	0.002651159
116	0x3cd3b6d5	0.025844017
117	0xbd910bff	-0.07082366
118	0xbd52a667	-0.051428225
119	0xbb659e61	-0.0035037028
120	0x3d45be36	0.048277102
121	0xbd1abd3f	-0.037778135
122	0xb8bfaded	-9.139986e-05
123	0x3bc111e7	0.0058920267
124	0xbcec82f0	-0.02887103
125	0xbd5ef1af	-0.054429706
126	0xbd1a9316	-0.03773793
127	0xbcf57a22	-0.029965464
128	0xbd072fca	-0.03300456
129	0x3d749ada	0.05971799
130	0x3daf87a1	0.08570791
131	0x3dab9f29	0.08379967
132	0x3b88defa	0.0041769715
133	0x3d59b7d0	0.053153813
134	0xbd43229a	-0.04764042
135	0xbcff6da4	-0.03118021
136	0xbd484dcc	-0.048902318
137	0xbd840815	-0.06446854
138	0x3d45ad6e	0.0482611
139	0x3cb7f68a	0.022456426
140	0x3d1d6cf7	0.038433995
141	0x3bd5cf9b	0.0065249926
142	0xbd11bfec	-0.03558342
143	0xbbf1c8c9	-0.007378672
144	0x3d1495ce	0.036275677
145	0xbd03e311	-0.03219897
146	0x3c5db0fc	0.013530966
147	0x3caeca58	0.02133672
148	0x3b11b625	0.002223381
149	0x3d2a12a1	0.041521672
150	0x3c8e35bd	0.017359609
151	0x3cdd1319	0.026986646
152	0x3ba1b29e	0.004934623
153	0x3c8388bc	0.016056411
154	0x3ca30fb0	0.019904941
155	0x3cf19a47	0.02949251
156	0xbd60e9fd	-0.05491065
157	0xbcefff72	-0.02929661
158	0xbd1ced66	-0.03831234
159	0xbd2c89d7	-0.04212364
160	0x3cd99544	0.026560433
161	0x3cc4a7f4	0.024005868
162	0xbd376f39	-0.044783805
163	0xbc466b1e	-0.0121105
164	0x3c3488c0	0.011018932
165	0xbd44ce9a	-0.048048593
166	0x3b20ea59	0.0024553745
167	0x3d02d7db	0.031944137
168	0xbc930206	-0.0179453
169	0xbd48de4f	-0.049040135
170	0xbc94f64d	-0.018183852
171	0xbdc4f463	-0.096169256
172	0xbc0eb103	-0.008709195
173	0xbd866d44	-0.065638095
174	0xbd1229ce	-0.0356844
175	0xbbfdea97	-0.0077489126
176	0x3bf1f3c4	0.0073837955
177	0x3cdb5d6b	0.026777944
178	0xbc99a292	-0.018754277
179	0x3c9a3856	0.018825691
180	0x3cddc8f9	0.02707337
181	0xbced7748	-0.028987542
182	0xbd456642	-0.048193224
183	0x3c1a8ac3	0.009432497
184	0xbd074c7f	-0.033031937
185	0x3d03fdf9	0.03222463
186	0x3a3cf210	0.0007207701
187	0xbd54ee71	-0.051985208
188	0xbc8dd362	-0.01731271
189	0xbd02b0d8	-0.031906933
190	0x3d4bb65e	0.049734466
191	0x3d65b36b	0.05607931
192	0x3ba1cb90	0.0049375966
193	0xbd068d92	-0.032849856
194	0xbcec98f7	-0.028881533
195	0x3c7d28fe	0.015451668
196	0x3d3845ea	0.04498855
197	0xbcecc0cb	-0.028900525
198	0xbd35280b	-0.04422764
199	0x3c172be6	0.009226775
200	0x3c6bdc4a	0.014395783
201	0xbc1fe611	-0.009759442
202	0xbcc58d50	-0.024115235
203	0x3a8faea0	0.0010962076
204	0x3c1b567e	0.009481071
205	0xbd1fc4d1	-0.039006058
206	0x3c157ef7	0.009124509
207	0xb9978d37	-0.00028906178
208	0x3d7bf184	0.061509624
209	0x3d1a03f5	0.03760143
210	0xbd82a4c6	-0.06379084
211	0xbcd98e8c	-0.02655723
212	0x3d6617ca	0.05617503
213	0xbcf06fb7	-0.029350145
214	0xbaec60e1	-0.0018034243
215	0x3ca7d9cc	0.020489596
216	0x3b387f15	0.0028151919
217	0x3d236d14	0.039898947
218	0x3d2ab48e	0.041676097
219	0x3cf4cb54	0.02988211
220	0xbd283ec4	-0.041075483
221	0x3cb742d3	0.022370731
222	0xbce275b3	-0.027644014
223	0x3d26b979	0.040704224
224	0xbd270dec	-0.04078476
225	0x3cc3f14b	0.023918768
226	0x3c62a8e3	0.013834211
227	0x3d1052ce	0.03523522
228	0xbd739e04	-0.059476867
229	0x3d211012	0.039321966
230	0xbcf7c7bb	-0.030246606
231	0x3c090ec5	0.008365338
232	0x3d13ccc0	0.036083937
233	0xbcbe29ab	-0.023213228
234	0xbda46e4a	-0.080288485
235	0xbdbcd26d	-0.09219823
236	0xbd98ad89	-0.07454974
237	0xbd8f58fa	-0.06999393
238	0x3d1c7d96	0.038205706
239	0x3d239b5c	0.039943084
240	0xbd7f6c7d	-0.06235932
241	0x3c4497dc	0.011999097
242	0x39c267ae	0.0003707981
243	0xbd128997	-0.035775747
244	0xbd87a2a0	-0.06622815
245	0xbd4fac2e	-0.050701313
246	0x3cdf3700	0.027247906
247	0x3d0b53ac	0.034015343
248	0xbd017522	-0.031605847
249	0xbd35d997	-0.044396963
250	0xbc72a91b	-0.014810826
251	0xbc818ed5	-0.015815178
252	0xbc393cf5	-0.011306037
253	0xbd254dfa	-0.040357567
254	0xbcf6afd3	-0.030113136
255	0xbcda1082	-0.0266192

layer2.3.c1.bias f4 [32]
0	0x3d202567	0.03909817
1	0x3af8b26d	0.0018974073
2	0x3a5f40ee	0.000851645
3	0xba75d1af	-0.00093772536
4	0x3cf040f6	0.02932785
5	0xbcb589bc	-0.022160403
6	0x3d3f24b4	0.046665862
7	0x3d36ed94	0.044660166
8	0x3d36035f	0.04443681
9	0xbcc7b80b	-0.02437975
10	0xbcd11c08	-0.025526062
11	0x3cf1ad6f	0.029501645
12	0xbd2827d2	-0.0410536
13	0xbc5cae67	-0.013469315
14	0xbd3161b9	-0.043306086
15	0x3bb202fa	0.0054324837
16	0xbd5ab26c	-0.053392813
17	0x3cc7ec8f	0.024404792
18	0xbc744e7f	-0.014911293
19	0xbd068732	-0.032843776
20	0x3b98ce41	0.0046632593
21	0x3d52c886	0.051460765
22	0x3d0fae4e	0.03507834
23	0x3d6fa5c0	0.05850768
24	0x3d05ae8b	0.03263716
25	0xbccbd726	-0.024882864
26	0xbc86986f	-0.016430108
27	0x3cc105ee	0.023562398
28	0x3c83248a	0.016008634
29	0xbd293eed	-0.041319776
30	0xbd393a90	-0.045221865
31	0xbc60708a	-0.013698706

layer2.3.b1.weight f4 [32]
0	0x3f7e0be0	0.9923687
1	0x3f7bd3df	0.98370165
2	0x3f84504a	1.0337002
3	0x3f76b9b2	0.963771
4	0x3f702e01	0.93820196
5	0x3f8217b6	1.0163486
6	0x3f811cb4	1.0086884
7	0x3f7b1901	0.9808503
8	0x3f76922b	0.96316785
9	0x3f6f14e9	0.9339128
10	0x3f75f84b	0.9608199
11	0x3f78b637	0.9715304
12	0x3f6eafa1	0.9323674
13	0x3f7e632f	0.9937009
14	0x3f81f27c	1.0152125
15	0x3f896404	1.0733647
16	0x3f7a22cc	0.97709346
17	0x3f8705c5	1.0548636
18	0x3f8049f3	1.0022568
19	0x3f799b22	0.9750234
20	0x3f6e0fb7	0.9299273
21	0x3f837173	1.0268997
22	0x3f7df6bb	0.99204606
23	0x3f6b290a	0.91859496
24	0x3f6fb7db	0.93639916
25	0x3f82df0b	1.0224317
26	0x3f7b696d	0.9820774
27	0x3f8496c2	1.0358508
28	0x3f78e7a1	0.9722844
29	0x3f7ebdc2	0.995083
30	0x3f711f33	0.9418823
31	0x3f7f722d	0.99783593

layer2.3.b1.bias f4 [32]
0	0xbd1820c5	-0.037140626
1	0xbbcce0e3	-0.0062523945
2	0x3be80d49	0.007081662
3	0xbd538cb7	-0.051647868
4	0xbd1ebab3	-0.03875227
5	0xbd7bcf8e	-0.061477236
6	0xbbedfbf9	-0.0072627035
7	0xbd3a7861	-0.04552496
8	0xbcdeeb5f	-0.027211843
9	0xbcfe3db2	-0.031035278
10	0xbd76ff4a	-0.060302056
11	0xba3f3e94	-0.00072953966
12	0xbd4af5fb	-0.04955099
13	0xbd7907f3	-0.060798597
14	0xbbdcd5c1	-0.0067393486
15	0x3c1840e8	0.009292819
16	0xbd5dfb91	-0.05419499
17	0x3c03ff05	0.008056407
18	0xbd2ed65c	-0.042684898
19	0xbd274389	-0.04083589
20	0xbd57916a	-0.052628912
21	0xbd6f763f	-0.058462378
22	0xbd63a1d7	-0.055574264
23	0xbd017f41	-0.0316155
24	0xbd9da12c	-0.07696757
25	0xbd6485c9	-0.05579165
26	0xbcf7b43d	-0.030237311
27	0xbb0f92f1	-0.0021907652
28	0xbd855f96	-0.06512372
29	0xbd0a8f78	-0.03382823
30	0xbd4c0696	-0.04981097
31	0xbd409bc9	-0.04702357

layer2.3.b1.running_mean f4 [32]
0	0xbe89d645	-0.26921287
1	0xbecccd94	-0.40000594
2	0xbf17ac32	-0.59247124
3	0xbf114287	-0.5674214
4	0xbd93745c	-0.07199928
5	0xbea870a1	-0.3289843
6	0xbd6768c6	-0.056496404
7	0x3c91069f	0.017703352
8	0x3f494b4b	0.7863051
9	0xbea9a38e	-0.33132595
10	0x3e956da3	0.2918521
11	0xbf2d7cc2	-0.6776849
12	0xbec459bf	-0.3834972
13	0xbe23ab65	-0.1598335
14	0x3de1e703	0.1103039
15	0xbf55f866	-0.8358215
16	0x3cf99d77	0.030470593
17	0xbe613aa8	-0.21995032
18	0xbe53398b	-0.2062742
19	0x3e3e5397	0.18586574
20	0xbe92aa29	-0.28645447
21	0xbe3f263f	-0.18666933
22	0x3bd93269	0.006628324
23	0x3f20f730	0.6287718
24	0x3e040691	0.1289313
25	0xbe802b06	-0.25032824
26	0xbdfd9bc6	-0.12383227
27	0xbe38761e	-0.18013808
28	0xbe4da024	-0.2008062
29	0xbe3f7920	-0.1869855
30	0xbd67b773	-0.056571435
31	0xbe9a32c9	-0.3011687

layer2.3.b1.running_var f4 [32]
0	0x3e043466	0.12910613
1	0x3ea31a90	0.31856203
2	0x3e4e24a6	0.20131168
3	0x3e25d805	0.16195686
4	0x3edbf8d5	0.4296328
5	0x3e0c2106	0.13684472
6	0x3e319272	0.1734102
7	0x3e2fb8f1	0.17160393
8	0x3ea398ad	0.3195242
9	0x3e7b6f7a	0.24554244
10	0x3e521718	0.20516622
11	0x3ea2e43d	0.31814757
12	0x3e89213b	0.26783165
13	0x3e1f8ed3	0.15581827
14	0x3e23c13d	0.15991683
15	0x3dff3517	0.12461298
16	0x3dd5c1d2	0.10437359
17	0x3dec4bfa	0.11537929
18	0x3df35a77	0.11882489
19	0x3e2a4c34	0.16630632
20	0x3e737b22	0.2377744
21	0x3e0425c2	0.12905028
22	0x3e53dd1b	0.20689814
23	0x3ea43796	0.3207366
24	0x3e259579	0.161703
25	0x3e167655	0.14693578
26	0x3e5b45bf	0.21413325
27	0x3e04655d	0.12929292
28	0x3e039089	0.12848105
29	0x3e2247bd	0.15847678
30	0x3e38cd28	0.18047011
31	0x3e1951fc	0.14972681
