models/resNet_uaspeech.pth (torch, 129263 bytes, 37 tensors)

stem.0.weight f4 [16, 1, 3, 3]
00000000: d974 a33e 3e67 8d3e e4a1 743e cc77 e8bd
00000010: 67be a13d 1d2c 873e 6885 74be 526b 52bc
00000020: 448f 96be 6d3e 32be 048e 2a3e 01af a93e
00000030: e6b6 e6bd 007c 073e 4ea4 8fbe ee24 11be
00000040: 5180 9abd 72c9 b4be 61b8 783e 224d b83d
00000050: 5f63 0fbe d6d8 7abe 6454 40be d792 783e
00000060: fae8 e9bd 57cc 95be 362b a53e 7381 8fbd
00000070: e4a3 823e dbbc 913e b7fd 183e 9906 6dbe
00000080: ab74 43be 529d a5bd 102d 8a3e faee c93d
00000090: ae2c abbe bef8 d23d 1b07 9abe 8a5c 853e
000000a0: b888 813e 5a1c 88be 7953 e73d 9511 3ebe
000000b0: 5c20 493e dab6 8dbe 558d 8b3e 8ce9 eabd
000000c0: 07cc 53be cb53 88bd 7385 8dbd 891c 533e
000000d0: 7f38 96bc ba22 003d 39b5 21be 51ee 003e
000000e0: ceaf e33c 476a 8ebd 855e 8a3d 786f fd3d
000000f0: b4b2 3e3e 9a36 92be 3ca0 97be 6767 98be
00000100: dc2b 953e aea4 3d3d 2072 5cbd 0cd7 ad3c
00000110: 9f24 c2be 1556 12bc 8980 9dbe 5b14 9cbd
00000120: 4e8e b83d d0dd ab3e 621e dabc 4c44 833e
00000130: 6a22 e73d 786c 8d3e b0b4 de3d 0f1b a53e
00000140: 4fd3 943e eef3 883e 2c42 353e 5df7 00be
00000150: 22d2 a2be 329d 95be 4c68 1ebd 9ad7 c0bd
00000160: 879b c5bd b5e3 413e 3812 c73d 7d0b 653c
00000170: 2b81 a8be dd80 b53a 1037 c43d 09be 5e3e
00000180: f644 38be 142d 833c 3266 673e f5e7 50be
00000190: a5e4 b1be c4ab 3c3e ee3d 0f3d 7406 523e
000001a0: 1c0d 28be 5f5b 45bd c92b 68bc 54ad f63d
000001b0: 2212 4f3e 7848 343b fe67 803e 1aa2 90be
000001c0: 8543 943e 11b4 9a3e 4ba2 67be 844f 673e
000001d0: 00a0 5cbc 0014 9fbc 7fbb 8ebd 99ab 32bd
000001e0: 8d73 6f3e 353b 35bc 1799 5abe c8ba 7bbd
000001f0: d6dc 4cbe 6619 f13d 4111 0ebe 3a60 7d3d
00000200: 2637 283e 157b 8f3e b016 5bbc dbe3 adbd
00000210: 223a 80be 7617 3bbe e725 b3bd 0a9c 97be
00000220: 4d7b edbd 9e06 ef3d 8fc1 44be 9b94 ef3d
00000230: 417b 05be ef9e 0ebe a068 febd 3be8 97be
0.31925085 0.2761783 0.23889881 -0.113509744 0.078976445 0.26400843 -0.23879015 -0.01284297
-0.29406178 -0.17406626 0.16655737 0.3314133 -0.11265354 0.13230896 -0.28055042 -0.14174244
-0.07544006 -0.3530994 0.24289085 0.08999087 -0.14002751 -0.24496779 -0.18782192 0.24274765
-0.1142139 -0.2925746 0.3225953 -0.07007112 0.25515664 0.28464398 0.14940535 -0.23147048
-0.19087474 -0.08086647 0.26987505 0.09860034 -0.33432525 0.1030135 -0.30083546 0.26047164
0.2529962 -0.2658413 0.11295218 -0.18561395 0.1964125 -0.27678567 0.27256265 -0.11470327
-0.20683299 -0.06656607 -0.06910219 0.20616354 -0.018337486 0.031283118 -0.15791787 0.1259091
0.027793791 -0.069538645 0.067563094 0.123747766 0.18622857 -0.28557283 -0.29614437 -0.2976639
0.29135025 0.04629963 -0.053819776 0.021220706 -0.37918565 -0.008931656 -0.30762127 -0.0762107
0.090115175 0.33567667 -0.026625816 0.25638044 0.11285861 0.27621818 0.10874307 0.32247207
0.29067466 0.26748604 0.17701024 -0.12594362 -0.31800944 -0.29221493 -0.038673684 -0.09416123
-0.09648805 0.1893452 0.09720272 0.01397979 -0.32911047 0.0013847608 0.09580815 0.2175218
-0.17995057 0.016012706 0.22597578 -0.20400985 -0.34744754 0.18424898 0.03497117 0.20510274
-0.16411251 -0.04818284 -0.014170595 0.120447785 0.20221761 0.0027509015 0.2507934 -0.28248674
0.28957763 0.30215505 -0.22620504 0.22588927 -0.013465881 -0.019418716 -0.06969356 -0.04362068
0.23383923 -0.011061479 -0.21347462 -0.061457425 -0.20006117 0.117724225 -0.1387377 0.061859347
0.16427287 0.28023592 -0.013372108 -0.084907256 -0.25044352 -0.18270668 -0.08747464 -0.29611236
-0.115957834 0.11671184 -0.19214462 0.11698266 -0.13035299 -0.13927816 -0.124222994 -0.29669365

stem.0.bias f4 [16]
00000000: 148f 433e ac01 f13d a670 883e 576f 12be
00000010: 6e01 983e 8b25 1cbe 4974 7dbd a240 263c
00000020: 92d3 183e 1e10 423e 108d 05be 326c d7bd
00000030: 9609 21be 2349 a2bd 82e3 833d fa28 b83d
0.19097549 0.11767897 0.26648444 -0.14300285 0.2968859 -0.15248697 -0.061878476 0.010147246
0.14924458 0.1895146 -0.13042092 -0.105186835 -0.15726313 -0.07924106 0.06439878 0.08992191

stem.1.weight f4 [16]
00000000: 6ba3 7d3f 8f7f 773f afc6 803f ee8b 7d3f
00000010: 57bc 743f e570 833f 7711 7d3f f64e 783f
00000020: 43c3 813f 0f67 7f3f f72b 7f3f df9e 753f
00000030: 39e5 7e3f 232b 733f 9446 7d3f 3529 7e3f
0.9907748 0.96679014 1.0060633 0.9904164 0.95599884 1.0268828 0.98854774 0.96995485
1.0137714 0.9976663 0.9967646 0.95945543 0.99568516 0.94987696 0.9893582 0.99281627

stem.1.bias f4 [16]
00000000: e9c0 31bc a069 15ba 9443 043d a904 2dba
00000010: 823a eabc 9fcd 253d f4c8 efbc ba6f b2bc
00000020: bc1f 893c de7c 393d 6985 983d cb68 a03d
00000030: 204e fe3a 0be3 1d3d a361 06bd 53e4 243d
-0.010849216 -0.0005699638 0.03229101 -0.00066001207 -0.028592352 0.0404793 -0.029270627 -0.021781791
0.016738765 0.0452851 0.07447321 0.07832488 0.0019401945 0.038546603 -0.032807957 0.04025681

stem.1.running_mean f4 [16]
00000000: 81cb 573e 295c 133e 6e6b 8a3e 3a4f 21be
00000010: 1cca 953e b238 24be 8931 34bd 8cea f93c
00000020: b325 e13d 3b0b 443e d933 09be efd3 d9bd
00000030: d580 24be a06f 93bd 54f5 b23d 1d84 f33d
0.21073724 0.14390625 0.27035087 -0.15752879 0.2925576 -0.16037253 -0.043992553 0.030507348
0.10993519 0.19144909 -0.13398685 -0.10636126 -0.1606477 -0.07199025 0.08738199 0.11890433

stem.1.running_var f4 [16]
00000000: 5b9a 733f 5c1d e03e 8f6b 4f3e c354 cc3e
00000010: 6a5d c63e 95ad 303e 45a9 363e 946b af3e
00000020: fc18 833f e6ad 133f 53f5 5b3e cdde 4a3e
00000030: db6c d03e 461a a33d 04fb 803e 4a67 c53e
0.951574 0.437724 0.20255874 0.39908418 0.38743144 0.17253716 0.17838009 0.34261763
1.0242 0.5768722 0.21480303 0.19811554 0.4070805 0.07963996 0.2519151 0.38555366

layer1.c1.weight f4 [16, 16, 3, 3]
00000000: cc6e a4bd 8d67 69bd bb50 813c 7226 f63d
00000010: f68c 833d 65c8 623d d99f 393d 8bf5 42bd
00000020: 2053 4bbb 291f 8a3c efa0 09bd b0dc 86bd
00000030: 7e6a a8bc c2f9 b43d b66d 67bc a1b4 853d
00000040: 86d7 473c eaba 40bd 5478 26bd a531 a53d
00000050: 84bf 8f3c 6a91 1a3d c557 3bbd f8ef 85bd
00000060: 6237 4f3c 23a1 133b 8a19 7dbd 5b0b 203d
00000070: c8eb 88bd 8fba 0b3c 583e ab3c 4cb0 683c
00000080: f848 8d3d 0754 99bd f3b5 6dbd 5ef2 1d3c
00000090: 5d74 db3c 4961 153c c4ca 823d 32d5 0f3d
000000a0: c6e9 803c 6dce 84bc 7146 693c 9956 3d3d
000000b0: 66ba 2d3d bb56 e8bb 2dd0 aa39 0339 42bd
000000c0: 02e1 b73c 5c4b 9ebd cf11 b4bc e18e 3b3d
000000d0: e759 a03d 6c43 7e3d 4c1c cc3c 9740 9abc
000000e0: 40f4 9f3d a975 253d f210 89bd 9336 acbd
000000f0: e50c 6b3d 0975 c33c 68fd cbbc ac90 61bd
00000100: 0265 1f3d 6aef a03d 4e49 7fbc 5578 8c3d
00000110: 23b6 913d d19f 42bd 6977 623d e51b 333d
00000120: ca62 bbbc 964f cdbc 9ac4 ea3c b79c 643d
00000130: d83f 96bc 2985 cdbc 45fb b2b9 029f 18bd
00000140: 8704 583d 709c 393d 2ada 40bd 2c6a 40bd
00000150: 68f1 2a3c 6507 183d f2e3 b03c b5bb ac3d
00000160: 4e33 3dbd c461 4c3d b606 a03d 6f8a 4e39
00000170: ef3a 9d3c 6e6b c83d 6698 f73a e1e3 1cbd
00000180: b4db c7bc 24ec 13bb e23c 803c 04f2 5f3d
00000190: c8e1 e03c 3082 aebc 4bcd 46bd 4fc9 9b3c
000001a0: 2609 8ebd 6e6d 053d a1ee 0fbd 6b89 44bd
000001b0: f3d4 3f3d fe08 82bd 13fd 033d 5372 b73d
000001c0: 9ba1 8f3d 05bc a63d af31 25bd 61ad 93bd
000001d0: 6eef 4d3d 4048 a6bc bd75 f1bb 745f 3cbd
000001e0: c6af a1bd 13a1 02bc 1f53 813c 5f38 40bd
000001f0: 9a21 52bd 1d36 88bd 9a53 7e3d e92a 933d
00000200: 964a 963d 51cd 99bc d571 b53b c543 483d
00000210: 9040 8d3d 48a6 673d 7364 a23c 370f 52bd
00000220: bffc 493d 12d1 7d3c 991d 83bd e2b9 013c
00000230: b849 81bd 4ddb 60bd ac63 83bd 6593 bdbc
00000240: f93c 283d 0614 60bd 6689 d13c e4eb 8bbd
00000250: ae12 d93c a1f5 afbd bc26 7fbd e084 eabc
00000260: 72e2 823d 74b2 203d 9ae7 323d 8786 8cbc
00000270: 9ca9 863d 9745 3b3d da2c 46bd ff5d 26bd
00000280: 30bd 4a3c a464 9d3d 91b7 99bd 37c7 8cbd
00000290: c9f0 1c3d d4b8 29ba 4219 753c c05e 7cbd
000002a0: f4bc 83bd 310b 81bd 3a40 00bc 50f8 7d3d
000002b0: f1ad 24bc ad40 c83b f1eb d1bc 88b4 d23c
000002c0: cfca 2d3d 9427 c7bc 6433 923c a258 173d
000002d0: 5122 4fbd d161 bbbd e77a c9bc 7a73 8dba
000002e0: 2b4c a2bd a118 a53c 145b 193c 3044 23bd
000002f0: 70e2 05bd 7b1f 84bc 88b7 aa3b 831a 86bd
00000300: 0660 2e3d 5777 673d a081 523c 1548 83bc
00000310: 4270 243c 50e8 7a3c cc22 39bd 67b7 acbb
00000320: 43d5 c23b b9ea 5d3c 809f f03c ae3a 383d
00000330: cb2f 9c39 8173 553d ca12 3c3d 99c6 253d
00000340: 60d1 4e3c 732f 5f3c 5388 b53c fe05 94bc
00000350: cc47 92bd 5c36 413c 966c 923d dc2b 923d
00000360: c7e7 3c3d 6f3e 823d e395 0e3d d126 65bd
00000370: 2e33 db3c b30f 6dbc 5d95 59bc d1cc 94bc
00000380: 9930 febc 5385 80bd fec1 a73d 1c5b 313c
00000390: d77d 4abd bd01 a03d 105b 68bd 2abd 83bc
000003a0: 6458 d23d 7f08 d3bc 0f23 acbd ba6e c53c
000003b0: ec1b 7dbc 2922 793d 860f e43c a3a2 583b
000003c0: f0fd 4a3c 8312 21bc 1c79 c7bd 7f95 50bd
000003d0: 1b01 55bd 7abc e33c b85e 0ebd 0d87 b33c
000003e0: dd66 95bd 943a febc 95da 473d cc46 ae3d
000003f0: 3aa5 7ebd e121 513d f484 863d 412d 8abd
-0.08028945 -0.05698352 0.015785566 0.120190516 0.064233705 0.055366892 0.04531846 -0.04759745
-0.0031024888 0.016860561 -0.033600744 -0.065850616 -0.020558592 0.088367 -0.014125278 0.06528593
0.012197381 -0.047053255 -0.040642098 0.080661096 0.017547376 0.037736334 -0.045738 -0.06539911
0.012647482 0.0022526465 -0.061791934 0.03907333 -0.06685597 0.008528366 0.020903751 0.014202189
0.06898683 -0.0748673 -0.05803485 0.009640304 0.026788885 0.009117433 0.06386331 0.03511543
0.015736472 -0.016211713 0.014237986 0.046225164 0.04241409 -0.007090417 0.0003258003 -0.04741765
0.02244616 -0.077292174 -0.021981148 0.045790557 0.078296475 0.062076017 0.024915837 -0.018829627
0.07810259 0.040395413 -0.06692685 -0.08408847 0.057385344 0.023859518 -0.024901107 -0.05506961
0.038914688 0.078581646 -0.015581442 0.06858889 0.07114818 -0.047515694 0.05528966 0.043727774
-0.022874255 -0.025062364 0.0286582 0.055813517 -0.01834099 -0.02508791 -0.00034138016 -0.037261017
0.052738693 0.045315206 -0.047083057 -0.046976253 0.010433532 0.037116427 0.021593068 0.0843424
-0.046191506 0.049897924 0.0781378 0.00019697261 0.01919314 0.097861156 0.0018890023 -0.03830326
-0.024396755 -0.002257117 0.015654031 0.054674163 0.02745141 -0.021302313 -0.048535626 0.01901689
-0.06935339 0.032575063 -0.035139684 -0.047982614 0.046833944 -0.063493714 0.032223772 0.089573525
0.07013246 0.08141331 -0.040330585 -0.07210804 0.050277166 -0.020298123 -0.007368772 -0.04598947
-0.07894854 -0.007972973 0.015786706 -0.04692876 -0.051301576 -0.06650946 0.062091447 0.07185919
0.07338445 -0.01877466 0.0055372515 0.048892755 0.0689708 0.056555063 0.019823289 -0.05128404
0.049313303 0.015491741 -0.0640213 0.007917853 -0.06312889 -0.05489664 -0.06415495 -0.023141572
0.041073773 -0.054706596 0.025578212 -0.06832102 0.026498165 -0.08591772 -0.0622928 -0.028627813
0.06390847 0.039232686 0.043677904 -0.017153991 0.06575319 0.045720663 -0.048382618 -0.040616985
0.012374207 0.07685211 -0.07505716 -0.06873935 0.038315568 -0.000647438 0.014959635 -0.0616138
-0.06432524 -0.06300963 -0.007827813 0.062004387 -0.0100512365 0.0061112256 -0.025625201 0.02572085
0.04242974 -0.024310865 0.01784677 0.03694976 -0.050569836 -0.091495164 -0.024594737 -0.0010791861
-0.07924684 0.020153346 0.009360094 -0.03985995 -0.03268665 -0.016128292 0.005209867 -0.065480255
0.042572044 0.056510296 0.012848288 -0.016025582 0.01003653 0.015314177 -0.0451992 -0.0052708867
0.005945833 0.013544732 0.02937293 0.044977836 0.00029790247 0.052112106 0.045916356 0.0404726
0.012623161 0.013622153 0.022159731 -0.018069264 -0.071426004 0.011792745 0.071496174 0.07137272
0.046119478 0.063595645 0.034810912 -0.05594522 0.026757803 -0.014469075 -0.01328024 -0.01816407
-0.031029033 -0.062754296 0.08191298 0.010824945 -0.049436416 0.078128316 -0.05672747 -0.016081411
0.102707654 -0.025760887 -0.084051244 0.02410065 -0.015448552 0.060823593 0.027839433 0.0033055923
0.012389645 -0.009831074 -0.09739897 -0.05092382 -0.052003007 0.027799834 -0.0347583 0.021914983
-0.0729501 -0.031033792 0.04879244 0.08509597 -0.06216929 0.0510577 0.065683275 -0.06746913

layer1.c1.bias f4 [16]
00000000: 0092 87bb f671 9c3c 0d7b 23bd cd5e 3fbd
00000010: 5d75 203d 875d 8e3d 98ed 73bd 72b3 9f3d
00000020: 34a0 e33c de6c 94bd a2bf cb3a f1a1 843d
00000030: 042c b33c 7d95 553d 4924 833c e238 28bd
-0.0041372776 0.01909731 -0.039912272 -0.04672127 0.039174426 0.06951433 -0.05955276 0.07797898
0.027786352 -0.07247327 0.0015544782 0.064762 0.021871574 0.052144516 0.016008513 -0.041069873

layer1.b1.weight f4 [16]
00000000: d696 7c3f 577f 763f 2a1a 823f d3cd 7c3f
00000010: b9aa 7d3f 8c87 803f 2c0d 7e3f 2855 843f
00000020: ccb9 7e3f aea5 7f3f e919 803f 4aff 7f3f
00000030: 618e 823f 654f 843f 5e0a 823f 6a10 803f
0.9866766 0.96288055 1.0164235 0.9875156 0.9908863 1.0041366 0.9923885 1.0338488
0.99502254 0.9986218 1.0007907 0.99998915 1.01997 1.0336729 1.0159414 1.0005009

layer1.b1.bias f4 [16]
00000000: ef00 cebb da5d 9abc a288 163b e5e1 fa3b
00000010: dfe0 f63c cad4 50bc 4108 afbb 8418 da3b
00000020: 7c07 a13b ec89 47bc ee53 b8bc ec1d d1bc
00000030: 0a06 93bb 153f a93c 3c71 e4bb d7a3 453c
-0.0062867324 -0.01884358 0.0022969623 0.0076563233 0.030136524 -0.012746045 -0.00534156 0.0066557545
0.0049142223 -0.012178879 -0.022500958 -0.025526963 -0.004486804 0.020659963 -0.0069715064 0.012062988

layer1.b1.running_mean f4 [16]
00000000: 870d c53e 4b0d 563e 1661 0fbf 98f6 6dbe
00000010: 0390 45be 184a 89be 9b48 26be 3fc5 aebe
00000020: 2aa1 93be a15f 07be 8e13 273e 8750 dc3e
00000030: c2a3 5bbe 857c c0be e782 2bbf 891b ea3d
0.38486883 0.20903508 -0.56007516 -0.232386 -0.19293217 -0.26814342 -0.16238634 -0.34134862
-0.28833896 -0.13220073 0.16316053 0.43030187 -0.21449187 -0.37595 -0.66996616 0.11431033

layer1.b1.running_var f4 [16]
00000000: bf4b 963e 9f8e 8c3e 93be d03e 07c3 623e
00000010: c5d9 c53e 919c 8a3e 57b9 823e c45a 893e
00000020: 3827 d93e 2672 953e cfd1 333e a595 a63e
00000030: 29bc 1a3e de69 9e3e 673a a83e a75b 4d3e
0.29354665 0.2745256 0.40770397 0.2214471 0.38642707 0.27072576 0.25532028 0.2682706
0.42412734 0.2918865 0.17560504 0.32536045 0.1511084 0.30940145 0.32857057 0.20054494

layer1.c2.weight f4 [16, 16, 3, 3]
00000000: 7647 79bd cd50 62bc 2905 6b3c c194 40bd
00000010: b28c aa3d 46d8 713d a7ae efbc bccf 473d
00000020: 9e51 6fbd d515 ddbc 50ad 853c ed97 bdbd
00000030: 61e8 83bc 961b f03c 479a 683d ffe8 923d
00000040: 3bd0 48bd 1f28 d2bc c47c 033c 8382 a23d
00000050: 4400 a7bd 5e2c 5cbd 28b2 6dbd 1e09 a8bd
00000060: ecdc 74bc f712 38bd 575e 683d 180f 473d
00000070: dad2 8cbc 7acc 023d bdbb 6e3d 5b7a 64bc
00000080: 01b1 f13c d815 c3bc e64d 8a3d e166 b9bc
00000090: d79a 80bd d485 433d 4628 34bc 9a2a cb3c
000000a0: 03d7 8f3d 5cac 7d3c 08de 733d a07b b83d
000000b0: b6d6 66bd c121 22bd 6a69 8fbd edec 54bd
000000c0: 2f2e 1ebd 08b0 07bd 82c0 c73c 4ea9 433d
000000d0: 10fd 953d 9d53 663d d0ff cdbb c018 48bb
000000e0: 20ea db3c 44c9 b9bc 27d1 11bc 777b 5cbd
000000f0: a63f aabc 5713 823d 478a 133d c6f8 b9bd
00000100: 6874 b2bd 4a0c 84bd f102 babd 7ac7 97bc
00000110: f44c 60bd 0ee2 56bd 7157 eabc 8019 b8bd
00000120: 91b0 34bd 62f4 c1bc a986 14bc 065c 5bbd
00000130: 44fe a5bd 92d1 2a3d e12b 05bd 34a5 bbbc
00000140: 8689 9cbd 369a ac3c 5d36 863b 0c19 0f3d
00000150: 1727 b23c e910 9dbc 044a 0d3d 1470 c739
00000160: 66b8 8fbd af38 8dbd 2f69 22bc 6836 c2bc
00000170: c7f3 1a3d a840 a3bd 4b58 9abd 3138 33bd
00000180: 5d6c 8dbc b27e 3dbd 94e7 9bb9 bed0 c0bd
00000190: 5dbc e2bc 3f3d 2d3b f240 b5bd f1c6 b7bd
000001a0: 027f d83c 6f76 42bc 46b5 43bd 28ec cabd
000001b0: 735c eaba e5a1 263d 9d8e 13bd b5e0 f7bc
000001c0: ef5b 1c3c 25f0 0ebe 6a16 88bd 499e 51bd
000001d0: f141 ca3c 6ffd a0bc c9a5 86bc 3838 3f3d
000001e0: 6732 963d df67 733d cae9 abbd 04e7 973b
000001f0: 89f9 28bd e25f 243c a179 82bd 5c7b 4f3b
00000200: 0ac1 d03c 9bbc 143d b55d 8dbb 4c46 613b
00000210: 7494 7ebd 780f 81bd 9a22 41bd 2092 7ebd
00000220: 1dd3 903d a01b 67bd 944f 86bd 1693 f13c
00000230: d2a9 2c3d 96e5 833d 8954 2a3d bd0f 48bd
00000240: 99ed 803c 2401 33bd 1f03 c8bc 5f0d 213c
00000250: a86b dc3c 9edd 353c eccb 183b 59db c13c
00000260: b633 96bd 0943 3dbd 331f 10bd 3bc5 183d
00000270: 5b41 10bd 459b 6a3c 0617 953b cf98 47bb
00000280: c421 923b b3f0 af3c 1fb9 05bd 9d55 1a3d
00000290: 25cc f1bc a540 893d 94c5 173d 881a 163d
000002a0: 06a0 873c 7db6 a63d bba0 c1bc 562a b5bd
000002b0: a0ad 49bd 8e5c 133d 7fc9 92bd 1fac 5e3c
000002c0: 5cb7 3cbd fc6a 34bb 31f3 7c3d 3a46 8b3d
000002d0: 8565 4a3d dcc0 883d c384 d53c f5e6 1dbd
000002e0: 7819 163c c16d 573d 55d0 9a3d 78d2 61bd
000002f0: 8cb8 0b3d 8373 57bc b5bf a1bc e155 8d3a
00000300: b5d3 363c 55b5 a13c 96b3 8c3d 39ff 17bd
00000310: 61f2 fabc 017f 91bd 4c22 3a3c defc 11bd
00000320: 7d52 79bd a111 a8bd ea00 8b3d d709 efbb
00000330: bc9d 983a 0b35 cbbc 6dba 66ba 1e95 bc3d
00000340: 7d0c 893d 1faf 843d 6643 b9bc 84b3 dfba
00000350: 345f 833d d1a5 c03d cad1 5b3d 32d7 75bd
00000360: 9afe cebc 88bc 5fbc e8a6 0cbd 5f49 cbbc
00000370: aca1 4abd da33 1b3c 2773 703c 3c85 28bd
00000380: 0acf 9ebc 3b74 22bd 8082 9ebd 73f1 61bd
00000390: 6dc1 75bd afd7 69bd 67a4 e63c be36 0d3d
000003a0: abff 15bd abb0 99bd 2e4b 923d e820 c93c
000003b0: baab 703d b2b6 efba df45 a23d 5248 093d
000003c0: 4359 1bbd 5530 06bd e392 61bd cd9a 83bd
000003d0: 31f8 df3c 8d9c 2dbd 9167 92bd 5007 373d
000003e0: adb3 08bd 79db f63c 5f5e 5ebd ed54 553d
000003f0: 8b0e b5bc b0b9 69bd 0dbf 0dbd e77e 6dbd
-0.060859166 -0.01381321 0.014344492 -0.047016863 0.08327617 0.059044145 -0.029258085 0.048782095
-0.058427446 -0.02698795 0.016317993 -0.09257493 -0.016102018 0.029310029 0.056787755 0.07173347
-0.04902671 -0.025653897 0.008025352 0.079350494 -0.081543475 -0.05375325 -0.05803123 -0.08204864
-0.01494525 -0.04493996 0.056730594 0.04859838 -0.017190386 0.031933285 0.05828451 -0.013945187
0.029503347 -0.023814127 0.06753139 -0.022632064 -0.06279533 0.04773505 -0.01099593 0.024800587
0.07023432 0.015482988 0.059537917 0.090079546 -0.056357108 -0.03958297 -0.07002528 -0.051983763
-0.038618263 -0.03312686 0.024383787 0.047768883 0.073236585 0.056232084 -0.0062865987 -0.003053233
0.026845038 -0.022678979 -0.008899963 -0.053828683 -0.020782303 0.06351345 0.036020543 -0.09080653
-0.08713609 -0.064476565 -0.09082592 -0.018527735 -0.05476089 -0.052461676 -0.028606148 -0.08989239
-0.0441137 -0.023676101 -0.009065309 -0.053554557 -0.08105138 0.041703768 -0.03251255 -0.022905923
-0.07643418 0.021069627 0.004095836 0.034935996 0.021747155 -0.019173102 0.034494415 0.00038039743
-0.07017593 -0.06895577 -0.009912773 -0.023707584 0.03783014 -0.079713166 -0.07536372 -0.04375476
-0.017263586 -0.046263404 -0.00029736443 -0.094148144 -0.02767771 0.002643421 -0.08850278 -0.08973492
0.02642775 -0.011869057 -0.047780298 -0.099083245 -0.0017880335 0.04068174 -0.03602468 -0.030258516
0.009543403 -0.13958795 -0.066449 -0.051176343 0.024689646 -0.019652097 -0.016436474 0.046684474
0.07333832 0.05942523 -0.08394201 0.0046356935 -0.0412536 0.010032626 -0.06370855 0.0031659221
0.025482673 0.03631268 -0.0043141493 0.0034374176 -0.062153295 -0.063017786 -0.04715214 -0.062151074
0.07071517 -0.05642283 -0.06558147 0.029489081 0.04215414 0.064402744 0.041584525 -0.048843134
0.015738295 -0.04370226 -0.02441555 0.009829848 0.026906803 0.011100201 0.0023314906 0.023664163
-0.07334082 -0.046206508 -0.035186004 0.03729747 -0.035218578 0.014319246 0.0045498637 -0.0030456071
0.0044595916 0.021477079 -0.03264725 0.037679303 -0.029516289 0.06701783 0.03705366 0.036646396
0.016555797 0.081402756 -0.023636213 -0.088459656 -0.049237847 0.03597694 -0.071673386 0.013590842
-0.046073303 -0.0027529588 0.061755363 0.06800504 0.049413223 0.0667741 0.026064282 -0.038550336
0.009161346 0.052594904 0.075592674 -0.05513236 0.034111544 -0.013150099 -0.019744733 0.001078304
0.011158873 0.019739786 0.06870191 -0.037108634 -0.030633153 -0.07104302 0.011360716 -0.035641544
-0.060869683 -0.082064874 0.06787284 -0.007294874 0.0011643688 -0.024805566 -0.00088015833 0.09208129
0.06691835 0.06478714 -0.022615146 -0.001706705 0.06414643 0.09406627 0.053666867 -0.06001968
-0.025267888 -0.013655789 -0.03433886 -0.02481526 -0.04947059 0.009472812 0.014675892 -0.041142687
-0.019385833 -0.039661627 -0.07739735 -0.055161905 -0.05999892 -0.057090458 0.028154565 0.034476034
-0.036620777 -0.075044 0.07143246 0.024551824 0.05875752 -0.00182887 0.07923483 0.033516236
-0.037926923 -0.032760937 -0.055071723 -0.0642601 0.027340027 -0.042385627 -0.0714866 0.044684708
-0.033374477 0.03013395 -0.054289218 0.052082945 -0.022101661 -0.05706185 -0.03460603 -0.05798235

layer1.c2.bias f4 [16]
00000000: 9404 04bd 0be3 22bd de3d 883d a25e f03c
00000010: adf7 f9bc 19c1 cbbc eb10 acbc ede0 833d
00000020: 7627 303d f19b 0ebd a17e f1bc 9603 d03c
00000030: 1fa1 77bd d49e 6c3d 963f 9d3c 80e7 843c
-0.03223093 -0.039767306 0.06652425 0.029342 -0.030513609 -0.02487235 -0.02100416 0.064393856
0.043006383 -0.034816686 -0.029479327 0.025392335 -0.06045639 0.057768658 0.01919536 0.016223669

layer1.b2.weight f4 [16]
00000000: 50ef 853f 8201 853f 4902 843f 527c 813f
00000010: 0685 7a3f 4449 833f 56b1 803f 7e25 823f
00000020: c915 853f cded 7e3f 4e0d 843f 2f6f 873f
00000030: 3849 803f 9ba6 843f 2885 853f fa91 873f
1.0463657 1.0391085 1.0313197 1.0116065 0.9785923 1.0256734 1.0054119 1.0167692
1.0397273 0.99581605 1.031656 1.0580806 1.0022345 1.0363344 1.0431261 1.0591424

layer1.b2.bias f4 [16]
00000000: 527e 04bc 46c1 32bc 0652 ed39 313c 9a3c
00000010: 67df 52bd 7f60 983c 5822 b93c d847 5cbd
00000020: 6868 863c 5db1 793b 6696 eabc 9b4d 303d
00000030: 65a3 a9bc 1321 e239 a4ac 483d 8c82 07bd
-0.008086758 -0.010910338 0.00045265275 0.01882753 -0.051482584 0.0186007 0.022599384 -0.053779453
0.016407207 0.0038100102 -0.028636169 0.04304276 -0.020707795 0.0004313072 0.048992768 -0.033083484

layer1.b2.running_mean f4 [16]
00000000: 76ec 2dbf ce12 0ebe 9abe 19be 5cee 063e
00000010: f110 643e 5c5f c33d 7b5f 80be 6896 e3bb
00000020: 6288 a6be 2022 61be 132b 81be 79f0 c3be
00000030: 0e07 a9bd fa1b 71bd 828c c6be cfce 44bd
-0.67938936 -0.13874361 -0.15014115 0.13176864 0.22272088 0.09539673 -0.25072846 -0.00694542
-0.32525927 -0.21985674 -0.25228176 -0.38269404 -0.08253299 -0.05886457 -0.38779074 -0.04804879

layer1.b2.running_var f4 [16]
00000000: 9474 083e 38d3 303e 3a13 ce3d ff0d ad3d
00000010: 0946 2b3e 3d56 223e 8ccd 793e 38bc db3d
00000020: 5501 e23d cb04 293e ada5 1b3e 4b3a 273e
00000030: 0977 033e 190b 0c3e 4a3d 0f3e 21cc ab3d
0.13325721 0.17268074 0.10062261 0.08449935 0.16725935 0.1585321 0.24394816 0.10729259
0.1103541 0.16505735 0.15199919 0.16330831 0.12838377 0.13676108 0.13988224 0.08388544

layer2.0.weight f4 [32, 16, 3, 3]
00000000: 8ed1 38bd c50b 553d c4ed 6b3d a378 b73c
00000010: 1bbd 9dbb 6fe3 10bd da8c f63c c36c 74bc
00000020: 8919 4a3d 4e50 d3bd 1e90 8fbd dfca a4bd
00000030: 82c7 013d 9c79 ebbc 2c63 1fbc 7be3 41bd
00000040: 9b2d 54bc 620e 2bbd 05e7 3bbd 6bf2 e1bc
00000050: ad28 eebd 8016 5e3d 252a 623c afe8 1cbd
00000060: 4675 acbd 4693 31bd 7a00 063b 2028 92bd
00000070: b67f 77bd 610e afbd 7a6b 0ebd 6a79 1f3d
00000080: cbeb af3c b48e bcbd 35c4 bfbc 64fb 91bd
00000090: a71e 2e3d 9809 7bbd 3439 183d c7a5 98bc
000000a0: 3a86 7c3d 653c 583d 7cd4 2d3d 0341 1cbd
000000b0: 6a5e 95bd 8dbd acbd 6469 e83c e028 893b
000000c0: d4eb b63c d0f3 833c 0811 363d 0ab6 0dbd
000000d0: ed87 523c ed76 533c 4be2 bcbd 750f 253d
000000e0: 2a5b adbd 710a 593c 9030 bdbd 30e4 36bd
000000f0: 44de 16bc 4664 9b3d 997a 2abc 6ab7 303d
00000100: 3255 ad3b b2b4 1a3d e81b 71bc b056 a3bd
00000110: ba0c a4bd 9298 4d3b 2707 3f3d c6d9 283d
00000120: 84ba 28bc 83a5 603d 93a4 503d efb5 303d
00000130: 1e3d b43d fb3a 1a3d 1e52 933d ddbf 57bc
00000140: d6de 363c 022a 323d de1e 6ebd 24c3 a93d
00000150: c961 4e3d c74a b43c f028 9c3d ec2e 92bc
00000160: f6b7 d63d 652f 813d aba4 76bd c4ab eb3c
00000170: b969 67bd 4829 81bd 9c95 c63c 377b 96bd
00000180: 6ba5 9fbc 1dc7 873c 28d6 b13c 4242 293d
00000190: 9dce c5bc bfe9 2e3d c36b 17bd 8c13 36bc
000001a0: a89b fe3c eb85 a7bb e8f9 a43c 43b6 143d
000001b0: 5af4 dabd a636 84bd 3a02 64bd c7b4 373d
000001c0: c7ce 9abd 3799 ea3c 9bc6 e8bc 7da0 aa3c
000001d0: 0cc2 a43b a56f b3bd 8bf3 4e3d 74a8 48bb
000001e0: 3903 d4bb bbab 8d3b 4540 42bd ce80 31bb
000001f0: ff68 2abd 76ee 5abd 78c9 8fbd 0f69 bfbc
00000200: 3fc7 99bb ea84 203d 2a33 1dbd 87f6 80bd
00000210: 67c5 5dbd 2b44 9a3d c559 debc c5ac 0ebd
00000220: 2241 d0bd 766d 333d c1c5 b73b 899b 283d
00000230: 9ade b63b b5b4 853d a765 5c3d 00bb 993d
00000240: 20b9 e4bb 13f9 0fbd 2981 c33d f7fe 6dbd
00000250: b4e1 123d 23ca e43c 2a20 16bd a9da 493d
00000260: 9bcd dcbc b88e eebc e4e6 273c e73c 393d
00000270: c7a6 2e3d 4f51 f1bb f7f0 78bc 0ed7 0fbd
00000280: 9efb 5ebd ecb7 72bd 3dab a0bd 2fc8 91bd
00000290: 4e01 5c3c 63de 243b 0319 9fbb 3775 983d
000002a0: 0039 033c 885b 80bc 6bdb 073d c3d9 e4bd
000002b0: 2bb8 28bd a378 14ba a246 b2bd 99fb 37bd
000002c0: 35a0 23bd 72f7 7ebd 94e6 20bb fccf d3bc
000002d0: 5c66 333d 300a 72bd e813 8dbc aa05 9dbd
000002e0: d727 943d 79f8 eabc 7ece b33c d088 d6bd
000002f0: af59 2c3d d450 2dbc 112f 4f3b a97e bc3d
00000300: 7e3e 2dbb 45ef c6bc 010b aa3d 298f d7bd
00000310: 111b 2cbd e31e 0b3d fd33 4cbd 879b 89bc
00000320: ba76 be3d 3676 ab3c 8533 703c 53a4 c43d
00000330: a71a cb3c 4398 5ebc 84d6 413d 6e09 05bd
00000340: 22f7 bebc a4c2 7c3b 5cd5 3e3d eb41 1f3d
00000350: 5da4 24bd d6d9 92bd 4d6f 2bbd 641e 2d3d
00000360: 86d6 373b 1fbe c93c e066 1ebc d99c 84bd
00000370: 0f48 883d 02dc 9f3d 6e06 af3b ecda 53bd
00000380: eedb 93bd 3ad7 063d 82d1 4fbd 5be3 8f3d
00000390: 9d59 7f3d 9bd9 35bc d019 8bbd 10b7 8cbd
000003a0: ff3d 18bc 406c fbbc 3c00 8c3c 6a39 e0bd
000003b0: 7ff7 643d ff5a b4bd 8bd6 6cbc a133 bcbc
000003c0: 3827 60bd a261 ebbd 20e9 323d f234 35bc
000003d0: 62ba a03c 28e6 8dbd d32b 9abd b439 8dbd
000003e0: 6c20 753d dea0 46bd c92f c53c 73c5 0f3d
000003f0: 1740 973c fce5 2bbc 1cf0 d0bc 0ac4 573d
-0.045121722 0.052013177 0.057599798 0.022396391 -0.004813803 -0.035373148 0.03009646 -0.014918509
0.04934076 -0.10318051 -0.0700991 -0.08046507 0.031684406 -0.028744511 -0.009728234 -0.047336083
-0.012950326 -0.041761763 -0.045874614 -0.027581414 -0.11628852 0.054220676 0.013803993 -0.038307842
-0.08420806 -0.04335334 0.0020447061 -0.071365595 -0.06042453 -0.085476644 -0.034770466 0.03893415
0.02147474 -0.09206906 -0.023408988 -0.07128027 0.0425097 -0.061288446 0.03716393 -0.018633736
0.061651446 0.05279197 0.04243897 -0.038147938 -0.07293399 -0.084345914 0.028370567 0.004185781
0.022329248 0.01610747 0.044449836 -0.034597434 0.01284979 0.012906772 -0.092228495 0.040297944
-0.08464654 0.013247118 -0.09237778 -0.04465121 -0.009208266 0.07587485 -0.010405206 0.043143667
0.005289697 0.03776998 -0.014716126 -0.07975519 -0.0801024 0.0031371457 0.04663768 0.04122331
-0.010298375 0.054845344 0.0509382 0.043142255 0.0880072 0.037653904 0.07193397 -0.013168302
0.011161527 0.043497093 -0.058134906 0.08289173 0.050386224 0.022008313 0.07624996 -0.01784464
0.104843065 0.06307868 -0.060215633 0.028768428 -0.05649731 -0.06306702 0.024241261 -0.0734772
-0.019488057 0.016574437 0.021708563 0.041322954 -0.024146372 0.042703386 -0.036968004 -0.011113059
0.031080082 -0.0051124 0.020138696 0.03630663 -0.106911376 -0.06455736 -0.055666186 0.044850137
-0.07558971 0.028637512 -0.028415015 0.02082848 0.005028015 -0.08761529 0.05052523 -0.0030617984
-0.0064701107 0.0043234504 -0.047424573 -0.002708483 -0.04160404 -0.05345007 -0.07020849 -0.023365526
-0.0046929414 0.039189257 -0.038378872 -0.06297021 -0.054143336 0.07532533 -0.027142415 -0.034832735
-0.10168673 0.043805562 0.005608291 0.041163955 0.0055807354 0.06528608 0.05380788 0.075063705
-0.0069800764 -0.035149645 0.0954612 -0.05810448 0.03585978 0.027928418 -0.036651768 0.049280796
-0.02695351 -0.029120788 0.01024792 0.045224097 0.04263952 -0.007364429 -0.015194169 -0.0351172
-0.05443918 -0.059257433 -0.07845161 -0.0711826 0.013428045 0.0025156967 -0.0048552766 0.07444232
0.008009195 -0.015668646 0.033168238 -0.11174347 -0.04119126 -0.0005663728 -0.087048784 -0.044917677
-0.039947707 -0.0622477 -0.0024551498 -0.02585601 0.04379879 -0.059091747 -0.017221406 -0.07667096
0.07234161 -0.028682934 0.02194905 -0.10475314 0.042077716 -0.010578353 0.0031613747 0.09203846
-0.0026434953 -0.024284014 0.0830288 -0.105253525 -0.042018 0.033965003 -0.049854267 -0.016797794
0.09299989 0.02093039 0.014660721 0.09601655 0.024792982 -0.013586107 0.04732372 -0.032479696
-0.023311201 0.0038568163 0.046590194 0.038881224 -0.04019581 -0.07170455 -0.04185419 0.04226531
0.002805145 0.02462679 -0.009668082 -0.06475229 0.06654369 0.07805635 0.0053413427 -0.051722452
-0.07219683 0.0329201 -0.05073691 0.070257865 0.06234132 -0.0110992445 -0.06792033 -0.06870854
-0.009292125 -0.030691266 0.017089956 -0.10948451 0.055900093 -0.08806419 -0.014455448 -0.022973837
-0.054724902 -0.11493231 0.043679357 -0.011059986 0.019620124 -0.069286644 -0.0752789 -0.068957716
0.059845373 -0.04849326 0.024070637 0.03510041 0.018463178 -0.010491844 -0.025505118 0.05267719

layer2.0.bias f4 [32]
00000000: fdcf 9f3d 9555 8bbd 0956 8ebd 13ba 79bc
00000010: 5ce6 60bd 3c3a 00bc f889 cbbc e128 3ebd
00000020: 70f7 cdbc 1567 2ebd 3d59 4d3d 2742 6d3d
00000030: 7690 9abd 0514 1abd 729f 9fbd 2da1 8cbc
00000040: d823 8c3c 3113 c8bb 968b 62bd 6e14 193d
00000050: f740 713d 4937 08bd 7226 88bc 18c0 1d3d
00000060: 41bd 30bb 30b7 5d3d 7306 0bbd 758f a3bd
00000070: b9e2 053d 965b d93b 4ed1 863c 5ddb a93d
0.078033425 -0.06803433 -0.06950004 -0.015242117 -0.054907188 -0.007826384 -0.024846062 -0.046425704
-0.025142401 -0.042578775 0.050133932 0.057924416 -0.07547085 -0.03761675 -0.07794084 -0.017166698
0.017106935 -0.0061058034 -0.0553089 0.037373 0.058899846 -0.03325585 -0.016619895 0.038513273
-0.0026968273 0.05412978 -0.033941697 -0.07986347 0.032686923 0.0066332323 0.016457226 0.08293793

layer2.1.weight f4 [32]
00000000: ce44 833f 3f36 7f3f 6606 803f 3ac6 823f
00000010: 2c26 843f 1dd7 893f cc36 873f d341 8d3f
00000020: 98d2 853f b8ea 843f 0260 8c3f e3cc 893f
00000030: c450 893f 15e8 8b3f f561 8b3f abd7 803f
00000040: 84b3 823f 1bef 8a3f 5aa0 833f 8885 7d3f
00000050: c18c 7d3f f368 823f 3df2 803f 74b4 843f
00000060: c81c 853f dfcc 753f efc5 813f d925 833f
00000070: 001a 863f 63bf 8b3f c845 843f c4e4 7f3f
1.0255373 0.9969215 1.0001953 1.0216744 1.0324149 1.0768772 1.0563598 1.1035713
1.0454893 1.038413 1.0966799 1.0765651 1.0727773 1.0930201 1.0889269 1.0065817
1.0211034 1.0854219 1.028331 0.9903188 0.990429 1.0188278 1.0073925 1.036757
1.0399408 0.96015733 1.013853 1.0245925 1.0476685 1.0917782 1.0333796 0.99958444

layer2.1.bias f4 [32]
00000000: 358a 163c 0c08 863c 06f1 b0bc 3d62 553d
00000010: 0bca fb3b f3a2 a53d 60ac 063e 5358 bd3d
00000020: 0398 903d 4d0f b63d d707 fc3d 717d d83d
00000030: e04c dc3d bdad 8e3d 7ba9 123e 9e70 91ba
00000040: 1f20 593c 3dbb d23d daec 6a3d f63b 923b
00000050: 6fb2 ae3c a43b 103d 28ce 23bc 2673 e23c
00000060: f42a d33c 4c95 a2bc 816e e7bb 0219 543d
00000070: 2c3e 153d e04f 273e 1efa 513d b5a0 3e3c
0.009188225 0.016361259 -0.021599304 0.05209564 0.0076839975 0.08087721 0.13151693 0.09245362
0.07060244 0.08889637 0.12306183 0.10570801 0.1075685 0.06966732 0.14322464 -0.0011096185
0.013252287 0.10289619 0.057354786 0.0044627143 0.021325318 0.035213128 -0.009997882 0.027642798
0.025777318 -0.01984658 -0.0070627336 0.05178166 0.036436245 0.16339064 0.05126392 0.011634995

layer2.1.running_mean f4 [32]
00000000: aef5 eebe 54d3 30bf 2096 033f c5e7 cebd
00000010: a68c f2bc c19d d43d e3b2 363e 4117 57bf
00000020: 45ab b0bf 9ef3 6cbf e6f3 d73e 7d35 d93e
00000030: 0b16 9e3d 3a29 3fbe 5307 7d3f 1319 3d3f
00000040: 2f53 593e 521d 74bf 09e7 e2bd 5842 8a3f
00000050: 2fdc 26be 5d12 62bd d4ab 0cbf 1065 23be
00000060: 78de 3bbe 2b62 103f 2909 493f 444f 4a3d
00000070: b989 0abe bf3a 85be 4837 193e 7dfc 5abf
-0.46671814 -0.6907246 0.5140095 -0.101028 -0.029608082 0.10381652 0.17841677 -0.8401986
-1.3802267 -0.9255923 0.42178267 0.4242362 0.07719048 -0.1866807 0.988393 0.73866385
0.21223138 -0.9535724 -0.11079223 1.0801497 -0.16294931 -0.055193294 -0.5494969 -0.15956521
-0.18346584 0.5639979 0.785296 0.049392 -0.135291 -0.26021382 0.14962494 -0.85541517

layer2.1.running_var f4 [32]
00000000: bd1f c23e 85e7 b13e 77c1 fe3e b6c6 953e
00000010: ec1d 783e 92b0 ac3e 5665 9c3e 4c4d 903e
00000020: aa94 a83e eb2f 033f a315 863e 9148 913e
00000030: a6fd 8e3e 2773 943e 13ac 8a3e 9826 cc3e
00000040: 817a 883e 8132 b83e f118 de3e 833b 763e
00000050: 2131 bd3e 719d 9d3e a464 a93e 6ecb be3e
00000060: ca62 833e 13c8 e33e b5a5 c03e 6dc0 9d3e
00000070: ee68 883e 2cb9 b33e 7b25 a43e 73bb 023f
0.3791484 0.34746948 0.49756977 0.29253167 0.24230164 0.33728462 0.30546063 0.28183973
0.32925922 0.5124499 0.26188383 0.28375676 0.27927893 0.28994104 0.27084407 0.39873195
0.26655963 0.3597603 0.43378404 0.2404614 0.36951545 0.3078418 0.33084595 0.3726458
0.25661308 0.44488582 0.37626424 0.30810872 0.26642555 0.35102212 0.32059845 0.51067275

layer2.3.c1.weight f4 [32, 32, 3, 3]
00000000: 720d b3bd 28e6 a7bd eab5 85bd 4cd6 373c
00000010: 03ce 343d 112d 2c3d 7652 0d3d 33fe 22bd
00000020: 858f c2bc 57dc 3b3b 4b49 213d 75b3 873d
00000030: 39fc 2c3d cca2 243d 2812 913d 171e 9a3c
00000040: 11eb 14bd 1098 a03d 5e43 f1bc 4cea 21bc
00000050: 9c3b 8fbc c392 14bd d31a d9bc bac7 ec3c
00000060: 176c d6bd edf6 8d3c 0bf1 7639 2d38 04bc
00000070: 3b8c 2dbd b64c c2bb 372d e53c d108 2c3d
00000080: b43b 3f3d 210a f4bc 3922 863c e339 d1ba
00000090: 1316 87bd c265 ddbc 9a7c 11bd 7674 5dbd
000000a0: d4e5 e9bb a189 ce3c 3bfa bcbd 17d1 24bd
000000b0: 0088 e53b 4f35 fcbc d874 843d 5dc9 5c3c
000000c0: 3f4e 04bb 7a7d 3d3d fb0f 703d f0da 113d
000000d0: 0396 7e3d adb8 ae3d 510f 1e3d 5574 263d
000000e0: bb35 1cbd 1987 09bd b284 103d e754 cd3c
000000f0: 5de5 4e3d f06b 9d3c 822e efbc 5813 f43c
00000100: ca0e d53c c182 313d 596c 0dbb 14bd 54bd
00000110: 739c dc3c 868c b13c ffec 8f3c 33c6 8e3d
00000120: a6c7 a7bc ed6c 013d 024e e13d 119d d83c
00000130: 98ba 24bb b0ba 053d 2dc3 85bc 57ba 8fbc
00000140: 70a4 cf3c 4b6b e73c 2d95 b4bb bdfb 253d
00000150: c9d8 293c dd3f 31bd 11b3 72bc 16c8 ea3a
00000160: ca9c ffbc 3cc2 42bd cf82 563b 8cc0 17bd
00000170: e208 d33c d48f babc 4ddd 483d d3ba 1e3c
00000180: dd97 e43c 0a1a 45bd 6027 54bc db4e b0bc
00000190: 3280 c13c 72a4 c63c b05c 8b3c 654b 2bbd
000001a0: 2818 ffbc eaf3 10bd 72c6 9bbc 84ec 08bc
000001b0: 3161 83bc c8a4 5e3c 14db 2e3d 0a05 fa3b
000001c0: 8516 2c3d e835 1b3d 794f babc bfbd f9bb
000001d0: 0a14 643d 13fb 8f3d 8226 683d 1cbf 19bd
000001e0: 97a4 ad3d a94b 12bc 62fa 19bc d7cb 9ebc
000001f0: c9b8 d6bc ba3b 343c c73c 37bd a496 ec3b
00000200: 0e29 60bd ca77 b0bc 7873 6cbc 0b66 263d
00000210: b357 a8bc c18c 073d 274d ba3c c44b 8ebd
00000220: 1341 4cbd 4371 123d bd5f 47bd 292c 5cbd
00000230: ffa3 85bb 096b d43c 3d34 fbbc 9c2a b83c
00000240: f406 90bc 8dbe 85bc af70 41bd adf5 09bc
00000250: 4bb5 cb3c 9706 46bc a1f8 5fba 1a41 12bd
00000260: 8076 eabc 952a 0bbd 9964 15bd c649 c4bb
00000270: 2442 01bd db7e 8abb 12ab 2d3c f353 d03c
00000280: 0db2 1c3d 2ffe 8e3d b2d2 acbc 4771 07bd
00000290: 0b66 373d 651c 92bc f5dd dfbb 2e4f 593c
000002a0: 5d8a 5abd cc5d dfbc 1742 1dbd 7fbe aabc
000002b0: c53e 10bd a4eb 03bd 0f83 13bd 7ecf 3dbc
000002c0: bda6 9bbb b8f5 393c f065 bebb 0fae e03c
000002d0: c58b c0bc 01f7 233d 40a7 873c be7e 543d
000002e0: 5c7d 033d 9c10 f43c a415 333c 7ede 653c
000002f0: af93 273d 5e5a e4b9 220a 56bd e057 d63b
00000300: 99f0 5e3d 46fa 88bd ba4f 39bd f055 e9bc
00000310: ddbd 42bd a1e4 f73b 8094 a3bd 02ef 9cbc
00000320: 30d9 9fbc 0baa 12bd bdc3 f2ba d9d2 46bd
00000330: 12b9 3abd 7e54 e43c 6c14 b5bb 9848 c33c
00000340: 054b 083d 2b9c 4a3d 3dac fabc d755 02bd
00000350: e505 7bbd a291 7dbd 6738 28bc 1352 cebc
00000360: f6c8 083c 8df2 833c 8984 533c 7f80 343d
00000370: 5b4b 8b3d 7152 4dbd da7b 893d 7713 08bd
00000380: 51ea 9ebc 60de 9bbd fdfe 52bd 6179 373c
00000390: 3820 523c 910c 663c d717 febc f8f7 42bd
000003a0: c90b 753c 623d 65bc 3173 eebd cb4f d3bc
000003b0: 8d84 273d 1283 28bd b61f b43c 15be e53c
000003c0: 5ec3 85bd 7f73 d4bc 9707 c83c c2cb 13bd
000003d0: 0498 21bd 5235 153c 051b 203d e30e 51bd
000003e0: 44c2 e9bc 51b0 85bd c3d4 e3bb e5ae 00bc
000003f0: 4961 8cbc edce 88bc 65e2 afbc 81d4 dcbc
-0.08742799 -0.08198196 -0.06528838 0.011220526 0.04414178 0.042035166 0.03450247 -0.039793205
-0.023750076 0.0028665268 0.03937654 0.066260256 0.042232726 0.040194318 0.07083541 0.018813176
-0.03635699 0.078415036 -0.029451068 -0.009882521 -0.017484479 -0.036272775 -0.026502049 0.02890383
-0.10469835 0.017329657 0.00023550184 -0.008070034 -0.042370062 -0.005929555 0.027975662 0.042000595
0.046687797 -0.029789986 0.01637374 -0.0015962686 -0.06596007 -0.027026061 -0.03551922 -0.054066144
-0.0071379934 0.025212111 -0.09227415 -0.040238466 0.007004738 -0.030787138 0.06467599 0.013475743
-0.002018824 0.046262242 0.05860899 0.035609186 0.06215478 0.08531318 0.038588826 0.040638287
-0.03813718 -0.033576105 0.035282798 0.025064899 0.050511707 0.019216508 -0.029196981 0.02979438
0.026008029 0.043337587 -0.0021579473 -0.05193813 0.02693007 0.021673452 0.017569063 0.06971397
-0.020480942 0.03159802 0.11001207 0.026442083 -0.0025135633 0.032648742 -0.016328419 -0.017544908
0.025346965 0.028249403 -0.005510947 0.04052328 0.010366627 -0.043273795 -0.014813201 0.0017912413
-0.031202693 -0.047548518 0.0032731777 -0.03704886 0.025761072 -0.02277366 0.049039174 0.009688097
0.027904445 -0.048120536 -0.012948841 -0.021521976 0.023620699 0.024248336 0.01701197 -0.04181995
-0.031139448 -0.035388865 -0.019015525 -0.008357171 -0.016037555 0.013589092 0.042689398 0.0076299952
0.042013664 0.037893206 -0.022742974 -0.0076214965 0.055683173 0.070303105 0.05667735 -0.03753577
0.08478659 -0.008929172 -0.009398075 -0.019384308 -0.02621116 0.011000568 -0.044735696 0.007220106
-0.054726653 -0.021541495 -0.014431827 0.04062466 -0.02054963 0.033093218 0.022741867 -0.06948045
-0.049866747 0.035752546 -0.048675288 -0.053753052 -0.0040783877 0.025929945 -0.030664558 0.022481255
-0.01758144 -0.016326213 -0.047226604 -0.00842039 0.02486672 -0.012086532 -0.00085438235 -0.035706617
-0.028620958 -0.033976156 -0.03647289 -0.00599024 -0.031557217 -0.004226548 0.010599868 0.025430655
0.03825574 0.069820754 -0.021096561 -0.033067014 0.04477505 -0.017835805 -0.0068318793 0.013263507
-0.05335461 -0.027266406 -0.038393106 -0.020842789 -0.03521611 -0.032207146 -0.03601366 -0.0115851145
-0.0047501014 0.011350088 -0.0058104917 0.027426748 -0.023504147 0.040030483 0.016559243 0.051878683
0.032101974 0.029793076 0.0109304525 0.014030097 0.040912326 -0.00043554878 -0.052255757 0.0065412372
0.05442867 -0.06688361 -0.04524205 -0.028483361 -0.04754435 0.0075650965 -0.079873085 -0.019156937
-0.019512743 -0.035806697 -0.0018521469 -0.048540924 -0.045586653 0.02787232 -0.005526116 0.023838326
0.03327467 0.04946534 -0.030599708 -0.031820145 -0.06128492 -0.061906464 -0.010267354 -0.02518562
0.008348694 0.016106868 0.012910017 0.044067856 0.06801482 -0.05012745 0.06713076 -0.033221688
-0.01939884 -0.07610774 -0.051512707 0.011198373 0.012825064 0.014041082 -0.031017227 -0.047599763
0.014956423 -0.013991686 -0.11643065 -0.025794884 0.040897895 -0.041140623 0.021987777 0.02804474
-0.06531404 -0.02593398 0.024417682 -0.03608299 -0.039451614 0.009106951 0.039088268 -0.051039588
-0.028535016 -0.0652777 -0.0069528534 -0.007854198 -0.017136233 -0.016700232 -0.021470258 -0.026956799

layer2.3.c1.bias f4 [32]
00000000: af84 26bd 36dc 6dbd 7e7f 973c 8e63 63bd
00000010: d773 4fbc b17e 113d 7618 183d 5844 16bc
00000020: ced5 1abd 13d9 7f3c 0198 0c3c 6d54 653d
00000030: 9910 193a 9f2a f2bb 5177 60bd 658c f3bb
00000040: 8c1a 93bc ef30 8f3c b5ca 73bd e6ed 44bd
00000050: 43ea 44bd 9317 483b de74 593d 8acf 70bb
00000060: 1d65 c0bb ba6d 5abd 33cd e63c 8a17 b03c
00000070: db3f a03a 3801 e63b bf6e e53c f96f b73b
-0.04065388 -0.058071338 0.01849341 -0.055514865 -0.012661896 0.035521213 0.037132703 -0.009171568
-0.037801556 0.015615719 0.008581162 0.055988718 0.000583896 -0.0073903347 -0.05480129 -0.007432508
-0.017956994 0.017479388 -0.05951949 -0.04807844 -0.048074972 0.003053163 0.05308997 -0.0036744797
-0.0058714286 -0.0533273 0.028174018 0.0214956 0.0012226062 0.0070191883 0.02800691 0.005598065

layer2.3.b1.weight f4 [32]
00000000: 63c1 803f 909e 7d3f 0a5b 803f c285 813f
00000010: 1be2 883f 0f13 6d3f 33d4 853f 22a2 713f
00000020: d917 7b3f d5d4 783f 9851 7d3f 3059 813f
00000030: cd56 763f e7e9 773f 6f1f 823f 5ba5 853f
00000040: 708d 7d3f 256a 7f3f 86c0 813f b3e4 723f
00000050: 8aeb 763f eb45 6c3f 0ded 6d3f 5b34 793f
00000060: 86c6 7a3f be8c 7f3f b9cd 803f 32f3 833f
00000070: cfdf 833f cb7e 7d3f a9ba 803f 72c2 7b3f
1.0059017 0.9907007 1.0027783 1.0118945 1.0694002 0.92607206 1.0455383 0.9438802
0.98083264 0.97199756 0.9895263 1.0105343 0.962262 0.9684128 1.0165843 1.0441087
0.9904394 0.9977134 1.0136878 0.9488022 0.96453154 0.92294186 0.92939836 0.97345513
0.9795917 0.9982413 1.0062782 1.0308592 1.0302676 0.99021596 1.0056964 0.98343575

layer2.3.b1.bias f4 [32]
00000000: 9088 deba 5941 91bd c488 bcbc 342a f9bc
00000010: d971 6abd 798e 8fbc 3b75 61bd 9f85 27bd
00000020: a0a5 9cbd eac1 cebc 02bd 1fbd 8c94 14bd
00000030: 7309 d2bc 1889 09bd 73b1 37bd 7a0f 30bc
00000040: 8ce9 25bd a26a dbbc 7eca 26bd b434 e2bd
00000050: 6a88 f2bd 27e1 33bd 93b8 b1bd e2d2 f4bd
00000060: b552 0abd f337 d03c 47e3 b7bc 4435 6fbc
00000070: 35df d3bd 40ad 623c 4eb1 c239 315d 92bd
-0.0016977955 -0.07092542 -0.023014434 -0.030415632 -0.05723748 -0.017523991 -0.05504344 -0.040898915
-0.07648778 -0.02523895 -0.03899861 -0.036274478 -0.025639271 -0.03357801 -0.044846963 -0.010745877
-0.04050593 -0.026784245 -0.040720455 -0.110452086 -0.11842425 -0.043915894 -0.08677783 -0.11954285
-0.03377028 0.025417304 -0.022447241 -0.014600102 -0.10345308 0.013835251 0.00037134666 -0.07146681

layer2.3.b1.running_mean f4 [32]
00000000: a3b7 80be c0c4 d73e 37bc c8be e171 52bf
00000010: c34a e6be a00b cebe 557d bdbe ccce c73e
00000020: 3c89 083f 455f 37be 7d48 ddbe 87b6 d2bd
00000030: 65b9 05bf 3496 2bbf d6de d9be 7085 17bf
00000040: a7bb bfbb 2356 12be 0b23 0e3d 4e31 1b3e
00000050: ab54 8abe 3e54 9b3e 89ee 07be 1187 7cbd
00000060: 088c a3bd e2f7 5b3e 4fdf 86be 6f57 0dbf
00000070: f0d3 613e 34de 9bbe 1332 d3be e7a4 54be
-0.25140104 0.42142296 -0.39206097 -0.82205015 -0.44978914 -0.40243244 -0.37009683 0.3902496
0.53334403 -0.17907436 -0.43219367 -0.102887206 -0.52236015 -0.67026067 -0.42552823 -0.59187984
-0.0058512273 -0.14290671 0.03470139 0.15155527 -0.27017722 0.3033771 -0.13274588 -0.061652247
-0.07985693 0.21481279 -0.26342246 -0.5521154 0.22053504 -0.30442965 -0.4124914 -0.2076603

layer2.3.b1.running_var f4 [32]
00000000: 43be 853e 3ac1 8c3e 32c0 223e 77f7 573e
00000010: 826a 563e d86e 9d3e 9689 373e 0dc8 733e
00000020: 574b 6e3e 6148 853e 0037 773e ba5a 1b3e
00000030: d33b 963e c8cc 673e 3852 6c3e 52dc 713e
00000040: 981d 583e b4b8 413e 515f 1d3e 0d9e 433e
00000050: d101 303e 1729 4e3e ea37 5a3e 6e2b 5d3e
00000060: 50fd 3a3e 609e 073e 5093 663e bac4 573e
00000070: 6cd4 6c3e ea12 2d3e 99df 4f3e 0cf6 253e
0.2612172 0.2749117 0.15893629 0.21090494 0.20939067 0.3074863 0.17923579 0.23806782
0.23270927 0.26031783 0.24142075 0.15171328 0.29342517 0.22636712 0.23078239 0.23619202
0.21105039 0.18918115 0.15368392 0.1910326 0.17188193 0.20132862 0.21310392 0.21598598
0.18260694 0.13244009 0.22517133 0.21071139 0.23127908 0.16901746 0.2030014 0.1620714

layer2.3.c2.weight f4 [32, 32, 3, 3]
00000000: 5b59 98ba 1d13 6abc bb0d e0bc 1774 383c
00000010: 6012 56bc ec52 093c 93d3 193d 74fe 0d3d
00000020: e0df 63bb fd2e 263c f404 283c 6ebb e33b
00000030: 5b93 343d ca8b 46bd b38a 033d afd7 123d
00000040: 5ab2 513d 6a60 4d3d c1aa dbbc 3bc7 cebc
00000050: d513 acbc 7d4f 7dbc 3205 193d 51d8 403c
00000060: f43e 16bd 95a2 833c 2099 b2bc 1a56 783d
00000070: 1d92 293d b19d 843d 67da 673c 5614 5e3b
00000080: b9a1 203d 8370 683c 04f7 4f3d 7df3 173d
00000090: fbc3 13bd 161d 8bbd b984 7bbd 270f 09bd
000000a0: 52e0 45bd e3c5 b8bd b72d b2bd dd52 43bd
000000b0: 1319 f4bd e9f9 1c3d 1337 0f3d 7ad8 3d3b
000000c0: 181d 703c 55f5 29bd 0be9 36bc 26c0 43bd
000000d0: c190 d2bb 35a2 3bbd 4f05 1cbd 08ec 46bc
000000e0: cfc2 46bd fa8d 81bd f158 31bd a621 6cbd
000000f0: e031 e9bc e144 febb 2d75 18bd 2a82 073d
00000100: fcb0 353d 97c1 ec3b c1b0 d63c 711b cc3b
00000110: e501 0ebd 69e8 993c 1f29 a13c 9aa7 5bbc
00000120: e79d 463d 3585 023d bed0 6c3d 765f f4bc
00000130: 9e1f 7fbc 8ee0 093d 4396 bcbc 0060 0dbc
00000140: 0cc7 d43c 0c40 14bb 0aa8 b7bc 35c8 78bd
00000150: 224b b9bc 3785 5bbd 1eae 26bd bcb1 c2bc
00000160: 2429 69bd f554 8cbd 7a61 a1ba 0e0a d23c
00000170: 747f 483d 20ff 313c dfd8 bcbc f71f 5d3d
00000180: 818b 243d 3550 a83a ddf8 833d 6bdb 473c
00000190: 6f68 083c 3dcd 3c3d 2706 13bc 4b9f 993c
000001a0: 1333 743d e238 473c 6498 4bbb d355 573d
000001b0: 345b 383d bb8f c83c e5f5 ba3c 30a9 353d
000001c0: 8931 ea3c 5ab3 af3b 2c77 3f3d 3e40 473d
000001d0: 6de2 a63d 81df 30bd f612 34bd 0b68 0cbc
000001e0: 0267 e43c 2bfc d33c de17 1fba aaf4 28bc
000001f0: e7dd 773c 0886 eebb f4a0 3ebd 2a93 d6bb
00000200: 70f1 a7bc f05f 1ebd 5ecd 78bc a1d4 f43c
00000210: ff8e 27bd c691 a8bc 5ed7 12bd 6c91 72bd
00000220: 509d 3bbd 48d3 8ebd f75d 7dbd 5a33 f3bc
00000230: 9d68 05bd 8016 35bd 0993 96bc 990c 46bc
00000240: de47 1dbd af83 44bd bee9 3bbd a1d2 5dbc
00000250: f3cd abbb 30e6 79bd 2435 56bc 0a1e 68bc
00000260: 022c 05bd a6fc 7b3d 4801 b73b ee6e 9f3b
00000270: 2f78 683d 5765 bc3b d4af de3c 4f28 273a
00000280: ad6c 1fbc 0ac3 bc3c 9564 bf3c 3339 6a3d
00000290: 9321 243d c83f b23c 7f95 06bc da98 053d
000002a0: 8b58 de3c 47b7 adbc 4dff 033d 7a46 993c
000002b0: 0646 3c3d 009d 5a3d 4f01 343c 151d 94bb
000002c0: c574 083d ce6e 903d 3889 8e3c 814a c73c
000002d0: b70e d23b 93a3 d23c 5781 283d 6943 a3bc
000002e0: 64d2 083d 7ef2 b83b 0f54 ea3c bca9 c13c
000002f0: 1afa 983d 9397 713c d939 27bc dc7a 6c3c
00000300: 8e7c f03c ca2b bdbc ef2e bd3b 5541 d53c
00000310: 40e3 3d3c 6b17 4f3b 063e 0abd 0304 47bc
00000320: 316b 023c 48c1 5b3c 2fa1 b03c a114 883c
00000330: 15af 1c3d e302 133d a7b8 6f3c 5e91 693d
00000340: aacf cb3b 8637 27bb 8e52 593d d49f d23c
00000350: 62ab ec3c 4c7f 3b3d b947 813b 5e94 a53c
00000360: d98d 3d3d 9e79 c03c c7b2 363b 082c ed3c
00000370: d917 e83c c297 00bd a3c8 1c3d 4720 2e3d
00000380: 33d4 f03b 3645 ca3c 4c10 c9bb 4154 49bd
00000390: a9b2 103c a60f d13b 8502 efbc b52e 803d
000003a0: 2fd5 cd3c 5412 32bb aab1 62bd 1e2f b7bc
000003b0: 693f 39bb 16ae 8ebd 8d1e dabc 0460 1fbd
000003c0: 6935 8cbd e685 7bbd 9e54 1abd 0ec8 f23c
000003d0: 2dc5 383d 89b3 103d d401 c83c 7c59 473d
000003e0: 6efc ec3c 053a 5c3d 5275 a33d aef4 4d3d
000003f0: ea99 b43d d689 b43c 5b80 e53d dfdf 593d
-0.001162331 -0.0142867835 -0.027350297 0.011258147 -0.013065904 0.0083815865 0.03755529 0.034666494
-0.003477089 0.010143039 0.010255087 0.0069498336 0.04408584 -0.048473157 0.032114696 0.035850223
0.05119548 0.050140776 -0.02681482 -0.025241485 -0.02100555 -0.015460846 0.03735847 0.011770324
-0.03668113 0.016068736 -0.021801531 0.060628988 0.04139911 0.0647539 0.014151192 0.0033886633
0.03921673 0.014186981 0.05077268 0.037097443 -0.036075573 -0.06792657 -0.06140587 -0.033461716
-0.04830963 -0.09022119 -0.08700126 -0.047686446 -0.11918845 0.03832427 0.034964632 0.0028968141
0.014655374 -0.041493732 -0.01116396 -0.04779067 -0.0064259474 -0.04580899 -0.038091 -0.012141235
-0.048525628 -0.06325908 -0.04329771 -0.057649277 -0.028466165 -0.007759676 -0.037221123 0.03308312
0.04435824 0.007225226 0.02620733 0.006228857 -0.034669776 0.01878758 0.019672928 -0.013406659
0.04849043 0.031865317 0.05781626 -0.029830676 -0.015571503 0.033661418 -0.02302087 -0.008628845
0.02597382 -0.0022621183 -0.022418994 -0.060737807 -0.022618834 -0.05359384 -0.040693395 -0.023766391
-0.056924 -0.06852142 -0.0012312375 0.02563956 0.048949674 0.010864049 -0.023052631 0.053985562
0.040172104 0.0012841286 0.06443951 0.012198309 0.00832568 0.046094168 -0.008973635 0.018752715
0.05961902 0.012159558 -0.0031066174 0.052572083 0.045008853 0.024482599 0.02282233 0.044350803
0.028588073 0.0053619565 0.04674451 0.04864525 0.08148656 -0.0431819 -0.043963395 -0.008569728
0.02788115 0.025877079 -0.0006068925 -0.010312239 0.015128589 -0.0072791614 -0.046540216 -0.006548305
-0.020500869 -0.038665712 -0.015185682 0.029886546 -0.040907856 -0.020577323 -0.03584992 -0.059220716
-0.04580432 -0.069738925 -0.06185719 -0.029687572 -0.03257047 -0.04421091 -0.018380659 -0.012087964
-0.038398616 -0.047977146 -0.04587721 -0.013538987 -0.005243057 -0.06101054 -0.013074193 -0.014167318
-0.032512672 0.06152024 0.0055848695 0.004865519 0.05675524 0.0057493853 0.02718345 0.0006376551
-0.0097305 0.02304222 0.023363391 0.057183456 0.04007108 0.021758929 -0.008214354 0.032616474
0.02714183 -0.021205558 0.032225896 0.018710364 0.045965217 0.053372383 0.01098664 -0.0045200684
0.033314485 0.07052384 0.017399415 0.024327518 0.0064104456 0.025712764 0.041138973 -0.019929605
0.03340377 0.0056441417 0.028604535 0.023640506 0.07469578 0.014745611 -0.010206663 0.014433589
0.029356267 -0.02309217 0.005773417 0.02603213 0.011589825 0.0031599652 -0.033750556 -0.012146953
0.007960127 0.013412781 0.021561233 0.0166114 0.03825291 0.035891425 0.014631427 0.0570234
0.006219824 -0.0025515272 0.053057246 0.025710978 0.028890315 0.045775697 0.0039453176 0.020212349
0.046277855 0.023495492 0.0027877556 0.02895166 0.028331684 -0.031394728 0.03827728 0.04251125
0.007349515 0.024691205 -0.006135976 -0.049152616 0.008831658 0.0063800393 -0.029176006 0.06258909
0.025126068 -0.002717157 -0.055345215 -0.022361334 -0.0028266555 -0.06966798 -0.026625896 -0.038909927
-0.06846125 -0.061406992 -0.037678353 0.02963641 0.045109916 0.035327468 0.024414934 0.048669323
0.028928962 0.05376627 0.079813614 0.050282173 0.08818419 0.022038382 0.112061225 0.053192016

layer2.3.c2.bias f4 [32]
00000000: 9f00 63bd 5840 933c 1073 38bd f491 a93a
00000010: 00d0 013d e6ea a6bc 32f2 363d 43d1 b4bc
00000020: 1991 bcbc e594 673d 083f 70bc 3586 e63b
00000030: fb08 8fbc 79c6 5d3c 3ab7 f83c 99a0 6b3d
00000040: ad36 44bd 0f58 273d 60ae 2fbd 8f97 0ebd
00000050: 953a 5abd c754 19bd 3c87 483d 5f6b 0c3d
00000060: d874 223c ed84 0b3d d2e0 3a3d 47ad 3a3d
00000070: 2de6 283b c094 893c bb23 57bd 2af2 063d
-0.055420514 0.017975017 -0.045031607 0.0012937174 0.031692505 -0.02037568 0.04466457 -0.02207244
-0.023018407 0.05653848 -0.014663465 0.0070350417 -0.017460337 0.013536089 0.030360807 0.057526205
-0.047903705 0.040855464 -0.042890906 -0.034812506 -0.053278524 -0.037434366 0.048957095 0.034282085
0.009915553 0.034062315 0.04562456 0.045575406 0.002577196 0.016794562 -0.05252431 0.03294579

layer2.3.b2.weight f4 [32]
00000000: 6f6c b33f 7406 a83f 5467 b33f 1972 bb3f
00000010: c02c ba3f 20e0 b23f 67da bb3f 0f62 b83f
00000020: 4139 b33f d054 bc3f 27ce aa3f 8471 ab3f
00000030: ed9d ae3f 1383 ab3f 3a6b ae3f 4d1c a73f
00000040: 673b a73f 83c3 ab3f 2c0e a73f a2b0 a73f
00000050: ea2f b33f c53b a73f 66f8 b53f 9229 aa3f
00000060: 6621 a83f 4baa b03f 0a63 aa3f 29f0 a93f
00000070: aabd a73f 2302 b03f e525 a63f 4cbc a53f
1.4017466 1.3126969 1.4015908 1.4644195 1.4544907 1.3974648 1.4676026 1.4404925
1.4001848 1.4713383 1.3344163 1.3394017 1.3641945 1.3399376 1.3626473 1.3055512
1.3065003 1.341904 1.30512 1.3100779 1.3998997 1.3065115 1.421643 1.3293936
1.3135192 1.3801969 1.3311474 1.3276416 1.3104756 1.3750652 1.2980314 1.2948089
